models/model_epoch_9.pth (torch, 581156 bytes, 18 tensors)

conv1.weight f4 [16, 8, 3]
0	0x3dc75b25	0.09734181
1	0xbe13bc6b	-0.14427345
2	0x3b2b9660	0.002618216
3	0x3e54f567	0.20796739
4	0x3d3a65cc	0.045507237
5	0xbd4b42ec	-0.04962437
6	0x3e281e48	0.16417801
7	0xbd99e6b4	-0.07514706
8	0x3e46c8d4	0.19412547
9	0x3d0003a6	0.03125348
10	0x3e31e483	0.17372327
11	0xbe054dfd	-0.13018031
12	0xbe306d08	-0.17229092
13	0x3dbeaa99	0.09309883
14	0xbd72dfb2	-0.059295364
15	0xbe184ca8	-0.14872992
16	0x3e302f17	0.17205463
17	0xbd35f433	-0.04442234
18	0xbe363524	-0.17793709
19	0x3e350478	0.17677486
20	0x3dd0ed4f	0.10201513
21	0x3da5cf80	0.08096218
22	0xbd920ed2	-0.07131733
23	0x3e1423e4	0.14466816
24	0x3e4dca46	0.20096692
25	0x3e44dd90	0.19225144
26	0x3d74cc9e	0.05976545
27	0x3df238bf	0.1182723
28	0xbdfa554d	-0.12223301
29	0x3da2aff0	0.07943714
30	0x3dd8cadf	0.105855696
31	0xbe03d91f	-0.12875794
32	0x3d80606f	0.06268393
33	0xbd3757d3	-0.04476149
34	0x3e1f4fc5	0.15557773
35	0xbe05433d	-0.1301393
36	0x3ddcea4b	0.10786875
37	0x3d91ec82	0.071251884
38	0xbc86aede	-0.016440805
39	0xbdf2f9e9	-0.11864073
40	0x3bf9f0c2	0.0076275775
41	0xbe1e876c	-0.15481347
42	0x3da7be7e	0.081906304
43	0xbe0be430	-0.13661265
44	0xbc631007	-0.013858802
45	0xbd1dabb7	-0.03849384
46	0x3e03a8a3	0.12857299
47	0xbdb09c5a	-0.08623572
48	0xbe3ffaba	-0.18747988
49	0xbcc7321e	-0.02431589
50	0xbd799738	-0.06093523
51	0xbe981c17	-0.2970893
52	0xbe4c6c4a	-0.19963184
53	0x3e704d55	0.23467
54	0xbe1220b7	-0.14270292
55	0x3d3674e3	0.044545066
56	0xbcedf456	-0.029047173
57	0x3e4d7ddb	0.20067541
58	0xbd27c439	-0.040958617
59	0x3e551c7f	0.20811652
60	0x3d5896b9	0.052878115
61	0x3e5238d7	0.20529495
62	0x3db465f3	0.08808508
63	0x3aaa2cc6	0.0012983314
64	0x3dc1df7b	0.09466454
65	0xbe569de7	-0.20958672
66	0xbe840f30	-0.25792837
67	0xbe022ea9	-0.12713112
68	0xbd2fe164	-0.04293956
69	0xbd408e7b	-0.04701088
70	0xbd99f78f	-0.07517921
71	0x3d6aaa5c	0.057291374
72	0x3e3bb8e1	0.18332244
73	0xb9c39a1b	-0.00037308116
74	0xbe051ae4	-0.12998539
75	0x3e2420fe	0.1602821
76	0x3e34f254	0.17670566
77	0x3d91bf0a	0.07116516
78	0x3db8f948	0.090319216
79	0x3e2a003c	0.16601652
80	0x3e0feac2	0.14054397
81	0xbde25c90	-0.11052811
82	0x3c4bf6db	0.012448992
83	0xbdc6af32	-0.097013846
84	0xbc824841	-0.015903594
85	0x3cf8414a	0.03030457
86	0x3dcd6c9c	0.10030481
87	0x3ce32844	0.027729161
88	0x3e1efbb9	0.15525712
89	0xbd9693b6	-0.073523924
90	0xbe4e3d9d	-0.20140691
91	0x3e384f8a	0.17999092
92	0x3c1de3a5	0.009636794
93	0xbdd27889	-0.102768965
94	0xbc951c71	-0.018202038
95	0x3db4ccab	0.088281
96	0xbd7cb5fc	-0.06169699
97	0x3e3c72f5	0.18403228
98	0xbe1a185a	-0.15048352
99	0xbda7f29f	-0.08200573
100	0x3e25e26f	0.16199659
101	0x3d855d1e	0.06511901
102	0x3c945783	0.018108135
103	0x3e430989	0.19046606
104	0xbdcb33eb	-0.09922012
105	0x3e0f7ae9	0.1401173
106	0xbd255c22	-0.040371068
107	0x3c8dc5e3	0.017306274
108	0x3dc04008	0.09387213
109	0x3d0a5031	0.033767883
110	0x3c6c4407	0.014420516
111	0xbe0430b7	-0.12909208
112	0xbd9690f1	-0.07351864
113	0xbde27782	-0.110579506
114	0x3dbacc99	0.09121055
115	0x3d904b20	0.07045579
116	0x3e15342c	0.14570683
117	0xbe242dd7	-0.16033112
118	0xbdb8f8c9	-0.09031827
119	0x3da57994	0.0807983
120	0x3def969c	0.11698648
121	0x3c764669	0.0150314355
122	0x3d6558bc	0.055992827
123	0xbdc04ca5	-0.09389619
124	0xb95a7d2c	-0.0002083673
125	0xbe098d98	-0.1343292
126	0x3e0536dd	0.1300921
127	0x3e312856	0.17300543
128	0xbd937362	-0.07199742
129	0x3db39dd1	0.087703355
130	0xbd6744b2	-0.056461997
131	0x3c78c6c8	0.015184112
132	0x3e77126c	0.24128121
133	0xbd8de0bd	-0.06927631
134	0x3e1f6bcb	0.15568464
135	0xbe2c8e80	-0.16851234
136	0xbcf2c1c2	-0.029633407
137	0xbe067ef0	-0.1313436
138	0x3e2dd543	0.16975884
139	0xbe172321	-0.14759494
140	0x3ce638ea	0.02810331
141	0xbdd082fa	-0.10181232
142	0x3b9b681f	0.004742637
143	0xbe0686f5	-0.1313742
144	0x3dc77906	0.0973988
145	0x3e500db7	0.20317732
146	0x3c700406	0.014649397
147	0xbcda0fed	-0.026618922
148	0x3cb80160	0.022461593
149	0xbc663a4c	-0.014051985
150	0xbe2839f9	-0.16428365
151	0xbd2741b2	-0.040834136
152	0xbcc45451	-0.023965986
153	0xbdb6fc0e	-0.08934794
154	0x3e4693fe	0.19392392
155	0x3de44db8	0.11147636
156	0x3d765730	0.060141742
157	0x3e0caa92	0.13736942
158	0x3de886ee	0.11353861
159	0xbdd2a7ba	-0.102858976
160	0x3e3452b4	0.17609674
161	0xbdf3a25a	-0.118962005
162	0xbdccab43	-0.09993603
163	0x3e479c22	0.19493154
164	0x3de487cb	0.11158713
165	0x3e47ec28	0.1952368
166	0x3c41a134	0.011818219
167	0xbd74d170	-0.059770048
168	0x3e231644	0.15926462
169	0x3c90f9a9	0.017697172
170	0xbd838497	-0.06421774
171	0x3d74c69c	0.05975972
172	0x3e895c22	0.26828104
173	0x3d0678c3	0.03283001
174	0xbbf62209	-0.0075113815
175	0xbd2490de	-0.04017722
176	0xbdff7799	-0.12473983
177	0x3dbbe34f	0.09174215
178	0x3d3b6b6c	0.045756742
179	0x3d345a21	0.044031266
180	0xbd7ca98a	-0.061685123
181	0xbe15db7b	-0.14634506
182	0x3e514cb5	0.20439418
183	0x3e7e2e29	0.24822296
184	0x3dac2bda	0.084068015
185	0x3d064308	0.03277877
186	0xbce37fad	-0.027770841
187	0x3f0c2710	0.54747105
188	0x3c9f0b3d	0.019414539
189	0xbc09debe	-0.008414922
190	0x3e3ad85e	0.182466
191	0x3e034f41	0.12823202
192	0xbd920854	-0.07130495
193	0x3bd13208	0.006384138
194	0xbd0962cc	-0.033541486
195	0x3d99400a	0.074829176
196	0x3dc7f6dd	0.09763882
197	0xbdd7c527	-0.10535651
198	0x3e16adbf	0.14714716
199	0x3d67c245	0.056581754
200	0xbe224609	-0.15847029
201	0xbe2928c1	-0.16519453
202	0x397a1203	0.00023848568
203	0xbd9c66c2	-0.07636787
204	0x3da1cd91	0.07900537
205	0xbba6f3fa	-0.0050950022
206	0x3e4cf40d	0.20014973
207	0xbe379440	-0.17927647
208	0xbe56407d	-0.20923038
209	0xbdf853bc	-0.12125346
210	0xbe14fc7b	-0.14549439
211	0x3d3cda9f	0.04610693
212	0x3e47ac60	0.1949935
213	0x39b1d7e8	0.00033920933
214	0xbdd51554	-0.10404459
215	0x3d6cd515	0.0578204
216	0xbddc8a92	-0.10768618
217	0x3d6a7d51	0.057248417
218	0x3e440232	0.19141462
219	0xbd33a8d2	-0.04386217
220	0x3dd52385	0.104071654
221	0xbdfecbc5	-0.1244121
222	0x3d482fb7	0.04887363
223	0x3d91ffb8	0.071288526
224	0xbe44da15	-0.19223817
225	0xbda16a0d	-0.07881556
226	0x3e09fc57	0.13475166
227	0x3e0dfdba	0.1386632
228	0xbd491ce2	-0.04909981
229	0x3dd30b39	0.10304875
230	0xbde5dc59	-0.112236686
231	0xbdbca2af	-0.09210717
232	0xbd8b20f6	-0.06793396
233	0x3e1396ff	0.14413069
234	0x3dccf549	0.10007722
235	0xbdace8b1	-0.0844282
236	0xbdb2ab59	-0.08724088
237	0x3dfded74	0.12398806
238	0xbe100043	-0.140626
239	0x3dc967bf	0.09834241
240	0x3e3d0699	0.18459548
241	0x3e41fefb	0.18944924
242	0xbc90e1f5	-0.01768587
243	0xbb05057a	-0.0020297454
244	0x3cf26d51	0.029593142
245	0x3ebcd66b	0.36882338
246	0xbd8665d9	-0.06562395
247	0xbdd804e0	-0.10547805
248	0x3d232027	0.039825585
249	0xbe6b6f36	-0.22991642
250	0xbe849174	-0.25892222
251	0xbd402bf7	-0.04691693
252	0xbde36a69	-0.111042805
253	0xbcd4887c	-0.025943987
254	0x3d312059	0.04324374
255	0x3e4a16bf	0.1973524

conv1.bias f4 [16]
0	0x3cfdcac8	0.030980483
1	0x3e502bb3	0.2032917
2	0xbd1e216b	-0.03860609
3	0x3e1bd80a	0.15219131
4	0xbe50bad6	-0.20383772
5	0xbda6b2e6	-0.08139591
6	0xbddb147d	-0.10697267
7	0xbd422a42	-0.04740358
8	0xbe0d067e	-0.13772008
9	0x3e212ccd	0.15739746
10	0xbdd52e7e	-0.10409258
11	0xbe57227e	-0.21009251
12	0xbd8478d4	-0.06468359
13	0x3d0351ff	0.03206062
14	0x3e0f1c0b	0.13975541
15	0x3e0ca091	0.13733126

conv2.weight f4 [32, 16, 3]
0	0x3dca499c	0.09877321
1	0x3d9f22af	0.07770287
2	0xbd7daece	-0.061934285
3	0xbd183d13	-0.03716762
4	0x3e0278e8	0.12741435
5	0xbbda3947	-0.00665966
6	0xbdb4e2d8	-0.088323295
7	0x3cd72042	0.026260499
8	0xbd94df0a	-0.07269104
9	0xbdb0b6db	-0.08628627
10	0xbdbafa30	-0.09129751
11	0xbdfc0174	-0.12304965
12	0xbd1d18d9	-0.038353775
13	0xbe127724	-0.14303261
14	0x3b7b166d	0.0038312927
15	0x3d5b084b	0.053474706
16	0xbdcef367	-0.10105019
17	0xbc46f64f	-0.0121436855
18	0xbdae25f3	-0.08503332
19	0xbce90ea7	-0.02844937
20	0xbd19875f	-0.037482616
21	0x3ddd4d5f	0.10805773
22	0xbd8c6583	-0.06855299
23	0xbdcc331d	-0.099706866
24	0xbdfee600	-0.12446213
25	0xbd420f0b	-0.047377627
26	0x3c57b52e	0.013165755
27	0x3c82918d	0.015938545
28	0x3d90d1b8	0.07071251
29	0xbd6c2601	-0.05765343
30	0xbdf0bc23	-0.11754634
31	0xbe22f90a	-0.15915313
32	0xbe50cf18	-0.203915
33	0x3d589983	0.052880775
34	0xbd00c1c5	-0.031434793
35	0xbe4fccd3	-0.20292978
36	0x3d98cf40	0.07461405
37	0xbd33ebfa	-0.043926217
38	0x3deee692	0.116650715
39	0xbb29b757	-0.0025896633
40	0x3d65656f	0.056004938
41	0x3daeb359	0.085303016
42	0xbd8f45df	-0.06995749
43	0x3e12c8f0	0.14334464
44	0xbd9ff82b	-0.07811006
45	0xbca5e18e	-0.020249154
46	0x3df82638	0.12116665
47	0xbc8d1ee6	-0.017226648
48	0xbe0d3ff0	-0.13793921
49	0x3d8ff3da	0.07028933
50	0x3e282183	0.16419034
51	0x3dd8d00e	0.10586558
52	0x3d48d019	0.049026582
53	0x3d8e91a8	0.069613755
54	0xbe2125ec	-0.15737122
55	0xbdc5303c	-0.096283406
56	0xbd52bf38	-0.05145189
57	0x3d8c52be	0.06851719
58	0xbe0f95d3	-0.14021997
59	0x3c12e702	0.008966209
60	0xbdcb3703	-0.09922602
61	0x3ddc0971	0.10743988
62	0xbd3cb30a	-0.046069182
63	0xbdc31c20	-0.09526849
64	0x3ddfc056	0.10925357
65	0x3d836a62	0.06416775
66	0xbdac010b	-0.083986364
67	0x3c8f15aa	0.017466385
68	0xbd9c49c7	-0.076312594
69	0xbd2f6910	-0.042824805
70	0x3d9bb668	0.076031506
71	0x3db293b9	0.08719582
72	0xbc32d26a	-0.010914424
73	0xbd51ee77	-0.05125281
74	0xbde9ebea	-0.1142195
75	0xbdda7282	-0.10666372
76	0xbda11889	-0.07866008
77	0x3e124dd9	0.14287509
78	0x3b3f6e73	0.002921012
79	0xbe09461f	-0.13405655
80	0x3e60634b	0.21912877
81	0xbdc608b0	-0.09669626
82	0xbd34b0e2	-0.044114
83	0xbceec805	-0.029148111
84	0xbcb46efb	-0.022025576
85	0xbd92832c	-0.07153925
86	0x3df6d98f	0.12053215
87	0xbcc5c488	-0.024141565
88	0x3d29b978	0.041436642
89	0x3dc8f368	0.09812051
90	0xbd39bbea	-0.045345224
91	0xbb897458	-0.0041947775
92	0xbd4f8a15	-0.050668795
93	0xbd4c01a5	-0.049806256
94	0xbdd2cc25	-0.10292844
95	0x3de213ac	0.11038908
96	0xbd99ee21	-0.075161226
97	0xbca0655e	-0.019579586
98	0x3ca7e6dc	0.020495825
99	0x3d21d52d	0.03950994
100	0x3d30518d	0.043046523
101	0xbd1f9a89	-0.038965736
102	0xbdea23af	-0.11432587
103	0xbcbdbb7e	-0.023160692
104	0xbdfe4733	-0.12415924
105	0xbd30eb5c	-0.043193206
106	0xbdb6d61c	-0.08927557
107	0x3dd56f46	0.10421614
108	0x3d6a5c6f	0.057217058
109	0x3c72e533	0.014825153
110	0x3e0b42d4	0.13599712
111	0x3df59805	0.11991886
112	0xbd52d4d6	-0.051472507
113	0xbcf92c94	-0.030416764
114	0x3c57ab11	0.013163344
115	0x3be7eb18	0.007077586
116	0x3d0b3189	0.033982787
117	0x3cde5de8	0.027144387
118	0xbcb77a40	-0.02239716
119	0xbc2d8d98	-0.010592841
120	0xbc924fa2	-0.017860238
121	0x3d59266c	0.053015158
122	0xbce07a3c	-0.027402036
123	0x3c63b0ec	0.013897162
124	0xbdd4f4bb	-0.10398241
125	0xbcf924e5	-0.0304131
126	0xbde7ee69	-0.1132477
127	0xbe063280	-0.13105202
128	0xbd156fc5	-0.036483545
129	0xbdb2086f	-0.08693015
130	0xbdb2d0a7	-0.087312035
131	0x3d9677b7	0.073470525
132	0x3a40e4c5	0.0007358308
133	0xbd6f5616	-0.058431707
134	0x3d941e0c	0.072322935
135	0x3ccdf28b	0.025140068
136	0x3d6f1ad2	0.058375187
137	0xbd8d73f1	-0.0690688
138	0xbd61dc0a	-0.055141486
139	0x3c8cdad8	0.017194197
140	0x3ddec4f6	0.10877411
141	0x3e120130	0.14258265
142	0xbd47a654	-0.048742607
143	0x3dcaafe7	0.09896832
144	0xbec111f0	-0.37708998
145	0x3e9d4b5d	0.3072156
146	0xbc05b931	-0.008161829
147	0xbde2942c	-0.11063418
148	0x3cc5877a	0.024112452
149	0x3debd219	0.11514682
150	0xbbff78b0	-0.0077963695
151	0xbeb54d33	-0.3541046
152	0xbcca751a	-0.024714042
153	0xbe046384	-0.12928587
154	0xbd9c4871	-0.076310046
155	0x3d98d65a	0.07462759
156	0x3b1ae7e1	0.0023636746
157	0xbdb76f43	-0.08956768
158	0xbbc31438	-0.005953338
159	0xbe1d0c27	-0.15336667
160	0xbdbdbcbc	-0.09264514
161	0xbd95a12e	-0.07306133
162	0xbe06ecd0	-0.13176274
163	0xbd0b9b4c	-0.03408365
164	0xbdf7f023	-0.12106349
165	0xbe2f04fe	-0.17091748
166	0xbd9d1ac3	-0.0767112
167	0x3cade981	0.021229507
168	0xbc1295e4	-0.0089468695
169	0x3d7d7be1	0.06188572
170	0x3e0f5032	0.13995436
171	0xbdeadc3a	-0.11467786
172	0xbdc8e7ec	-0.098098606
173	0xbc8e4eb1	-0.017371507
174	0x3d0d6508	0.03452018
175	0xbc9ca8e9	-0.019123511
176	0xbe036c56	-0.12834296
177	0xbdd9c5d9	-0.106334396
178	0x3e608041	0.21923925
179	0xbc834df6	-0.016028386
180	0x3dc66c50	0.09688628
181	0xbdce677e	-0.10078333
182	0x3e0d890a	0.13821808
183	0x3db5d794	0.08879009
184	0x3d84ecea	0.064905
185	0x3c818a59	0.01581304
186	0x3ddee33a	0.10883184
187	0xbd337743	-0.04381491
188	0x3df91f18	0.12164134
189	0xbdd4afd9	-0.10385103
190	0x3db871cc	0.0900608
191	0x3d4525d5	0.048131783
192	0xbd11c280	-0.03558588
193	0xbc62effa	-0.01385116
194	0x3b2bb6e6	0.0026201545
195	0xbe0597f1	-0.13046242
196	0x3d8b52e7	0.06802922
197	0x3da20d63	0.079127096
198	0xbc9ef87c	-0.019405596
199	0xbd746a1a	-0.0596715
200	0xbc49a66d	-0.012307745
201	0x3c366680	0.011132836
202	0x3dea3bae	0.11437164
203	0x3d215eed	0.03939717
204	0xb9aaa4a1	-0.00032547585
205	0x3e126e03	0.14299779
206	0xbda8c268	-0.08240205
207	0x3e071ae7	0.13193856
208	0x3d49035d	0.049075473
209	0xbdff9c78	-0.12481016
210	0x3db51088	0.08841044
211	0xbad8a976	-0.0016529995
212	0xbcdc5535	-0.026896099
213	0xbe9100de	-0.28320974
214	0xbd8f7773	-0.07005205
215	0xbe1d816b	-0.153814
216	0x3c9c0b9c	0.019048505
217	0xbd9c22fd	-0.07623861
218	0xbd20e8b2	-0.039284416
219	0xbcddfe51	-0.027098807
220	0x3d861d02	0.065485016
221	0x3e031bb4	0.12803537
222	0xbdfb28ce	-0.12263642
223	0xbe3bfa3d	-0.18357177
224	0xbe85aa22	-0.26106364
225	0xbe3f7c55	-0.18699773
226	0xbdede005	-0.11614994
227	0x3a87cd33	0.0010360837
228	0x3d743046	0.05961635
229	0x3d4e79c0	0.05040908
230	0x3d59be72	0.05316014
231	0xbd8dbe70	-0.06921089
232	0x3c1ffeac	0.009765308
233	0x3b04ef9f	0.0020284427
234	0xbd4a6995	-0.049417097
235	0x3a63fa07	0.000869662
236	0xbd9abeb1	-0.07555903
237	0xbcfb090a	-0.030643959
238	0xbde84f76	-0.11343281
239	0xbdc49918	-0.09599513
240	0xbe28eb79	-0.16496076
241	0x3b9972cc	0.0046828743
242	0x3db73130	0.08944929
243	0x3df33937	0.11876147
244	0xbdac16b2	-0.08402766
245	0xbc532036	-0.012886098
246	0xbe3275ac	-0.17427701
247	0xbcdf4c9e	-0.027258214
248	0xbcabd5a3	-0.020975893
249	0x3ab86b16	0.001407
250	0x3d276032	0.040863223
251	0xbcf4e910	-0.02989629
252	0x3dc28985	0.09498886
253	0x3dad8966	0.08473472
254	0xbc783ca8	-0.01515118
255	0x3c0a66c0	0.008447349

conv2.bias f4 [32]
0	0xbe27b42f	-0.16377328
1	0xbe19280d	-0.14956684
2	0xbe317193	-0.17328481
3	0xbccefd96	-0.025267404
4	0xbd1c2e3b	-0.038130026
5	0xbea46433	-0.32107696
6	0xbe4ca3b7	-0.19984327
7	0x3e2a983f	0.1665964
8	0xbc0652f1	-0.008198486
9	0xbd3bae7d	-0.045820702
10	0xbe0e26dd	-0.13882013
11	0x3dbcfca2	0.092278734
12	0xbe83974b	-0.25701365
13	0x3db6fea2	0.08935286
14	0xbe608166	-0.21924362
15	0x3ddafbdd	0.1069257
16	0xbdbcca19	-0.092182346
17	0x3d9f0e54	0.07766405
18	0x3e7672ba	0.24067202
19	0xbd5970ae	-0.053085975
20	0x3e23cf08	0.15996945
21	0x3d9ab1ca	0.07553442
22	0xbbb305eb	-0.005463352
23	0xbd0b5a97	-0.03402194
24	0xbc3e7e56	-0.0116268005
25	0xbdae8f03	-0.08523371
26	0x3e418b66	0.18900833
27	0xbd06a28d	-0.032869864
28	0x3e8256bc	0.25456798
29	0xbe35cea5	-0.1775461
30	0xbcdd38b9	-0.027004587
31	0xbd7a6eee	-0.061140947

transformer.layers.0.self_attn.in_proj_weight f4 [96, 32]
0	0x3ea5810d	0.3232502
1	0x3edfc552	0.4370523
2	0x3d8ec077	0.069703035
3	0xbeee111c	-0.46497428
4	0x3b7b4259	0.0038339107
5	0xbd3a3ca2	-0.04546798
6	0x3dbf48f0	0.093400836
7	0x3dfd8659	0.123791404
8	0x3e281b22	0.164166
9	0x3e1c5620	0.15267229
10	0x3f6429a1	0.8912602
11	0x3ee7c0e7	0.4526436
12	0x3e926842	0.28595167
13	0x3f759830	0.95935345
14	0x3ebb748e	0.36612362
15	0x3f256fe1	0.6462384
16	0x3f01c6cb	0.5069396
17	0xbf1ccda2	-0.6125127
18	0x3daf2e5a	0.08553763
19	0xbd2836e1	-0.04106796
20	0x3e4d1ae1	0.20029785
21	0xbe037a69	-0.12839665
22	0x3ecea5c2	0.40360838
23	0x3e940d53	0.28916416
24	0x3e7a6ce2	0.24455598
25	0x3eba2261	0.36354354
26	0x3f59a0e1	0.85011107
27	0x3e9ae3b6	0.30251855
28	0x3e8deed7	0.27721283
29	0x3d9a4f23	0.075346254
30	0x3ec7162d	0.38884106
31	0x3ecce33e	0.40017122
32	0xbd5a4e18	-0.053297132
33	0xbec52044	-0.3850118
34	0xbdb42531	-0.08796156
35	0xbe0cb089	-0.13739218
36	0xbc94c56a	-0.01816054
37	0xbe8d645d	-0.27615634
38	0xbe2f5c74	-0.17125112
39	0xbe030ead	-0.12798567
40	0x3b826785	0.0039796256
41	0x3d8c8186	0.06860642
42	0xbf0697a1	-0.5257512
43	0xbe8e778e	-0.27825588
44	0xbec28f0c	-0.3799976
45	0xbf5436c2	-0.82896054
46	0x3d86eee2	0.06588532
47	0xbeb1e9c0	-0.3474865
48	0xbebe827f	-0.37208936
49	0x3f450f83	0.76976794
50	0xbe5497f8	-0.20761096
51	0x3e859464	0.26089776
52	0x3e4a3b00	0.19749069
53	0x3ec71641	0.38884166
54	0xbece2a40	-0.4026661
55	0xbf032f6c	-0.51244235
56	0xbe8d049c	-0.2754258
57	0xbefc6dab	-0.4930242
58	0xbea86202	-0.32887274
59	0xbe80e851	-0.25177243
60	0xbe39e5c1	-0.1815405
61	0xbaad3d21	-0.001321707
62	0xbe5861b6	-0.21131024
63	0xbda9d889	-0.08293254
64	0xbdf10b47	-0.11769729
65	0x3eb7e02c	0.35913217
66	0x3df54c78	0.11977476
67	0x3e354d42	0.17705253
68	0xbbe46f9b	-0.006971312
69	0x3e6e4a06	0.23270425
70	0xbdfa6fb4	-0.12228337
71	0x3e2e68eb	0.1703221
72	0xbdd7034b	-0.10498675
73	0x3c98df9c	0.018661313
74	0x3e8b142a	0.2716382
75	0x3d8d2510	0.06891835
76	0x3dd0c9b9	0.101947255
77	0x3e8db919	0.2768028
78	0xbdb873ca	-0.0900646
79	0x3f16e211	0.589387
80	0x3e867a53	0.262652
81	0xbf3a2a0a	-0.72720397
82	0x3eafa738	0.34307265
83	0xbe0f2bb9	-0.13981523
84	0x3e05eae2	0.13077882
85	0xbecc5b69	-0.3991349
86	0x3e48547a	0.19563475
87	0x3e9e50bc	0.3092097
88	0xbd4504f4	-0.048100427
89	0x3eb11e29	0.34593323
90	0x3f30e635	0.6910127
91	0x3eae934e	0.3409676
92	0x3f049820	0.51794624
93	0x3dac2753	0.08405938
94	0x3eabf66e	0.33586448
95	0x3e371d56	0.17882285
96	0xbec21ce3	-0.37912664
97	0xbee4992e	-0.44648117
98	0x3e56435c	0.20924133
99	0x3f65aa11	0.89712626
100	0xbe61a13a	-0.2203416
101	0x3de2cbd4	0.110740334
102	0xbd2447d3	-0.04010756
103	0xbe2489c4	-0.16068178
104	0x3cece60e	0.028918292
105	0xbe2dcd38	-0.16972816
106	0xbf021850	-0.5081835
107	0xbe70560f	-0.23470329
108	0xbe2a51bc	-0.16632742
109	0xbf839a10	-1.0281391
110	0xbe2b6c6c	-0.16740578
111	0xbeb4ef2d	-0.35338727
112	0xbed2c6a9	-0.4116719
113	0x3f182018	0.5942397
114	0xbd72af82	-0.05924941
115	0x3eb0ba3a	0.3451708
116	0xbe3f4812	-0.18679836
117	0x3db8d6ab	0.0902532
118	0xbf23a932	-0.63930047
119	0xbf0317df	-0.512083
120	0x3e04916a	0.12946096
121	0xbf02be38	-0.510715
122	0xbf24bb2b	-0.64348096
123	0xbddf8e3f	-0.10915803
124	0xbe55cb7e	-0.20878407
125	0x3dc7f867	0.09764176
126	0xbed8dd61	-0.423564
127	0xbdbd5c0e	-0.09246074
128	0xbc9e58c9	-0.019329445
129	0xbc93392e	-0.017971601
130	0xbde38cd4	-0.11110845
131	0xbce65abd	-0.02811944
132	0xbcde00c8	-0.027099982
133	0x3e1286d7	0.1430925
134	0x3e0dd9f6	0.13852677
135	0x3e22d193	0.15900259
136	0x3df30285	0.11865715
137	0xbdb58445	-0.08863119
138	0x3e8aff36	0.27147835
139	0xbdf3b0c0	-0.11898947
140	0x3cbcdc0c	0.023054145
141	0x3e7b7fc7	0.24560462
142	0x3d815819	0.063156314
143	0x3e526c07	0.20549022
144	0x3da0e9b1	0.07857073
145	0xbdbee0ad	-0.09320197
146	0xbeae467a	-0.34038144
147	0x3dbf961e	0.093548045
148	0x3e97e460	0.29666424
149	0x3f135826	0.5755638
150	0xbded3f12	-0.11584295
151	0x3d5db94a	0.054131784
152	0x3e80ed25	0.25180927
153	0xbd3f4279	-0.046694253
154	0x3e4f03f9	0.20216359
155	0x3ef640b3	0.48096237
156	0xbea2b59a	-0.31779176
157	0xbd2adb68	-0.04171315
158	0x3e2fea23	0.1717916
159	0x3e5e6fbf	0.21722315
160	0xbe1ee0ec	-0.15515488
161	0xbe2c85bb	-0.16847889
162	0x3d090a3f	0.033457037
163	0xbe1c99db	-0.15293066
164	0xbd3724e8	-0.04471293
165	0xbd90fb33	-0.070791624
166	0x3deaa060	0.1145637
167	0x3e691b2f	0.22764276
168	0xbdfcc94c	-0.12343082
169	0x3cd126af	0.025531141
170	0xbe9f00ac	-0.310552
171	0x3e9f316c	0.31092393
172	0x3d12b7a5	0.03581967
173	0xbe75276b	-0.23940818
174	0xbe888bf3	-0.26669273
175	0xbda41fae	-0.08013855
176	0x3c9b1980	0.018933058
177	0x3e15af81	0.1461773
178	0x3e5a6c5b	0.21330397
179	0xbda297f0	-0.07939136
180	0x3e78c3b4	0.24293405
181	0x3ee74acc	0.45174253
182	0x3d9dfa99	0.07713813
183	0xbe407c5a	-0.18797436
184	0xbe52725b	-0.20551436
185	0x3e3e1d8d	0.1856596
186	0x3e8f5311	0.27993062
187	0xbe32f25e	-0.17475268
188	0xbd4421c9	-0.047883783
189	0xbebb106d	-0.3653597
190	0x3ca02fa0	0.01955396
191	0x3d0f1427	0.03493133
192	0xbe80f5a7	-0.25187418
193	0xbe561f78	-0.20910442
194	0x3c89cec1	0.01682222
195	0xbdcc57cd	-0.09977684
196	0xbeaac38e	-0.3335232
197	0x3e336cb1	0.17521931
198	0xbe4b7bca	-0.1987144
199	0xbb779803	-0.0037779815
200	0xbddfef67	-0.10934334
201	0xbac4e352	-0.001502136
202	0xbe26afc1	-0.16277982
203	0x3e74a981	0.23892786
204	0xbe362018	-0.1778568
205	0xbe95bb1a	-0.2924431
206	0xbdfdaade	-0.12386106
207	0xbe7f7c2d	-0.24949713
208	0xbe7ed0f1	-0.24884392
209	0x3e7e8b5f	0.24857853
210	0xbb09c46e	-0.0021021622
211	0xbe8e4013	-0.2778326
212	0x3eb4addc	0.35288894
213	0x3e8c9d7a	0.27463895
214	0x3e479169	0.19489063
215	0x3c8ddef1	0.01731822
216	0xbe977f4a	-0.295893
217	0xbc9fd4ab	-0.019510588
218	0x3e3e719c	0.18598026
219	0xbe4cc71d	-0.1999783
220	0x3e8bc4be	0.2729854
221	0xbd971da8	-0.07378703
222	0xbe601cc1	-0.21885969
223	0x3dbd1632	0.09232749
224	0xbdc9a511	-0.09845937
225	0xbe041e6d	-0.12902232
226	0x3dbe887f	0.09303378
227	0xbda63216	-0.08115022
228	0xbe625265	-0.22101744
229	0xbe294dc1	-0.16533567
230	0x3c9dafba	0.019248832
231	0xbdc899f1	-0.09794987
232	0xbd387ed8	-0.045042843
233	0xbc9f3ddb	-0.019438675
234	0xbe8a61f4	-0.27027857
235	0x3f0d5fa1	0.55224043
236	0x3db236b2	0.087018386
237	0xbec6fe0f	-0.38865706
238	0xbdae47fd	-0.085098244
239	0xbdef4328	-0.11682731
240	0xbdce2429	-0.10065491
241	0xbb2cd61c	-0.0026372736
242	0x3dbeae48	0.09310585
243	0xbec6814a	-0.38770515
244	0x3ead6b36	0.33870858
245	0x3f143c7a	0.5790478
246	0x3d7afc1d	0.06127559
247	0xbd2dd6a3	-0.04244102
248	0xbe7f3c6f	-0.24925397
249	0x3ef93c00	0.4867859
250	0xbd03e726	-0.032202862
251	0x3c8dca5e	0.01730841
252	0x3eccfae9	0.4003518
253	0xbe1bf3bf	-0.152297
254	0x3bb2f000	0.005460739
255	0x3df8e248	0.12152535

transformer.layers.0.self_attn.in_proj_bias f4 [96]
0	0x3f092294	0.5356839
1	0xbf22fcfb	-0.6366727
2	0x3f0dd089	0.55396324
3	0xbed2d5c5	-0.41178718
4	0xbd1272fe	-0.035754196
5	0xbe84b9e1	-0.25923064
6	0xbe973664	-0.29533684
7	0xbe3a8ada	-0.1821703
8	0xbcb2c9d4	-0.021824755
9	0xbf2d07a1	-0.67589766
10	0x3da5318a	0.080660895
11	0xbed4d9d2	-0.41572434
12	0xbcea5582	-0.028605226
13	0x3e183e9a	0.1486763
14	0x3e44d90a	0.19223419
15	0x3edd7d75	0.4325978
16	0xbe3483cb	-0.176284
17	0x3dabb880	0.083848
18	0x3e521750	0.20516706
19	0xbe53b56a	-0.20674673
20	0xbd0dc7b1	-0.03461427
21	0x3ea3ecf9	0.32016733
22	0x3d170540	0.03687024
23	0xbe91a566	-0.28446501
24	0xbd3a695f	-0.045510646
25	0xbd7c0c62	-0.061535247
26	0x3b7789c8	0.0037771333
27	0x3ed5f4db	0.41788372
28	0x3e101e04	0.1407395
29	0xbb89d378	-0.0042061172
30	0xbe205ff0	-0.15661597
31	0x3e69a55a	0.22816983
32	0x3ef39df0	0.47581434
33	0xbea2a560	-0.31766796
34	0x3eb434c7	0.35196516
35	0xbf569c6b	-0.83832425
36	0x3c997c09	0.018735902
37	0x3ef3ea65	0.47639766
38	0x3d7992bb	0.06093095
39	0x3e96b4ea	0.294349
40	0xbed7aad0	-0.42122507
41	0x3ea47920	0.3212366
42	0x3e05d136	0.13068089
43	0xbd2eef3c	-0.04270862
44	0xbc2bcb1c	-0.010485437
45	0xbeedcc1e	-0.46444792
46	0xbe882505	-0.26590744
47	0x3ca727ee	0.020404782
48	0x3d079f91	0.03311116
49	0xbdd2155d	-0.10257981
50	0x3ce55934	0.027996637
51	0xbd9dc16a	-0.077029064
52	0x3f4d8097	0.8027434
53	0x3eaca465	0.33719173
54	0xbeaacfe2	-0.33361727
55	0x3dac8bcd	0.084251024
56	0x3ec54018	0.38525462
57	0x3f01c8ba	0.5069691
58	0xbec5fcec	-0.38669527
59	0xbd191609	-0.03737453
60	0x3d9ddfd3	0.07708707
61	0xbd4076ad	-0.046988178
62	0x3e98b5d7	0.29826233
63	0x3c9e321f	0.019311009
64	0x3f114101	0.56739813
65	0xbf0530dd	-0.52027684
66	0x3cf43959	0.029812502
67	0xbd109891	-0.03530175
68	0xbf946728	-1.1593981
69	0x3f378d1c	0.7169969
70	0x3dd7c5f8	0.105358064
71	0xbe5d6e3c	-0.21624082
72	0xbfdd5027	-1.7290086
73	0xbf95b5c2	-1.1696093
74	0xbfa68d3d	-1.3011853
75	0x3fa7deb9	1.3114845
76	0x3f17375e	0.5906886
77	0x3fe906bf	1.8205184
78	0xbf7a7191	-0.9782954
79	0xbf1c8f6e	-0.61156356
80	0xc03d2dc5	-2.9559186
81	0xc023a083	-2.5566719
82	0x402df31e	2.7179637
83	0xbf98ef02	-1.1947939
84	0xbfb67fd6	-1.4257762
85	0x402454cd	2.5676758
86	0x403e2ae0	2.971367
87	0xc04ae8d7	-3.1704614
88	0x400f431e	2.2384715
89	0xbfeedd22	-1.8661234
90	0x3e8db8dd	0.27680102
91	0xbf36f9c7	-0.7147488
92	0xbd828aee	-0.06374155
93	0xbfc67316	-1.5503871
94	0x3fcd3285	1.6031042
95	0x3fae8207	1.3633431

transformer.layers.0.self_attn.out_proj.weight f4 [32, 32]
0	0x3d8a37a6	0.06748895
1	0xbf183e93	-0.5947048
2	0x3f74205e	0.9536189
3	0xbe8d8ecd	-0.2764801
4	0xbde0b82e	-0.109726295
5	0xbe74ffb2	-0.23925665
6	0xbdacf0c6	-0.084443614
7	0x3e1baa2f	0.15201639
8	0xbed8deca	-0.42357475
9	0xbdf0a4e1	-0.11750198
10	0xbe32547f	-0.17415045
11	0xbe51ba4c	-0.20481223
12	0xbeb51919	-0.3537071
13	0xbdc7f284	-0.09763053
14	0x3e060593	0.13088064
15	0xbe27aa63	-0.16373591
16	0x3e19dbd1	0.1502526
17	0xbe59f944	-0.21286494
18	0x3dd417b6	0.10356085
19	0xbea2734a	-0.31728584
20	0xbe4ebc6a	-0.20189062
21	0x3e899a5b	0.26875576
22	0x3e4f911e	0.20270202
23	0x3edd4d84	0.43223202
24	0x3ec0a23b	0.37623772
25	0xbc5d0db0	-0.013492033
26	0xbe8608ae	-0.26178497
27	0x3a40b673	0.0007351406
28	0x3ea872dd	0.32900134
29	0xbe2d3ddd	-0.1691813
30	0x3e377481	0.17915536
31	0x3ea34581	0.31888965
32	0x3f3cad4b	0.73701924
33	0xbf001c12	-0.5004283
34	0x3eaab59f	0.3334169
35	0x3e38f3e6	0.1806179
36	0x3de68a7c	0.112568825
37	0x3d1efc15	0.038814623
38	0x3ef850bb	0.48499092
39	0xbf0aa82c	-0.5416286
40	0xbe732abd	-0.23746772
41	0xbbb2b1ab	-0.0054533086
42	0xbea97d69	-0.33103493
43	0x3eed17ab	0.4630712
44	0xbe3d0bb1	-0.18461491
45	0x3d82eddc	0.06393024
46	0x3dbd4b33	0.09242859
47	0x3e22de33	0.15905075
48	0xbf230c64	-0.6369078
49	0xbe6f7dae	-0.23387787
50	0x3f3223bb	0.6958577
51	0xbe5808ce	-0.21097109
52	0xbeb1d481	-0.3473244
53	0x3ed6101c	0.41809165
54	0x3f859b4c	1.0438018
55	0xbddc5bba	-0.10759683
56	0x3f5533ea	0.8328234
57	0xbf0e64cd	-0.5562256
58	0xbeb2ccb4	-0.349218
59	0x3e51370d	0.20431156
60	0xbe769491	-0.24080111
61	0xbbaa2d61	-0.005193398
62	0x3ec53d8a	0.38523513
63	0x3e869ebd	0.26292983
64	0xbe3b03b2	-0.18263128
65	0x3ea23550	0.316813
66	0x3dfbad52	0.122889176
67	0xbe87497e	-0.26423258
68	0x3e81b8d5	0.25336328
69	0xbd3ff209	-0.046861682
70	0x3dd829a4	0.10554817
71	0x3e838a72	0.25691563
72	0x3decbb10	0.11559117
73	0x3e24cc6b	0.16093604
74	0x3e39c4d4	0.1814149
75	0x3e1c55d6	0.15267119
76	0xbe00ec56	-0.12590155
77	0x3e771e3c	0.24132627
78	0xbe4b2037	-0.19836508
79	0xbe0cca86	-0.13749132
80	0xbe2d41de	-0.16919658
81	0xbea4c257	-0.3217952
82	0xbe535b78	-0.20640361
83	0xbd88814e	-0.06665288
84	0xbe557688	-0.20845997
85	0xbe7db4a3	-0.24775939
86	0xbdef8ffa	-0.11697383
87	0xbe0f33ba	-0.13984576
88	0x3ddd3367	0.1080082
89	0xbdc432a1	-0.09579969
90	0x3eb1a027	0.346925
91	0xbf5b2669	-0.85605484
92	0xbe118349	-0.14210238
93	0x3ede1f59	0.4338329
94	0xbf03cb16	-0.5148176
95	0xbd9555c6	-0.072917506
96	0x3f14b18e	0.58083427
97	0xbd83082f	-0.06398045
98	0xbf1db53a	-0.61604655
99	0x3deaf66c	0.114727825
100	0x3f454abc	0.7706716
101	0x3eff8778	0.49908042
102	0x3f28e0a6	0.65967786
103	0xbef9005e	-0.48633093
104	0xbce47d6b	-0.027891835
105	0xbec06e2e	-0.3758406
106	0xbee44d80	-0.44590378
107	0x3f09bb93	0.5380184
108	0xbeac235e	-0.33620733
109	0x3ea6a027	0.32544062
110	0x3e5599d7	0.20859466
111	0x3e72bcca	0.2370483
112	0xbea47932	-0.32123715
113	0xbe20d2f5	-0.15705474
114	0xbcb0191f	-0.021496354
115	0x3d70bf75	0.058776338
116	0x3f1ae5af	0.6050672
117	0x3e93a82d	0.28839245
118	0x3f053110	0.5202799
119	0xbed38f47	-0.4132025
120	0x3f65b624	0.8973105
121	0xbeab3ec2	-0.33446318
122	0xbed7c5f7	-0.42143223
123	0x3f0c1af3	0.5472862
124	0xbf1155ae	-0.5677136
125	0x3d03c5d6	0.032171093
126	0x3eb60d4f	0.3555703
127	0xbdbb595f	-0.091479056
128	0xbe5b9eeb	-0.21447341
129	0x3e2e8221	0.17041828
130	0xbf44eeaa	-0.7692667
131	0x3ed67557	0.41886398
132	0xbe3b8cc8	-0.18315423
133	0xbe922158	-0.28541064
134	0xbdce8111	-0.10083211
135	0xbef5bf57	-0.47997543
136	0x3f1a3d97	0.6025023
137	0xbe82b329	-0.25527313
138	0xbeaa5df1	-0.33274797
139	0xbdd38470	-0.10327995
140	0x3e9f79b4	0.3114754
141	0xbdb0ff4c	-0.08642444
142	0x3e23cf44	0.15997034
143	0x3eae916a	0.34095317
144	0x3d0c79bd	0.034295786
145	0x3e6117e4	0.2198177
146	0xbdf385dd	-0.11890767
147	0xbd839096	-0.06424062
148	0xbd24146a	-0.04005853
149	0x3e812ca1	0.25229362
150	0x3b84d82a	0.004054089
151	0xbe166c91	-0.14689852
152	0x3d3f7d9d	0.046750654
153	0x3dda80b8	0.106690824
154	0xbcc75347	-0.024331702
155	0x3f0af3d1	0.54278284
156	0xbec5e466	-0.38650817
157	0xbdc44795	-0.09583966
158	0xbe0613ef	-0.13093542
159	0x3e18af8a	0.14910713
160	0xbe4ad32c	-0.19807118
161	0xbb1ea4ac	-0.0024207039
162	0x3e868c64	0.26278985
163	0x3e42ce4e	0.19024011
164	0x3b5b2053	0.0033436015
165	0x3ce976d3	0.028499043
166	0x3e133e31	0.14379193
167	0xbc09f44f	-0.008420064
168	0x3c120cad	0.008914155
169	0xbe304874	-0.17215139
170	0x3efac4a6	0.48978156
171	0xbc8a3b23	-0.016873902
172	0xbeaecd61	-0.34141067
173	0xbe126e3e	-0.14299867
174	0x3e8c409f	0.27393052
175	0xbd063f35	-0.032775123
176	0x3e897078	0.2684362
177	0xbec19233	-0.37806854
178	0xbe9ee126	-0.3103115
179	0xbe610a8f	-0.21976684
180	0xbe87391b	-0.26410756
181	0xbe2d2c5a	-0.1691145
182	0x3d016d3a	0.031598307
183	0x3e1876cd	0.14889069
184	0xbd8e130d	-0.069372274
185	0x3d340b13	0.043955874
186	0x3f19f871	0.60144717
187	0x3ed57f67	0.41698763
188	0x3ec6c260	0.3882017
189	0xbe2cc4bb	-0.16871922
190	0xbc06bfe3	-0.00822446
191	0xbcd81371	-0.026376458
192	0xbd58dacb	-0.052943032
193	0x3dd3d09e	0.10342525
194	0x3da58f98	0.08084029
195	0xbe89c905	-0.26911178
196	0x3d4d8bb0	0.050182045
197	0xbebe84c8	-0.3721068
198	0x3d762ee9	0.06010333
199	0xbda3994b	-0.07988223
200	0x3e675dd6	0.2259439
201	0x3df5d54b	0.12003573
202	0xbd542499	-0.051792715
203	0x3bb213db	0.005434496
204	0xbd8d98f2	-0.06913938
205	0xbe56be75	-0.20971091
206	0xbd08137e	-0.033221714
207	0xbc0cc023	-0.008590731
208	0x3e13ba8f	0.14426635
209	0x3d7b07d8	0.061286777
210	0xbe534f95	-0.20635827
211	0xbd607d69	-0.0548071
212	0xbd8d7f97	-0.069091015
213	0xbe415b1c	-0.18882412
214	0xbe0f96a6	-0.14022312
215	0x3df615db	0.12015887
216	0x3cd192af	0.02558264
217	0x3e04ea10	0.12979913
218	0xbecf87b7	-0.4053323
219	0xbf483613	-0.7820751
220	0xbe8ba759	-0.27276114
221	0x3e25f7f8	0.16207874
222	0xbe83c691	-0.25737432
223	0x3e0b18b0	0.13583636
224	0xbeb24f6b	-0.34826216
225	0x3f2e4597	0.68074936
226	0xbf852dbd	-1.0404583
227	0x3f36ec44	0.7145426
228	0x3f0db809	0.5535894
229	0x3ed5432a	0.41652805
230	0xbe1b0116	-0.15137133
231	0x3f36a555	0.71346027
232	0xbef684bf	-0.48148152
233	0xbe648f43	-0.22320275
234	0x3f17513f	0.59108347
235	0x3ec09d14	0.3761984
236	0x3e78a252	0.2428067
237	0x3d7bf4f6	0.06151291
238	0x3ec1eace	0.37874454
239	0xbd437cc1	-0.047726396
240	0xbdc2d5dd	-0.095134474
241	0x3e74b53f	0.23897265
242	0xbef8ff2a	-0.48632175
243	0xbe33907e	-0.17535588
244	0x3f393897	0.72351974
245	0xbd4d0687	-0.050055053
246	0xbe9a2920	-0.301095
247	0xbe082960	-0.13297033
248	0xbf7703ce	-0.9649018
249	0xbb869415	-0.004107008
250	0xbdf23537	-0.11826556
251	0x3f58665d	0.84531194
252	0x3e069ac4	0.13144976
253	0x3f20db71	0.6283484
254	0x3da1a4e7	0.07892781
255	0x3dc18315	0.0944883

transformer.layers.0.self_attn.out_proj.bias f4 [32]
0	0x3fc40bb6	1.5316074
1	0x40224dc8	2.5359974
2	0xbf24c09e	-0.6435641
3	0x400fb2f7	2.2452981
4	0x3ebcf3f6	0.36904877
5	0xbfadeca9	-1.3587848
6	0xbf18821c	-0.5957353
7	0xbf7fb67f	-0.9988784
8	0x3fd98df1	1.6996442
9	0xbeea1fb2	-0.45727307
10	0x4001752b	2.0227764
11	0x3ee4205e	0.44555944
12	0x3f4a0670	0.7891607
13	0x3fc9bf45	1.5761496
14	0x3fdf7a36	1.7459171
15	0x3fbbfd47	1.4686669
16	0x3fbe1aa8	1.4851885
17	0x40152eed	2.3309891
18	0x3f85ae17	1.0443753
19	0xbfa5877e	-1.2931974
20	0xbf20abb6	-0.6276201
21	0x3e1c8f72	0.15289095
22	0x3f3823ca	0.7192961
23	0xc02f514b	-2.7393367
24	0x3f8699f9	1.0515739
25	0xbf15c064	-0.5849669
26	0x3fab18b8	1.3366919
27	0x3f9dfb8e	1.2342393
28	0xbe721f02	-0.23644641
29	0x3fd11dc2	1.6337206
30	0x3ed7264a	0.420214
31	0xbf7a07c1	-0.9766808

transformer.layers.0.linear1.weight f4 [2048, 32]
0	0x3e6ce41e	0.23133895
1	0xbb6b70f5	-0.0035925482
2	0x3dccee5c	0.10006401
3	0xbd60f73c	-0.05492328
4	0x3dfcec66	0.12349777
5	0x3ecbabc3	0.3977948
6	0x3ddf3219	0.10898227
7	0xbeb7c624	-0.35893357
8	0xbeb809c2	-0.35944945
9	0x3d8ee45d	0.069771506
10	0xbe8c20d9	-0.2736881
11	0x3e5cabe4	0.21549946
12	0xbea48c45	-0.32138267
13	0x3dc1cb4f	0.09462606
14	0xbdd6ea7f	-0.10493945
15	0xbde5af1b	-0.11215039
16	0xbe2de726	-0.16982707
17	0xbe5371ea	-0.20648924
18	0x3e199a2b	0.15000217
19	0x3ebe1981	0.37128833
20	0x3df5c24d	0.119999506
21	0x3e5a001a	0.21289101
22	0xbc9e5b5f	-0.019330679
23	0x3e929f6c	0.28637254
24	0xbe5ba82a	-0.21450868
25	0x3db3a1c5	0.087710895
26	0xbe120410	-0.14259362
27	0xbeb0b471	-0.34512666
28	0x3e13405f	0.14380024
29	0xbdb81baa	-0.089896515
30	0x3e553867	0.20822297
31	0xbe7cd78e	-0.24691603
32	0xbe5080a9	-0.2036158
33	0xbdb73c85	-0.0894709
34	0xbd53a295	-0.051668722
35	0x3ddbe201	0.10736466
36	0x3f1a4755	0.60265094
37	0x3dc400b3	0.09570446
38	0xbe3901ea	-0.18067136
39	0x3eb9d0fd	0.36292258
40	0xbe1333be	-0.14375207
41	0xbec175cd	-0.37785187
42	0xbe90cd8f	-0.2828183
43	0x3e323feb	0.17407195
44	0xbdd2a74d	-0.10285816
45	0x3ed0c6c9	0.4077666
46	0x3cc2ea73	0.023793435
47	0x3dcfe0e1	0.10150314
48	0xbba2dc70	-0.004970126
49	0xbe4b1687	-0.19832812
50	0xbe2c9c53	-0.16856508
51	0xbe6f1c0b	-0.23350541
52	0x3e33d129	0.17560257
53	0x3dd9ec66	0.106407925
54	0x3f190893	0.5977871
55	0x3df8022e	0.12109791
56	0x3da7b31b	0.081884585
57	0x3e6b443e	0.22975251
58	0x3b7e9251	0.0038844536
59	0xbe5f8440	-0.21827793
60	0x3eb57a48	0.35444856
61	0x3e0b67ac	0.13613766
62	0x3e15f39b	0.1464371
63	0x3dc38b3b	0.095480405
64	0x3d74358e	0.059621386
65	0xbe3e4149	-0.18579592
66	0x3dcf2713	0.10114875
67	0x3d672aa9	0.05643717
68	0x3c95f394	0.018304624
69	0xbcc06598	-0.023485944
70	0x3e178f9a	0.14800873
71	0xbe2a8e42	-0.1665583
72	0xbd0a6724	-0.03378977
73	0xbd16dac1	-0.036829714
74	0x3c9660df	0.018356739
75	0x3e27be17	0.16381107
76	0xbe81b2c8	-0.25331712
77	0xbc4f3300	-0.012646437
78	0xbe89d40e	-0.26919597
79	0xbdee0b4f	-0.11623251
80	0x3d033ae6	0.03203859
81	0xbe0c89a1	-0.13724376
82	0xbd68cad2	-0.05683405
83	0x3d2f909a	0.042862512
84	0xbb14fc21	-0.0022733288
85	0x3c825276	0.015908461
86	0xbca84d6c	-0.02054473
87	0xbbff5b00	-0.0077928305
88	0xbe4329d7	-0.1905893
89	0x3df0c001	0.11755372
90	0xbe67cb98	-0.22636259
91	0x3c488368	0.012238361
92	0x3d54f334	0.05198975
93	0xbd9968bd	-0.0749068
94	0xbe034bac	-0.12821835
95	0x3e11952d	0.14217062
96	0x3e3057a6	0.17220935
97	0x3d4dc8d3	0.05024035
98	0x3e15af2f	0.14617608
99	0xbd1622fc	-0.036654457
100	0x3d7009ed	0.058603216
101	0xbe007cbf	-0.12547587
102	0xbddcedc1	-0.107875355
103	0xbdbd48ac	-0.09242377
104	0xbdc55c9f	-0.09636807
105	0x3d876003	0.0661011
106	0xba55ca90	-0.00081554893
107	0x3c0c2c0b	0.008555423
108	0xbdd72ff8	-0.10507196
109	0x3cedb59c	0.029017262
110	0xbe71d438	-0.23616111
111	0xbe48c681	-0.19606973
112	0xbe31dc8e	-0.17369291
113	0xbe208f69	-0.15679707
114	0xbd6557be	-0.05599188
115	0x397c2ea9	0.00024049975
116	0x3ceb24b0	0.028704017
117	0x3de0d293	0.10977664
118	0x3e25966d	0.16170664
119	0x3dab72cd	0.08371506
120	0xbe3d1b0a	-0.18467346
121	0x3dbf76c4	0.093488246
122	0xbc633c75	-0.013869395
123	0xb96ce5ac	-0.00022592273
124	0x3d2b863f	0.041876074
125	0x3c6bc01a	0.014389062
126	0xbe5b2cb3	-0.2140377
127	0xbe22627e	-0.15857884
128	0x3ecb4077	0.3969762
129	0xbf734791	-0.95031077
130	0x3e472333	0.19447021
131	0xbf3fc14e	-0.74904335
132	0x3d3152ad	0.043291736
133	0x3de9a929	0.11409218
134	0xbdabb2a9	-0.08383686
135	0xbcc25431	-0.023721786
136	0xbeb07ae9	-0.34468773
137	0x3db450e4	0.08804491
138	0xbf152bfd	-0.58270246
139	0x3e6ddc75	0.23228629
140	0xbd7bd66f	-0.061483797
141	0x3e36909b	0.178286
142	0xbe14e54e	-0.14540598
143	0xbca26edd	-0.019828254
144	0xbd584d6f	-0.05280822
145	0xbe737077	-0.2377337
146	0x3d5a6c87	0.053326156
147	0x3d07b6d6	0.03313335
148	0x3e18e451	0.14930846
149	0xbde56ec4	-0.112027675
150	0x3ec582c7	0.38576338
151	0xbf12a828	-0.57287836
152	0x3e3eabc8	0.18620217
153	0xbd1ea71f	-0.038733598
154	0xbefb88a2	-0.4912768
155	0xbe4b719b	-0.19867556
156	0x3dbcf163	0.09225728
157	0xbcaa42a5	-0.020783732
158	0x3d8abdb1	0.06774462
159	0x3e58df31	0.21178891
160	0x3e37113e	0.17877671
161	0xba3af29b	-0.0007131488
162	0x3dde2e04	0.108486205
163	0x3bb77112	0.005598196
164	0x3dcebaed	0.10094247
165	0x3c6a3f90	0.014297381
166	0x3de9bb64	0.11412695
167	0x3ddb521e	0.10709022
168	0xbb7b25dc	-0.0038322126
169	0x3cc75811	0.024333986
170	0x3d1a191c	0.037621602
171	0x3cf48bc7	0.029851807
172	0x3d5f48f5	0.054512937
173	0xbddb5e53	-0.1071135
174	0xbd88592c	-0.06657633
175	0xbdd7c876	-0.10536282
176	0xbdcb135a	-0.099158004
177	0x3b3ba1e0	0.002863042
178	0xbd8482e9	-0.06470282
179	0x3e58e1fe	0.21179959
180	0xbc2d9e80	-0.010596871
181	0x3ce37360	0.027764976
182	0x3e1b81e2	0.15186265
183	0x3c3ab638	0.011395983
184	0xbe22e7c0	-0.15908718
185	0x3dab1307	0.083532386
186	0xbda6c37e	-0.08142756
187	0xbd6f5ae0	-0.058436275
188	0xbcc07d14	-0.023497142
189	0xbd9b2705	-0.07575802
190	0xbe4c1092	-0.19928196
191	0xbe3ddcaa	-0.18541208
192	0xbc3de41a	-0.011590028
193	0x3d92acee	0.0716189
194	0x3e8ff581	0.28116992
195	0x3cf664b9	0.030077325
196	0x3c8bc2c0	0.017060637
197	0x3e45556e	0.1927087
198	0xbc5e87b0	-0.013582155
199	0xbe88c41e	-0.26712126
200	0xbe4baf42	-0.19891074
201	0x3cc10b19	0.023564862
202	0xbe671330	-0.22565913
203	0x3d45f2b9	0.04832718
204	0x3cac5825	0.021038124
205	0xbcec6fd5	-0.02886192
206	0xbe8a42bf	-0.27004048
207	0xbe7f3468	-0.24922335
208	0xbe0aaf55	-0.13543446
209	0xbe44aa97	-0.192057
210	0x3e565b61	0.20933296
211	0x3e0f7447	0.140092
212	0x3b763f70	0.0037574433
213	0xbd6638b3	-0.056206416
214	0x3e83687e	0.2566566
215	0x3dd0632b	0.10175165
216	0xbe3bc1e9	-0.1833569
217	0xb8133360	-3.5095378e-05
218	0x3cdf7b00	0.02728033
219	0xbe8c0b95	-0.27352586
220	0x3c2f20fa	0.010689015
221	0xbe1d27a2	-0.1534715
222	0xbde95bed	-0.113944866
223	0xbdfbad68	-0.12288934
224	0xbd343f42	-0.04400564
225	0x3d39b3a8	0.04533735
226	0xbd41c7eb	-0.047309797
227	0xbe73fdc0	-0.23827267
228	0x3d316144	0.04330565
229	0x3dc03e53	0.093868874
230	0x3e426aa3	0.18985991
231	0xbe83f628	-0.2577374
232	0xbd991a10	-0.07475674
233	0x3e31fd93	0.17381887
234	0xbcc891b2	-0.024483535
235	0x3e820f3a	0.25402242
236	0xbd71262c	-0.058874294
237	0x3dfc36a2	0.12315108
238	0x3cb21524	0.021738596
239	0xbcd3a98a	-0.025837678
240	0x3c8fa2c0	0.01753366
241	0xbe530daf	-0.20610689
242	0xbd44d927	-0.048058655
243	0x3dd35727	0.10319357
244	0xbd488aea	-0.048960604
245	0xbce8a823	-0.028400486
246	0xbd208dfd	-0.03919791
247	0x3be7a5e0	0.0070693344
248	0xbe7139cd	-0.23557205
249	0xbc2d6886	-0.010584002
250	0xbbaf78cf	-0.0053549777
251	0xbe0d1dd0	-0.13780904
252	0x3d4d041d	0.05005275
253	0xbe574ee0	-0.21026182
254	0xbe5e01fe	-0.21680447
255	0x3d063ef7	0.03277489

transformer.layers.0.linear1.bias f4 [2048]
0	0xbe155263	-0.1458221
1	0xbd2b7e76	-0.04186865
2	0x3d958ff7	0.0730285
3	0x3d33cdf3	0.04389758
4	0xbe5fbfbf	-0.21850489
5	0xbe603f16	-0.21899065
6	0x3c3eada5	0.01163808
7	0xbe6e82b3	-0.23292045
8	0xbe5d6811	-0.2162173
9	0xbe3735e2	-0.17891648
10	0xbda894cf	-0.08231508
11	0xbd8ff6f1	-0.07029522
12	0xbe81169f	-0.2521257
13	0xbd1f19aa	-0.038842835
14	0xbe94e2a0	-0.2907915
15	0xbd7c9fee	-0.06167596
16	0xbe4316e0	-0.19051695
17	0xbe846e46	-0.25865382
18	0xbd857639	-0.0651669
19	0xbe064e09	-0.13115706
20	0x3caae79f	0.020862399
21	0xbe7fe9bc	-0.24991506
22	0xbe940aec	-0.28914583
23	0xbccc4d90	-0.024939328
24	0xbe5fe052	-0.21862915
25	0xbce749eb	-0.028233489
26	0xbd89292b	-0.06697305
27	0xbd3c6321	-0.045992974
28	0xbce3f679	-0.027827488
29	0xbe110ceb	-0.14165084
30	0xbe6e9317	-0.23298298
31	0x3dd0f5fa	0.10203166
32	0xbdfbc58c	-0.122935385
33	0xbea5cee9	-0.32384422
34	0xbe8b11d8	-0.2716205
35	0xbe66af9a	-0.22527924
36	0xbe86d559	-0.26334646
37	0xbdf527d1	-0.11970485
38	0xbe034601	-0.12819673
39	0x3cc64cf1	0.02420661
40	0xbe0de379	-0.13856305
41	0xbe724f0a	-0.23662964
42	0xbd334747	-0.043769147
43	0x3dd62277	0.104557924
44	0xbd44231d	-0.04788505
45	0xbe20f44d	-0.15718193
46	0xbe272079	-0.16320981
47	0xbdad77fb	-0.0847015
48	0xbe9182ec	-0.28420198
49	0xbe1a463d	-0.15065856
50	0xbe15f164	-0.14642864
51	0xbe35fb4a	-0.1777164
52	0xbe64756a	-0.22310415
53	0xbdfafd5e	-0.12255357
54	0xbe18a6ea	-0.14907423
55	0xbe3be7a2	-0.1835008
56	0xbd399b1a	-0.045313932
57	0xbe259cbc	-0.1617307
58	0xbe7d371e	-0.24728057
59	0xbd571f5d	-0.052520145
60	0xbe4ab8db	-0.1979708
61	0xbd0a4a1a	-0.033762075
62	0xbe5ea6f6	-0.21743378
63	0xbe399bd0	-0.18125844
64	0x3c41ea82	0.011835696
65	0x3a9e1155	0.0012059609
66	0xbe75b5d1	-0.23995139
67	0xbe0c1514	-0.13679916
68	0x3d8d6372	0.06903733
69	0xbe527684	-0.20553023
70	0xbe9125a5	-0.28349033
71	0x3c8acb67	0.016942693
72	0xbe77ba1a	-0.24192086
73	0xbe7fa390	-0.24964738
74	0xbc54c403	-0.012986186
75	0xbe7e9cd6	-0.24864516
76	0xbd9b50ae	-0.07583748
77	0x3c6df995	0.014524837
78	0x3d0ed8eb	0.034874838
79	0x3ce80859	0.028324293
80	0x3d02ef4e	0.0319665
81	0xbe3ca4c8	-0.18422234
82	0xbe02824b	-0.12745015
83	0x3bfcb795	0.0077123144
84	0xbc8b334f	-0.01699224
85	0xbe54c793	-0.20779257
86	0xbd20d507	-0.03926566
87	0xbe1213d6	-0.1426538
88	0xbe2cb955	-0.16867574
89	0xbe406eb9	-0.18792237
90	0xbe65a78a	-0.22427192
91	0xbeab948c	-0.3351177
92	0xbe4b8969	-0.19876637
93	0xbde7e3fe	-0.11322783
94	0xbdc2ee85	-0.0951815
95	0xbdfd9af5	-0.12383071
96	0xbd6f5686	-0.058432125
97	0xbe284dfc	-0.16435999
98	0xbe39e6ef	-0.181545
99	0xbc3d2620	-0.011544734
100	0xbe1e6554	-0.15468341
101	0xbc435c83	-0.011923912
102	0xbe80af59	-0.2513378
103	0xbe4b4e7c	-0.19854158
104	0x3c98fbb6	0.018674713
105	0x3c509b95	0.012732406
106	0x3d6a1f8b	0.057158988
107	0xbe7982bd	-0.24366279
108	0x3cf7df12	0.030257735
109	0xbe3a413f	-0.18188952
110	0xbd739896	-0.05947169
111	0xbdb33347	-0.08750015
112	0x3daf310d	0.085542776
113	0xbe3a33a8	-0.18183768
114	0x3e1bcbfa	0.1521453
115	0xbd13b3d4	-0.03606017
116	0x3bca4927	0.006173271
117	0xbd9fc993	-0.07802119
118	0xbe951221	-0.29115394
119	0xbd1f7131	-0.038926307
120	0x3d30a1a9	0.04312292
121	0xbe158704	-0.14602286
122	0xbe52080f	-0.20510887
123	0xbe7caa83	-0.2467442
124	0x3c953a95	0.01821641
125	0xbcc285b7	-0.0237454
126	0xbe673250	-0.22577786
127	0xbc118ffe	-0.008884428
128	0xbe0f85f1	-0.14015938
129	0xbe4cd5c4	-0.2000342
130	0xbe11de3e	-0.14244935
131	0xbdc9083b	-0.09816023
132	0x3bace400	0.005276203
133	0xbe83aefb	-0.25719437
134	0xbe360837	-0.17776571
135	0xbd1e10d2	-0.03859026
136	0xbe1afcb2	-0.15135458
137	0xbe1d696b	-0.15372245
138	0xbd581e01	-0.05276299
139	0x3dc2aa2c	0.09505114
140	0xbe630ed2	-0.22173622
141	0xbd32406c	-0.04351847
142	0xbe49c39c	-0.19703525
143	0xbe88d513	-0.26725063
144	0xbbabead2	-0.0052464986
145	0xbdedc910	-0.11610615
146	0xbe2f3b80	-0.17112541
147	0x3dd4f3ad	0.1039804
148	0xbcc57788	-0.024104849
149	0x3d08b228	0.033373028
150	0x3c3c5e57	0.011497102
151	0xbc334f44	-0.010944191
152	0xbe904638	-0.28178573
153	0xbd8797a2	-0.066207185
154	0xbb553731	-0.0032534117
155	0xbe986276	-0.2976262
156	0xbdce3d58	-0.10070294
157	0xbe718c74	-0.23588735
158	0xbe3d0006	-0.1845704
159	0xbe416c01	-0.18888856
160	0xbe33b1a5	-0.17548235
161	0xbe19f3a2	-0.15034345
162	0xbe671d89	-0.2256986
163	0xbe0198fa	-0.12656012
164	0xbd64d5d8	-0.055868
165	0xbe5efd20	-0.21776247
166	0x3cf0406c	0.029327594
167	0xbde94bde	-0.11391424
168	0xbde51cea	-0.111871555
169	0xbd86c1d7	-0.06579941
170	0xbdd10032	-0.102051154
171	0x3d29c95c	0.041451797
172	0xbdac44dd	-0.08411572
173	0xbe174436	-0.14772114
174	0xbdb0539e	-0.08609699
175	0xbe7dad15	-0.24773057
176	0xbe294f57	-0.16534172
177	0xbe44a986	-0.19205293
178	0xbd77e96e	-0.06052535
179	0xbe824c4a	-0.2544883
180	0xbe5dadfb	-0.216484
181	0xbe7341b9	-0.2375554
182	0x3cebf17d	0.028801674
183	0xbd9abe40	-0.075558186
184	0x3c6c2575	0.014413227
185	0xbe92712d	-0.2860197
186	0xbe0f37d2	-0.13986138
187	0xbdadd3ea	-0.08487685
188	0xbe3b5e28	-0.18297637
189	0xbe4b9eca	-0.19884792
190	0xbe1e9003	-0.15484624
191	0xbea08322	-0.31350046
192	0x3d8748cf	0.06605684
193	0xbdfd8ff0	-0.123809695
194	0x3dd84169	0.10559351
195	0xbe212bd9	-0.15739383
196	0xbe57abde	-0.21061656
197	0xbe096d45	-0.1342059
198	0xbe44fdd6	-0.19237456
199	0xbe61e742	-0.22060874
200	0xbe0d0f60	-0.13775396
201	0xbe87bd93	-0.2651182
202	0xbdc4bf5d	-0.09606812
203	0x3d807c94	0.062737614
204	0xbe48de55	-0.19616063
205	0x3bd66cf8	0.006543752
206	0xbe79f94f	-0.2441151
207	0xbe8ed95c	-0.27900207
208	0xbe5c3539	-0.21504678
209	0x3e561311	0.20905711
210	0xbd6f4669	-0.058416758
211	0xbdc22c74	-0.09481135
212	0xbdcb69cc	-0.099322885
213	0xbe5e07e8	-0.21682703
214	0xbc6f3927	-0.0146010285
215	0xbaa99c02	-0.0012940171
216	0xbd6b9501	-0.057515148
217	0xbdeaae08	-0.11458975
218	0xbe469645	-0.19393261
219	0xbe890fd7	-0.26769897
220	0xbe7995e9	-0.24373592
221	0xbe3ceb84	-0.18449217
222	0xbd2e24a2	-0.042515405
223	0xbdd09d97	-0.10186308
224	0x3dfc503c	0.12319991
225	0xbd8a53f2	-0.067542925
226	0xbe4c0854	-0.19925052
227	0xbe8ee48e	-0.27908748
228	0xbe3a84ad	-0.18214674
229	0x3ce2f938	0.027706727
230	0x3d07e4e3	0.033177268
231	0x3e021b97	0.12705837
232	0xbe54efb0	-0.20794559
233	0x3d96fff1	0.07373036
234	0x3c207bf2	0.009795176
235	0xbd5abe52	-0.05340416
236	0xbe337da6	-0.175284
237	0x3d9de8f5	0.07710449
238	0xbd0935f6	-0.033498727
239	0x3c294b58	0.010332905
240	0xbe54fa2a	-0.20798555
241	0xbe65a6d4	-0.22426921
242	0x3b5dec99	0.0033862947
243	0xbd2953f1	-0.04133982
244	0x3d9687f6	0.07350151
245	0x3cd82a39	0.02638732
246	0xbdbf4ab6	-0.09340422
247	0xbd98d4c7	-0.07462459
248	0xbdeaba23	-0.11461284
249	0xbe16cdb0	-0.14726901
250	0xbd8345b7	-0.064097814
251	0x3c71d0a2	0.014759215
252	0xbe51f599	-0.20503844
253	0xbe401d95	-0.18761285
254	0xbdfc2728	-0.12312156
255	0x3c55d67d	0.013051626
