models/model_epoch_4.pth (torch, 581156 bytes, 18 tensors)

conv1.weight f4 [16, 8, 3]
000000 25 5b c7 3d 6b bc 13 be 60 96 2b 3b 67 f5 54 3e
       0.09734181 -0.14427345 0.002618216 0.20796739
000010 cc 65 3a 3d ec 42 4b bd 48 1e 28 3e b4 e6 99 bd
       0.045507237 -0.04962437 0.16417801 -0.07514706
000020 d4 c8 46 3e a6 03 00 3d 83 e4 31 3e fd 4d 05 be
       0.19412547 0.03125348 0.17372327 -0.13018031
000030 08 6d 30 be 99 aa be 3d b2 df 72 bd a8 4c 18 be
       -0.17229092 0.09309883 -0.059295364 -0.14872992
000040 17 2f 30 3e 33 f4 35 bd 24 35 36 be 78 04 35 3e
       0.17205463 -0.04442234 -0.17793709 0.17677486
000050 4f ed d0 3d 80 cf a5 3d d2 0e 92 bd e4 23 14 3e
       0.10201513 0.08096218 -0.07131733 0.14466816
000060 46 ca 4d 3e 90 dd 44 3e 9e cc 74 3d bf 38 f2 3d
       0.20096692 0.19225144 0.05976545 0.1182723
000070 4d 55 fa bd f0 af a2 3d df ca d8 3d 1f d9 03 be
       -0.12223301 0.07943714 0.105855696 -0.12875794
000080 6f 60 80 3d d3 57 37 bd c5 4f 1f 3e 3d 43 05 be
       0.06268393 -0.04476149 0.15557773 -0.1301393
000090 4b ea dc 3d 82 ec 91 3d de ae 86 bc e9 f9 f2 bd
       0.10786875 0.071251884 -0.016440805 -0.11864073
0000a0 c2 f0 f9 3b 6c 87 1e be 7e be a7 3d 30 e4 0b be
       0.0076275775 -0.15481347 0.081906304 -0.13661265
0000b0 07 10 63 bc b7 ab 1d bd a3 a8 03 3e 5a 9c b0 bd
       -0.013858802 -0.03849384 0.12857299 -0.08623572
0000c0 e0 0f 32 be a7 fa f3 bc fd 96 bd bd 9a cf 6a be
       -0.17388868 -0.029782606 -0.09257314 -0.22930756
0000d0 d0 2a 5f be d9 ae 2a 3e de 55 ad bd bf 11 25 3d
       -0.21793675 0.16668262 -0.084636435 0.040300127
0000e0 fc 47 c2 bd d7 e3 15 3e b6 d6 bb bd 9a 3e 25 3e
       -0.09486386 0.14637695 -0.09171812 0.16137162
0000f0 2c 20 e0 3c 3e 03 3b 3e 50 19 7e 3d f2 ed 11 3d
       0.02735909 0.18262956 0.06203586 0.035627313
000100 6f f0 07 3e 4a e9 47 be 3a d5 57 be ab 27 de bd
       0.13275312 -0.19522586 -0.21077433 -0.1084741
000110 ca c5 d7 bd 24 c2 76 bd 6b da a8 bd c9 74 25 3d
       -0.10535772 -0.06024374 -0.08244785 0.040394578
000120 e1 b8 3b 3e 1b 9a c3 b9 e4 1a 05 be fe 20 24 3e
       0.18332244 -0.00037308116 -0.12998539 0.1602821
000130 54 f2 34 3e 0a bf 91 3d 48 f9 b8 3d 3c 00 2a 3e
       0.17670566 0.07116516 0.090319216 0.16601652
000140 c2 ea 0f 3e 90 5c e2 bd db f6 4b 3c 32 af c6 bd
       0.14054397 -0.11052811 0.012448992 -0.097013846
000150 41 48 82 bc 4a 41 f8 3c 9c 6c cd 3d 44 28 e3 3c
       -0.015903594 0.03030457 0.10030481 0.027729161
000160 b9 fb 1e 3e b6 93 96 bd 9d 3d 4e be 8a 4f 38 3e
       0.15525712 -0.073523924 -0.20140691 0.17999092
000170 a5 e3 1d 3c 89 78 d2 bd 71 1c 95 bc ab cc b4 3d
       0.009636794 -0.102768965 -0.018202038 0.088281
000180 fc b5 7c bd f5 72 3c 3e 5a 18 1a be 9f f2 a7 bd
       -0.06169699 0.18403228 -0.15048352 -0.08200573
000190 6f e2 25 3e 1e 5d 85 3d 83 57 94 3c 89 09 43 3e
       0.16199659 0.06511901 0.018108135 0.19046606
0001a0 eb 33 cb bd e9 7a 0f 3e 22 5c 25 bd e3 c5 8d 3c
       -0.09922012 0.1401173 -0.040371068 0.017306274
0001b0 08 40 c0 3d 31 50 0a 3d 07 44 6c 3c b7 30 04 be
       0.09387213 0.033767883 0.014420516 -0.12909208
0001c0 f1 90 96 bd 82 77 e2 bd 99 cc ba 3d 20 4b 90 3d
       -0.07351864 -0.110579506 0.09121055 0.07045579
0001d0 2c 34 15 3e d7 2d 24 be c9 f8 b8 bd 94 79 a5 3d
       0.14570683 -0.16033112 -0.09031827 0.0807983
0001e0 9c 96 ef 3d 69 46 76 3c bc 58 65 3d a5 4c c0 bd
       0.11698648 0.0150314355 0.055992827 -0.09389619
0001f0 2c 7d 5a b9 98 8d 09 be dd 36 05 3e 56 28 31 3e
       -0.0002083673 -0.1343292 0.1300921 0.17300543
000200 62 73 93 bd d1 9d b3 3d b2 44 67 bd c8 c6 78 3c
       -0.07199742 0.087703355 -0.056461997 0.015184112
000210 6c 12 77 3e bd e0 8d bd cb 6b 1f 3e 80 8e 2c be
       0.24128121 -0.06927631 0.15568464 -0.16851234
000220 c2 c1 f2 bc f0 7e 06 be 43 d5 2d 3e 21 23 17 be
       -0.029633407 -0.1313436 0.16975884 -0.14759494
000230 ea 38 e6 3c fa 82 d0 bd 1f 68 9b 3b f5 86 06 be
       0.02810331 -0.10181232 0.004742637 -0.1313742
000240 06 79 c7 3d b7 0d 50 3e 06 04 70 3c ed 0f da bc
       0.0973988 0.20317732 0.014649397 -0.026618922
000250 60 01 b8 3c 4c 3a 66 bc f9 39 28 be b2 41 27 bd
       0.022461593 -0.014051985 -0.16428365 -0.040834136
000260 51 54 c4 bc 0e fc b6 bd fe 93 46 3e b8 4d e4 3d
       -0.023965986 -0.08934794 0.19392392 0.11147636
000270 30 57 76 3d 92 aa 0c 3e ee 86 e8 3d ba a7 d2 bd
       0.060141742 0.13736942 0.11353861 -0.102858976
000280 b4 52 34 3e 5a a2 f3 bd 43 ab cc bd 22 9c 47 3e
       0.17609674 -0.118962005 -0.09993603 0.19493154
000290 cb 87 e4 3d 28 ec 47 3e 34 a1 41 3c 70 d1 74 bd
       0.11158713 0.1952368 0.011818219 -0.059770048
0002a0 44 16 23 3e a9 f9 90 3c 97 84 83 bd 9c c6 74 3d
       0.15926462 0.017697172 -0.06421774 0.05975972
0002b0 22 5c 89 3e c3 78 06 3d 09 22 f6 bb de 90 24 bd
       0.26828104 0.03283001 -0.0075113815 -0.04017722
0002c0 99 77 ff bd 4f e3 bb 3d 6c 6b 3b 3d 21 5a 34 3d
       -0.12473983 0.09174215 0.045756742 0.044031266
0002d0 8a a9 7c bd 7b db 15 be b5 4c 51 3e 29 2e 7e 3e
       -0.061685123 -0.14634506 0.20439418 0.24822296
0002e0 da 2b ac 3d 08 43 06 3d ad 7f e3 bc 10 27 0c 3f
       0.084068015 0.03277877 -0.027770841 0.54747105
0002f0 3d 0b 9f 3c be de 09 bc 5e d8 3a 3e 41 4f 03 3e
       0.019414539 -0.008414922 0.182466 0.12823202
000300 54 08 92 bd 08 32 d1 3b cc 62 09 bd 0a 40 99 3d
       -0.07130495 0.006384138 -0.033541486 0.074829176
000310 dd f6 c7 3d 27 c5 d7 bd bf ad 16 3e 45 c2 67 3d
       0.09763882 -0.10535651 0.14714716 0.056581754
000320 09 46 22 be c1 28 29 be 03 12 7a 39 c2 66 9c bd
       -0.15847029 -0.16519453 0.00023848568 -0.07636787
000330 91 cd a1 3d fa f3 a6 bb 0d f4 4c 3e 40 94 37 be
       0.07900537 -0.0050950022 0.20014973 -0.17927647
000340 7d 40 56 be bc 53 f8 bd 7b fc 14 be 9f da 3c 3d
       -0.20923038 -0.12125346 -0.14549439 0.04610693
000350 60 ac 47 3e e8 d7 b1 39 54 15 d5 bd 15 d5 6c 3d
       0.1949935 0.00033920933 -0.10404459 0.0578204
000360 92 8a dc bd 51 7d 6a 3d 32 02 44 3e d2 a8 33 bd
       -0.10768618 0.057248417 0.19141462 -0.04386217
000370 85 23 d5 3d c5 cb fe bd b7 2f 48 3d b8 ff 91 3d
       0.104071654 -0.1244121 0.04887363 0.071288526
000380 15 da 44 be 0d 6a a1 bd 57 fc 09 3e ba fd 0d 3e
       -0.19223817 -0.07881556 0.13475166 0.1386632
000390 e2 1c 49 bd 39 0b d3 3d 59 dc e5 bd af a2 bc bd
       -0.04909981 0.10304875 -0.112236686 -0.09210717
0003a0 f6 20 8b bd ff 96 13 3e 49 f5 cc 3d b1 e8 ac bd
       -0.06793396 0.14413069 0.10007722 -0.0844282
0003b0 59 ab b2 bd 74 ed fd 3d 43 00 10 be bf 67 c9 3d
       -0.08724088 0.12398806 -0.140626 0.09834241
0003c0 99 b8 0b 3e fe 52 0b 3e f5 e1 90 bc bf 46 77 bd
       0.13644637 0.13605878 -0.01768587 -0.060370203
0003d0 3c 2a 41 bd 6b d6 bc 3e cc 90 fc bd d7 c2 41 be
       -0.04715942 0.36882338 -0.12332305 -0.18921982
0003e0 27 20 23 3d b6 17 63 be 51 3f 80 be f7 2b 40 bd
       0.039825585 -0.22177014 -0.25048307 -0.04691693
0003f0 0c bd 06 be dd 12 3e bd 59 20 31 3d 31 a0 0c 3e
       -0.13158053 -0.04640471 0.04324374 0.13732983

conv1.bias f4 [16]
000000 c8 ca fd 3c b3 2b 50 3e 3c 20 ee bc 0a d8 1b 3e
       0.030980483 0.2032917 -0.029068105 0.15219131
000010 d6 ba 50 be e6 b2 a6 bd 7d 14 db bd 42 2a 42 bd
       -0.20383772 -0.08139591 -0.10697267 -0.04740358
000020 7e 06 0d be cd 2c 21 3e 24 46 83 bd 7e 22 57 be
       -0.13772008 0.15739746 -0.06409863 -0.21009251
000030 d4 78 84 bd ff 51 03 3d 0b 1c 0f 3e 91 a0 0c 3e
       -0.06468359 0.03206062 0.13975541 0.13733126

conv2.weight f4 [32, 16, 3]
000000 9c 49 ca 3d af 22 9f 3d ce ae 7d bd 13 3d 18 bd
       0.09877321 0.07770287 -0.061934285 -0.03716762
000010 e8 78 02 3e 47 39 da bb f0 50 a3 bd 8a 51 80 3d
       0.12741435 -0.00665966 -0.07974422 0.06265552
000020 72 95 9b bd db b6 b0 bd 30 fa ba bd 74 01 fc bd
       -0.07596864 -0.08628627 -0.09129751 -0.12304965
000030 d9 18 1d bd 24 77 12 be 6d 16 7b 3b 4b 08 5b 3d
       -0.038353775 -0.14303261 0.0038312927 0.053474706
000040 67 f3 ce bd 4f f6 46 bc f3 25 ae bd a7 0e e9 bc
       -0.10105019 -0.0121436855 -0.08503332 -0.02844937
000050 5f 87 19 bd 5f 4d dd 3d 83 65 8c bd 1d 33 cc bd
       -0.037482616 0.10805773 -0.06855299 -0.099706866
000060 00 e6 fe bd 0b 0f 42 bd 2e b5 57 3c 8d 91 82 3c
       -0.12446213 -0.047377627 0.013165755 0.015938545
000070 b8 d1 90 3d 01 26 6c bd 23 bc f0 bd 3e 76 ee bd
       0.07071251 -0.05765343 -0.11754634 -0.11643647
000080 18 cf 50 be 83 99 58 3d c5 c1 00 bd d3 cc 4f be
       -0.203915 0.052880775 -0.031434793 -0.20292978
000090 40 cf 98 3d fa eb 33 bd 92 e6 ee 3d 57 b7 29 bb
       0.07461405 -0.043926217 0.116650715 -0.0025896633
0000a0 6f 65 65 3d 59 b3 ae 3d df 45 8f bd f0 c8 12 3e
       0.056004938 0.085303016 -0.06995749 0.14334464
0000b0 2b f8 9f bd 8e e1 a5 bc 38 26 f8 3d e6 1e 8d bc
       -0.07811006 -0.020249154 0.12116665 -0.017226648
0000c0 f0 3f 0d be da f3 8f 3d 83 21 28 3e 0e d0 d8 3d
       -0.13793921 0.07028933 0.16419034 0.10586558
0000d0 19 d0 48 3d a8 91 8e 3d 5e 33 1c be 1e d7 b4 bd
       0.049026582 0.069613755 -0.1525397 -0.08830093
0000e0 c6 75 c9 bc be 52 8c 3d d3 95 0f be 02 e7 12 3c
       -0.024592292 0.06851719 -0.14021997 0.008966209
0000f0 03 37 cb bd 71 09 dc 3d 0a b3 3c bd 20 1c c3 bd
       -0.09922602 0.10743988 -0.046069182 -0.09526849
000100 56 c0 df 3d 62 6a 83 3d 0b 01 ac bd aa 15 8f 3c
       0.10925357 0.06416775 -0.083986364 0.017466385
000110 c7 49 9c bd 10 69 2f bd 68 b6 9b 3d b9 93 b2 3d
       -0.076312594 -0.042824805 0.076031506 0.08719582
000120 6a d2 32 bc 77 ee 51 bd ea eb e9 bd 82 72 da bd
       -0.010914424 -0.05125281 -0.1142195 -0.10666372
000130 89 18 a1 bd d9 4d 12 3e 73 6e 3f 3b 1f 46 09 be
       -0.07866008 0.14287509 0.002921012 -0.13405655
000140 e0 cb 6b 3e b0 08 c6 bd e2 b0 34 bd 05 c8 ee bc
       0.23026991 -0.09669626 -0.044114 -0.029148111
000150 fb 6e b4 bc 2c 83 92 bd 8f d9 f6 3d 88 c4 c5 bc
       -0.022025576 -0.07153925 0.12053215 -0.024141565
000160 78 b9 29 3d 68 f3 c8 3d ea bb 39 bd 58 74 89 bb
       0.041436642 0.09812051 -0.045345224 -0.0041947775
000170 15 8a 4f bd a5 01 4c bd 25 cc d2 bd ac 13 e2 3d
       -0.050668795 -0.049806256 -0.10292844 0.11038908
000180 21 ee 99 bd 5e 65 a0 bc dc e6 a7 3c 2d d5 21 3d
       -0.075161226 -0.019579586 0.020495825 0.03950994
000190 8d 51 30 3d 89 9a 1f bd af 23 ea bd 7e bb bd bc
       0.043046523 -0.038965736 -0.11432587 -0.023160692
0001a0 33 47 fe bd 5c eb 30 bd 1c d6 b6 bd 46 6f d5 3d
       -0.12415924 -0.043193206 -0.08927557 0.10421614
0001b0 6f 5c 6a 3d 33 e5 72 3c d4 42 0b 3e 05 98 f5 3d
       0.057217058 0.014825153 0.13599712 0.11991886
0001c0 d6 d4 52 bd 94 2c f9 bc 11 ab 57 3c 18 eb e7 3b
       -0.051472507 -0.030416764 0.013163344 0.007077586
0001d0 89 31 0b 3d e8 5d de 3c 40 7a b7 bc 98 8d 2d bc
       0.033982787 0.027144387 -0.02239716 -0.010592841
0001e0 a2 4f 92 bc 6c 26 59 3d 3c 7a e0 bc ec b0 63 3c
       -0.017860238 0.053015158 -0.027402036 0.013897162
0001f0 bb f4 d4 bd e5 24 f9 bc 69 ee e7 bd 80 32 06 be
       -0.10398241 -0.0304131 -0.1132477 -0.13105202
000200 c5 6f 15 bd 6f 08 b2 bd a7 d0 b2 bd b7 77 96 3d
       -0.036483545 -0.08693015 -0.087312035 0.073470525
000210 c5 e4 40 3a 16 56 6f bd 0c 1e 94 3d 8b f2 cd 3c
       0.0007358308 -0.058431707 0.072322935 0.025140068
000220 d2 1a 6f 3d f1 73 8d bd 0a dc 61 bd d8 da 8c 3c
       0.058375187 -0.0690688 -0.055141486 0.017194197
000230 f6 c4 de 3d 30 01 12 3e 54 a6 47 bd e7 af ca 3d
       0.10877411 0.14258265 -0.048742607 0.09896832
000240 f0 11 c1 be 5d 4b 9d 3e 31 b9 05 bc 2c 94 e2 bd
       -0.37708998 0.3072156 -0.008161829 -0.11063418
000250 7a 87 c5 3c 19 d2 eb 3d 06 13 c0 3c 33 4b b5 be
       0.024112452 0.11514682 0.023446571 -0.35408935
000260 4c 23 99 bc 84 63 04 be 71 48 9c bd 5a d6 98 3d
       -0.018693589 -0.12928587 -0.076310046 0.07462759
000270 e1 e7 1a 3b 43 6f b7 bd 38 14 c3 bb 27 0c 1d be
       0.0023636746 -0.08956768 -0.005953338 -0.15336667
000280 bc bc bd bd 2e a1 95 bd d0 ec 06 be 4c 9b 0b bd
       -0.09264514 -0.07306133 -0.13176274 -0.03408365
000290 23 f0 f7 bd fe 04 2f be c3 1a 9d bd 81 e9 ad 3c
       -0.12106349 -0.17091748 -0.0767112 0.021229507
0002a0 e4 95 12 bc e1 7b 7d 3d 32 50 0f 3e 3a dc ea bd
       -0.0089468695 0.06188572 0.13995436 -0.11467786
0002b0 ec e7 c8 bd b1 4e 8e bc 08 65 0d 3d e9 a8 9c bc
       -0.098098606 -0.017371507 0.03452018 -0.019123511
0002c0 56 6c 03 be d9 c5 d9 bd 41 80 60 3e f6 4d 83 bc
       -0.12834296 -0.106334396 0.21923925 -0.016028386
0002d0 50 6c c6 3d 7e 67 ce bd 0a 89 0d 3e 94 d7 b5 3d
       0.09688628 -0.10078333 0.13821808 0.08879009
0002e0 ea ec 84 3d 59 8a 81 3c 3a e3 de 3d 43 77 33 bd
       0.064905 0.01581304 0.10883184 -0.04381491
0002f0 18 1f f9 3d d9 af d4 bd cc 71 b8 3d d5 25 45 3d
       0.12164134 -0.10385103 0.0900608 0.048131783
000300 80 c2 11 bd fa ef 62 bc e6 b6 2b 3b f1 97 05 be
       -0.03558588 -0.01385116 0.0026201545 -0.13046242
000310 e7 52 8b 3d 63 0d a2 3d e2 5e b3 3d 6b 4a 59 3b
       0.06802922 0.079127096 0.08758332 0.0033155929
000320 15 06 21 3d 80 66 36 3c ae 3b ea 3d ed 5e 21 3d
       0.03931244 0.011132836 0.11437164 0.03939717
000330 a1 a4 aa b9 03 6e 12 3e 68 c2 a8 bd e7 1a 07 3e
       -0.00032547585 0.14299779 -0.08240205 0.13193856
000340 5d 03 49 3d 78 9c ff bd 88 10 b5 3d 76 a9 d8 ba
       0.049075473 -0.12481016 0.08841044 -0.0016529995
000350 35 55 dc bc de 00 91 be 73 77 8f bd 6b 81 1d be
       -0.026896099 -0.28320974 -0.07005205 -0.153814
000360 9c 0b 9c 3c fd 22 9c bd b2 e8 20 bd 51 fe dd bc
       0.019048505 -0.07623861 -0.039284416 -0.027098807
000370 02 1d 86 3d b4 1b 03 3e ce 28 fb bd 7d 92 2e be
       0.065485016 0.12803537 -0.12263642 -0.17048068
000380 2e 7a 85 be 55 7c 3f be 05 e0 ed bd 33 cd 87 3a
       -0.26069778 -0.18699773 -0.11614994 0.0010360837
000390 46 30 74 3d c0 79 4e 3d 72 be 59 3d 70 be 8d bd
       0.05961635 0.05040908 0.05316014 -0.06921089
0003a0 ac fe 1f 3c 9f ef 04 3b 95 69 4a bd 07 fa 63 3a
       0.009765308 0.0020284427 -0.049417097 0.000869662
0003b0 b1 be 9a bd 0a 09 fb bc 76 4f e8 bd 18 99 c4 bd
       -0.07555903 -0.030643959 -0.11343281 -0.09599513
0003c0 79 eb 28 be cc 72 99 3b 30 31 b7 3d 37 39 f3 3d
       -0.16496076 0.0046828743 0.08944929 0.11876147
0003d0 b2 16 ac bd 36 20 53 bc 99 4d 1e be b9 c6 c8 3d
       -0.08402766 -0.012886098 -0.15459289 0.09803528
0003e0 1e 45 ab 3d 16 6b b8 3a 32 60 27 3d 10 e9 f4 bc
       0.083627924 0.001407 0.040863223 -0.02989629
0003f0 85 89 c2 3d 66 89 ad 3d a8 3c 78 bc c0 66 0a 3c
       0.09498886 0.08473472 -0.01515118 0.008447349

conv2.bias f4 [32]
000000 46 fb de bd 58 68 04 be 93 71 31 be 37 8e a6 3c
       -0.1088777 -0.12930429 -0.17328481 0.020331485
000010 33 16 9e 3c 41 ff ff bd b7 a3 4c be 2f 84 8e 3c
       0.019297695 -0.12499858 -0.19984327 0.017397014
000020 ce 78 82 3d ee 8e 78 bc b2 31 f6 bd 3a 04 b2 3d
       0.06370698 -0.015170796 -0.120211974 0.086922124
000030 8a 9b 2f be 4f 8c 14 3e 42 44 31 be f7 ca 2a 3d
       -0.17149177 0.14506648 -0.17311195 0.04169747
000040 31 b5 b7 bd 45 46 23 be 85 2e eb 3d ae 70 59 bd
       -0.089701064 -0.15944774 0.11483482 -0.053085975
000050 ab 5c bf 3d 5a d0 d3 bd 5e 5e 2d 3b 93 5e a1 3d
       0.09343847 -0.10342474 0.0026453952 0.07879367
000060 96 6e 21 3c ec c2 11 be c4 fc cb 3d 3d 5f c5 bc
       0.009853026 -0.14234513 0.099603206 -0.024093265
000070 48 89 24 3d a5 ce 35 be 17 59 1b 3d 41 70 e0 3d
       0.040169984 -0.1775461 0.03792676 0.10958911

transformer.layers.0.self_attn.in_proj_weight f4 [96, 32]
000000 b5 6d ac 3e 09 dc e0 3e 77 c0 8e 3d 44 48 ee be
       0.3367745 0.43917874 0.069703035 -0.4653951
000010 39 79 8f 3c 03 61 32 bd f0 48 bf 3d 10 72 80 3e
       0.017513858 -0.04354955 0.093400836 0.25087023
000020 a1 09 3a 3e 71 8d ed 3d 0e 29 61 3f 47 27 9e 3e
       0.18167736 0.115992434 0.8795327 0.3088934
000030 1c 2e 93 3e 15 ba 5b 3f fe a1 bb 3e 55 fa 07 3f
       0.28746116 0.85830814 0.36647028 0.5311635
000040 f7 45 b5 3e c9 61 5c 3e a5 ef 20 bc e1 36 28 bd
       0.3540494 0.21521677 -0.009822761 -0.04106796
000050 ea 2e 8a 3e a1 a0 b4 3e f0 68 89 3e fd a4 b0 3d
       0.26988918 0.352788 0.26837873 0.08625219
000060 e2 6c 7a 3e 15 1a 87 3e 3a 06 2d 3f e6 1e 8e 3e
       0.24455598 0.26387087 0.67587626 0.2775795
000070 a4 a6 87 3c 23 4f 9a 3d 68 8d ce 3e 82 aa ca 3e
       0.016558953 0.075346254 0.4034226 0.39583212
000080 1f ad 7e bd cd 37 c6 be 31 25 b4 bd 4e ef 0b be
       -0.06217682 -0.38714448 -0.08796156 -0.13665506
000090 96 88 18 bd f4 08 85 be 74 5c 2f be f0 ee 71 be
       -0.037239634 -0.25983393 -0.17125112 -0.23626304
0000a0 ca 27 34 bc 5d 24 cd 3d 02 75 03 bf 2a 8b 06 be
       -0.010995815 0.10016701 -0.51350415 -0.13139024
0000b0 29 6f c3 be c3 cc 38 bf dc a6 85 3d da b8 67 be
       -0.38170746 -0.7218744 0.065259665 -0.22629109
0000c0 04 e5 51 be e6 81 03 bc ca 09 db bd 64 94 85 3e
       -0.20497519 -0.008026576 -0.106952265 0.26089776
0000d0 e9 60 12 3e f8 97 88 bd 6f ec 84 be dd 71 9c be
       0.14294781 -0.06669611 -0.25961635 -0.3055562
0000e0 9c 04 8d be 34 ce c2 be ee 5f 12 be 89 16 69 be
       -0.2754258 -0.38047945 -0.14294407 -0.22762503
0000f0 e1 05 ae 3d 21 3d ad ba d0 1a 65 be a2 79 f1 bd
       0.08497215 -0.001321707 -0.2237351 -0.11790778
000100 ba 89 e1 bd 30 e3 b8 3e 78 4c f5 3d 37 8d 34 3e
       -0.110125974 0.3611083 0.11977476 0.17631994
000110 f6 e1 19 bc d4 f2 4e 3e b4 6f fa bd 02 68 8a 3e
       -0.009392252 0.20209819 -0.12228337 0.27032477
000120 f0 ed b0 bd c2 92 83 bc 37 c1 85 3e a5 bc c6 bd
       -0.08639133 -0.01606119 0.26123974 -0.0970395
000130 e5 0d d3 3d 56 6e 23 3e 95 46 b9 bd c5 1a ec 3e
       0.103053845 0.15960059 -0.090466656 0.46114174
000140 68 03 c6 3d 1f 94 71 bc 3c 52 5f 3e b9 2b 0f be
       0.096686184 -0.0147447875 0.21808714 -0.13981523
000150 a7 ab 2e 3e be 6c d4 3b 27 db 60 3d ef cf af 3d
       0.17057668 0.0064826896 0.0548965 0.08584582
000160 f4 04 45 bd 36 ff 63 3e a9 f7 f4 3e 63 34 a1 3e
       -0.048100427 0.22265324 0.478452 0.3148528
000170 7d 92 62 3e 53 27 ac 3d 53 70 af 3e 51 ae 24 3e
       0.22126193 0.08405938 0.34265384 0.16082121
000180 d0 c0 c4 be 33 96 e5 be 5c 43 56 3e e4 da 65 3f
       -0.38428354 -0.44841155 0.20924133 0.89787126
000190 76 d8 7e be 09 df 04 3e d3 47 24 bd 73 8a 24 be
       -0.24887261 0.12975706 -0.04010756 -0.16068439
0001a0 92 8d 8d 3c a7 f0 0f be ab 55 ff be 7f ce ba bd
       0.01727942 -0.14056645 -0.49870047 -0.09121417
0001b0 cf 4a 2c be f9 2c 6c bf 6c 24 2b be 60 2d 6e be
       -0.16825412 -0.9225612 -0.16713113 -0.23259497
0001c0 4b 89 75 be bb 92 3d be 1d 44 3a 3d 3a ba b0 3e
       -0.23978154 -0.18513004 0.045475114 0.3451708
0001d0 fe b2 7b be d9 f3 af be d9 49 fc be f8 2c 9d be
       -0.24579999 -0.34365728 -0.4927509 -0.3069837
0001e0 6a 91 04 3e 4e 79 cc be 4b 43 ee be 2d 47 a7 bd
       0.12946096 -0.39936298 -0.46535715 -0.081678726
0001f0 b7 f2 5f 3d 67 f8 c7 3d 15 d9 e0 be d7 15 c4 bd
       0.05467483 0.09764176 -0.4391562 -0.09574478
000200 a1 75 4a 3d c5 b8 84 bd d4 8c e3 bd 2d 32 9c bd
       0.049428586 -0.064805545 -0.11110845 -0.07626758
000210 e6 2e 63 bd cf 12 9a 3d f6 d9 0d 3e 0e d6 6d 3d
       -0.055464648 0.07523119 0.13852677 0.058065467
000220 22 0c b1 3d 84 0f 34 be 14 7f 91 3e fe 6f dd bd
       0.08644892 -0.17584044 0.28417265 -0.108123764
000230 5d e2 86 bc ae 44 26 3e b5 2b 92 3d 92 95 de 3d
       -0.01646536 0.16237137 0.07137243 0.10868372
000240 14 19 ce 3d 06 4b d0 bd f0 16 4d be 1e 96 bf 3d
       0.10063377 -0.101705596 -0.20028281 0.093548045
000250 ef 50 fe 3d 06 fa 91 3e bf 7d f3 bd 10 3b 0e bd
       0.124177806 0.28511065 -0.118892185 -0.034724295
000260 25 ed 80 3e 09 57 9b bc 00 6f 75 bd bb 6e b3 3e
       0.25180927 -0.0189624 -0.05992031 0.35045418
000270 d7 0b 67 be 68 db 2a bd e6 a7 2f 3e 22 06 ff 3d
       -0.2256311 -0.04171315 0.17153892 0.124523416
000280 fb 47 ec bd 48 9c 24 be 3f 0a 09 3d a4 73 36 be
       -0.11537167 -0.16075242 0.033457037 -0.17817551
000290 3e d9 2d bd c6 ac df bd 60 a0 ea 3d 14 0d 61 3b
       -0.042443506 -0.10921626 0.1145637 0.003434007
0002a0 92 25 1f be 1a 2d 3d bd 6d 79 99 be 2b 12 9c 3e
       -0.15541676 -0.04618559 -0.29975453 0.3048261
0002b0 d0 24 20 3d f5 1b 8f be 19 f9 67 be 37 30 10 be
       0.039097607 -0.27951017 -0.22653617 -0.14080893
0002c0 1d 20 80 bc 0d dc d1 3d d2 a8 9a 3e f0 97 a2 bd
       -0.015640313 0.102470495 0.30206925 -0.07939136
0002d0 af 03 01 3e 6f eb d5 ba e5 fc f8 3d 13 42 99 be
       0.12599061 -0.0016320775 0.12157611 -0.29933223
0002e0 5b 72 52 be 10 41 08 3e 3f 0f 71 3c 28 6f 9a be
       -0.20551436 0.1330607 0.014713108 -0.3016293
0002f0 4a 7e 9d 3c 6d 10 bb be 90 14 de 3c 88 27 46 be
       0.019225258 -0.3653597 0.027109414 -0.19351017
000300 c5 66 68 be ac 95 4b be c1 ce 89 3c 8c 64 ba bd
       -0.22695453 -0.19881314 0.01682222 -0.09101209
000310 9c fb 9e be e1 d6 11 3e ca 7b 4b be 56 cf 1c be
       -0.31051338 0.14242126 -0.1987144 -0.15313467
000320 d1 62 9d bd 49 e0 9c bd b7 07 1c be 1d 5c 4b 3e
       -0.07684863 -0.076599665 -0.15237318 0.19859357
000330 47 c8 33 be 5f 59 c1 be 43 f0 ad bd 55 de 9e be
       -0.17556868 -0.37763497 -0.08493092 -0.31029
000340 b5 9a 96 be 8d bd ee 3d 88 3b 47 3d 13 40 8e be
       -0.29414907 0.11657248 0.048640758 -0.2778326
000350 4f d2 40 3e ce 84 2b be df 4d 3e 3e df d3 41 bd
       0.18830226 -0.1674988 0.18584393 -0.047321197
000360 4a 7f 97 be df ad 1f bd 34 82 3c be 8c 56 a8 be
       -0.295893 -0.038984176 -0.18409044 -0.3287853
000370 e0 e7 92 3e a8 1d 97 bd 26 f2 4d be 7a 78 21 be
       0.28692532 -0.07378703 -0.20111904 -0.15768614
000380 84 e2 85 bd 58 c1 f0 bd 7f 88 be 3d 7a ac a5 bd
       -0.06537345 -0.117556274 0.09303378 -0.08089538
000390 a2 b8 3b be 66 b6 32 be ba af 9d 3c d3 d2 bd be
       -0.1833215 -0.17452392 0.019248832 -0.3707491
0003a0 34 6f 4e bc c9 ea bd bd 2c d2 84 be bc 8a dc 3e
       -0.012599755 -0.09273297 -0.25941598 0.43074596
0003b0 5f ea bc 3d 7d d2 f7 be 4f d7 07 bd 57 1b 27 be
       0.0922439 -0.48402777 -0.03316432 -0.16319023
0003c0 da d5 05 be b9 24 64 bc da 04 26 3e 4a 81 c6 be
       -0.13069859 -0.013924771 0.16212788 -0.38770515
0003d0 49 a8 d9 3d d6 1b 99 3d e7 1b b4 3c c4 ce 49 be
       0.10627801 0.074760124 0.021985961 -0.19707781
0003e0 6f 3c 7f be 4d 1e 99 3e d8 8a 9a be 20 c4 e4 bd
       -0.24925397 0.2990593 -0.30184054 -0.111702204
0003f0 3f c0 96 3e bf f3 1b be d0 eb 42 3d 5b 6c 92 be
       0.29443547 -0.152297 0.04758817 -0.28598294

transformer.layers.0.self_attn.in_proj_bias f4 [96]
000000 79 f5 ac 3e 2e f2 97 be d8 5d 65 3e 79 bd 54 be
       0.3378103 -0.29676956 0.2239908 -0.20775403
000010 b0 41 04 3d 25 aa 3f be 1a 12 0e be 28 ff 29 be
       0.032289207 -0.18717249 -0.13874093 -0.1660124
000020 aa 8b 71 be e2 cc cf be 35 6f be be 1c 52 fc be
       -0.23588434 -0.40586 -0.3719422 -0.49281394
000030 a7 fa 10 be e0 85 ac 3d 9e 50 3d 3d 03 ae e5 3c
       -0.14158116 0.08423972 0.04621946 0.028037077
000040 2b 16 4e 3d bb b4 ea 3d 03 4e e0 bd a0 f1 0d be
       0.05031411 0.11460253 -0.109523796 -0.13861704
000050 b0 e7 2f be 8c 78 e2 3d 98 86 08 3e c4 17 5f be
       -0.17178226 0.11058149 0.13332593 -0.2178641
000060 82 d4 6c be aa 65 13 3e 2a 49 d0 3d 58 88 00 3d
       -0.2312794 0.1439425 0.10170205 0.031380028
000070 c2 ba 92 bd 85 ee 1d be 54 a7 7a 3d 98 7e 9c bd
       -0.071645275 -0.15423019 0.061194733 -0.07641333
000080 7a b8 95 3e c1 40 fb bd 63 97 0b 3e aa a2 27 bf
       0.29242307 -0.1226821 0.13631968 -0.6548258
000090 6b 2c 85 3e a8 96 c3 be 0f 66 7d be 83 9e b0 be
       0.2601045 -0.3820088 -0.24745964 -0.34495935
0000a0 a6 c9 91 bd 6b be b9 bd 39 ff 5d bd 13 48 a2 be
       -0.071185395 -0.090695225 -0.054198477 -0.31695613
0000b0 a1 d7 29 3d 1d 9f aa bd 94 eb 2a bd 1d 1d b2 bd
       0.041465405 -0.0833113 -0.04172857 -0.08696959
0000c0 f6 49 66 3e f2 4a c3 3d 88 27 85 be c7 f7 a3 be
       0.22489151 0.09535779 -0.26006722 -0.32024977
0000d0 a0 31 69 3d f1 c7 e4 bd 0a 69 8c bd a4 1c b3 3c
       0.05693209 -0.11170948 -0.06855972 0.021864243
0000e0 a8 d7 cd 3d 9e 6c 9f bc 00 b1 86 bd 70 fd 57 3e
       0.10050899 -0.019460972 -0.06576729 0.21092772
0000f0 3f a6 91 bc 8d 80 8e be 23 0d a2 bb 0f 40 34 3d
       -0.017779468 -0.2783245 -0.0049454137 0.044006404
000100 c8 92 09 3e 4b b4 a2 3d 6f db f2 bd af ac 17 3d
       0.13434899 0.079445444 -0.1185826 0.03702992
000110 8e b7 73 bb 5b ca 3d 3e 0d 65 05 3d 04 08 50 3e
       -0.0037188265 0.18534224 0.032567073 0.20315558
000120 43 94 84 be d9 5a 7b 3d 55 be 3a be a5 d4 59 3e
       -0.25894365 0.061365936 -0.18236668 0.21272524
000130 01 0c 64 3e 7b 36 ef 3e cd 89 a2 be 45 2c 6c 3e
       0.22270204 0.46721253 -0.3174576 0.23063762
000140 ab 89 12 be 45 86 76 be 23 9a 96 bd c5 28 56 be
       -0.14310329 -0.24074657 -0.07353618 -0.2091399
000150 14 cc 78 3e c0 84 7b 3e e0 a3 3e be 5b 16 9b be
       0.242966 0.24562359 -0.18617201 -0.30290493
000160 fa 30 d8 3d d7 e6 18 be c8 a4 23 3e 09 d7 5a bc
       0.105562165 -0.14931808 0.15980828 -0.013356932
000170 38 b3 b6 bc 88 7a 21 bd 60 56 3a 3c 4c 14 16 3e
       -0.022302255 -0.039423496 0.0113731325 0.1465618

transformer.layers.0.self_attn.out_proj.weight f4 [32, 32]
000000 13 a3 bd 3d a8 b5 a0 be 84 8a 15 3f c1 9f 1d be
       0.092596196 -0.31388593 0.58414483 -0.15392973
000010 56 ff 7a 3e 55 8f 4b 3e 0c 81 62 bd bd c4 bf 3e
       0.24511465 0.19878896 -0.05529885 0.37454787
000020 cd c1 28 be a2 c2 aa be 45 ae 8e bc 7e af 9a 3d
       -0.16480179 -0.33351618 -0.017417083 0.07553004
000030 2d 6c 79 bf 92 74 b7 bd 83 88 2c 3f 89 aa b7 3d
       -0.9743069 -0.08957781 0.673958 0.08968074
000040 2b 03 7a 3e d3 57 67 3e a3 c6 af 3e d7 9a 56 bd
       0.24415271 0.22592096 0.34331235 -0.05239376
000050 47 54 95 3e 90 60 b4 3c e7 35 11 be fa 03 78 3e
       0.2916586 0.0220187 -0.14180718 0.24220267
000060 35 7c 5c 3e 79 13 04 bd 1f a8 0c bd 49 0a 95 3c
       0.21531756 -0.032245133 -0.03434002 0.01819338
000070 0e ee dc 3e 4b ce 3d be 49 9e 3d be ab 8c cd bd
       0.4315037 -0.18535726 -0.18517412 -0.10036596
000080 f0 06 08 3f dd 0c 98 be 72 8a 75 3d 22 31 02 3f
       0.53135586 -0.29697314 0.059946485 0.5085622
000090 fa b6 82 3e 2d a7 a1 3e 4d 90 84 3e a3 82 f1 bd
       0.25530225 0.31572857 0.25891343 -0.11792495
0000a0 8d 32 9d 3c b3 d1 8f be 8c c1 84 be c6 cd 38 3f
       0.019189144 -0.28089675 -0.25928915 0.72188985
0000b0 64 da 88 be 36 21 cd 3d dd c8 0b 3f 71 57 d3 3e
       -0.2672912 0.100161 0.5460337 0.4127765
0000c0 63 30 c0 bd b5 35 ce bd 63 a7 ed 3d 8a 30 d5 be
       -0.09384229 -0.100688376 0.11604192 -0.41638595
0000d0 45 ca 1d 3e 1e 3b 4a bd 1a 69 b5 3e 21 3b 8a bd
       0.15409191 -0.049372785 0.3543175 -0.06749559
0000e0 d5 11 eb 3e c7 34 09 bf b9 a9 98 be 01 1e 5b 3e
       0.45912042 -0.53596157 -0.29816988 0.21398164
0000f0 c2 05 25 bb 6e fd ff bd 9d 37 40 3e cb 31 3e 3d
       -0.0025180434 -0.1249951 0.18771215 0.046434205
000100 78 74 5e 3d c3 6f 0f 3e 38 12 32 bd cd 3b 17 bf
       0.054310292 0.14007477 -0.043474406 -0.59075624
000110 8b 66 0a 3e 27 80 9e bd 02 be dc 3c a1 98 17 3e
       0.1351568 -0.07739287 0.026946072 0.14804317
000120 d7 04 f2 bd d2 b8 3a 3e 8c cd a7 3d 70 ec 95 be
       -0.118173294 0.18234566 0.08193502 -0.2928195
000130 e3 5a f6 bd f8 26 01 3d 4a 8d dc ba ee 7a 1e 3d
       -0.12029054 0.031531304 -0.0016826775 0.038691454
000140 80 42 61 3d 4c 98 9e bd fa 63 e1 3d 5f 37 ae 3d
       0.05499506 -0.07743892 0.11005397 0.08506655
000150 e5 0a 49 bd 25 d6 45 3d 52 7e 36 be a9 46 96 bd
       -0.049082655 0.048299927 -0.17821625 -0.07337696
000160 68 3e 09 3e e5 89 30 3d ff 68 4d 3d bf e2 ab bd
       0.13402712 0.043100256 0.05014896 -0.08392858
000170 1c 7a 4b be c5 00 fe 3d 1e 6b bc be 63 c2 8e 3c
       -0.198708 0.124024905 -0.36800474 0.017426675
000180 25 d4 f3 3e 1f c5 40 be c8 c2 9b be 50 c8 77 3e
       0.4762279 -0.18825196 -0.30422044 0.24197507
000190 0e 8c 06 3f 6e b3 01 3f a3 5b 94 3e 0b a0 d0 be
       0.52557456 0.5066441 0.28976163 -0.40747103
0001a0 5d fc 5e bd 96 4a cd be 49 fd 25 be cb fd 2c 3f
       -0.05443989 -0.40095967 -0.16209902 0.6757476
0001b0 4e f5 aa be cc 4e bf 3e fa 43 b3 3e b3 74 75 3e
       -0.33390278 0.37364805 0.350128 0.23970298
0001c0 a0 7f 19 be 28 35 5c be ef e7 ac be 9b 82 26 be
       -0.14990091 -0.21504653 -0.337707 -0.1626076
0001d0 cd 8e 3c 3e 51 ae 72 3e d8 d6 c7 3e 41 e7 01 bf
       0.18413849 0.23699309 0.390311 -0.5074349
0001e0 08 ba 0d 3f 00 87 9e be 4f 4a e2 be 63 53 ac 3e
       0.55361986 -0.30962372 -0.44197318 0.3365737
0001f0 c4 b9 a5 be 16 44 55 bd 7f 82 23 3e d1 bc 0b be
       -0.3236829 -0.052066885 0.15967749 -0.13646246
000200 2d cd 4d be fa 5e 06 3e 9d 71 e8 bd 67 ca c6 3e
       -0.200978 0.13122168 -0.11349795 0.38826296
000210 1f 23 2c be 98 a0 28 be cf ce 11 be 75 a0 01 bf
       -0.16810273 -0.16467512 -0.14239047 -0.50635463
000220 31 12 02 3f 72 a9 d9 3d e4 7c 35 be fa e4 e0 bd
       0.5080901 0.10628022 -0.17723423 -0.10981174
000230 1d 1d ab 3e 0c 24 bb bd 9f 78 df bd 8c 0a 8e bd
       0.3342065 -0.09137735 -0.109116785 -0.069356054
000240 63 10 0b be a2 55 4f bc 53 68 b7 be f8 8b 18 3d
       -0.1358047 -0.012654694 -0.3582178 0.03724286
000250 a6 1f 4a be 79 9a 4e bd cb fb 29 3e e1 de ae 39
       -0.19738635 -0.050440285 0.16599958 0.00033353924
000260 4d 9f a5 3c df 82 66 3e 14 52 41 bd a1 4e c1 bc
       0.020217562 0.22510861 -0.047197416 -0.023597063
000270 e3 38 53 be 14 72 3d bc f5 2b 54 bd 31 01 32 3d
       -0.2062717 -0.011562843 -0.051799733 0.043458167
000280 59 20 dd be 6e c8 18 be 77 a0 fc 3d 42 67 e4 3e
       -0.43188742 -0.14920208 0.12335294 0.4461003
000290 52 f9 8a 3c ac 60 85 3d f4 24 43 bc 55 8b 98 bd
       0.016964588 0.06512579 -0.011910666 -0.074484505
0002a0 c5 58 a8 3e c3 67 be be 7c 25 d3 3e f6 cf ba 3d
       0.32880226 -0.3718854 0.41239536 0.09121697
0002b0 9d 8d a4 be 33 45 cf bd f8 37 70 3e 70 b5 5d 3c
       -0.32139292 -0.101206206 0.2345885 0.013532028
0002c0 09 06 30 3d fb 42 fd 3d d9 26 14 be 15 69 cb 3b
       0.042974506 0.12366291 -0.14467944 0.006207595
0002d0 fb a9 ba bd fb e3 98 be 4a 18 34 3e 51 35 94 bd
       -0.091144525 -0.29861435 0.1758739 -0.07236732
0002e0 43 52 cb bc a4 22 5f 3c ea 17 29 bd b3 14 38 3e
       -0.024819499 0.013619099 -0.04128257 0.17976646
0002f0 d8 20 7e 3e c4 fe 9f 3c 17 13 90 3d 99 1f b5 bd
       0.24817216 0.019530661 0.07034891 -0.088439174
000300 f6 57 03 3e 78 19 39 3d e4 b7 70 3d cd 64 09 bf
       0.12826523 0.045190305 0.05876912 -0.53669435
000310 b0 ae 4f 3d c0 5e 95 be 1e ee 1c 3e 8f de 48 bc
       0.050703704 -0.2917385 0.1532521 -0.012260093
000320 ca 73 a1 3d 68 eb 9d 3e 89 ab 19 be 3e bc a9 be
       0.07883413 0.30843663 -0.15006842 -0.3315143
000330 99 74 89 bd 28 7d 01 be 10 4b 59 3e bf 58 88 3d
       -0.06711692 -0.126454 0.2122004 0.06657552
000340 ee a4 02 3d 5d c7 a3 3a 86 92 0c 3e 55 b5 83 3d
       0.03189557 0.0012495328 0.1372777 0.06431071
000350 ee 70 f9 bd fb 59 fa bc 82 55 30 bd dc a1 4f 3d
       -0.12179743 -0.030560484 -0.043050297 0.05069147
000360 09 72 9b 3d 03 01 95 3d bf 2f 82 bd ab 5a 51 be
       0.0759011 0.072755836 -0.06356763 -0.20444743
000370 e9 73 a1 be 84 03 b8 bb 02 21 cf be b3 79 f8 bc
       -0.31533745 -0.0056156535 -0.4045487 -0.030331468
000380 ab d4 d5 be 75 20 1d 3f cf 2f 23 bf d4 bf 07 3f
       -0.41763815 0.6137765 -0.63744825 0.5302708
000390 38 cf 83 3e 82 9b 7e 3e e9 9e d4 be 28 74 bd bc
       0.25744033 0.24864009 -0.4152749 -0.023126677
0003a0 fb 6d 21 bf 96 c7 6d be 47 71 01 3f 21 8b 76 3e
       -0.6305844 -0.23220667 0.5056347 0.24076511
0003b0 d6 f4 3a 3e 3f 8e 26 3e ae 8e 8b 3e 47 ff 46 3d
       0.1825746 0.162652 0.27257293 0.048583295
0003c0 cc 06 3e be ad bb 92 3c 5f f1 e0 be 75 80 10 be
       -0.1855728 0.017911756 -0.43934152 -0.14111502
0003d0 fc af af 3d 78 22 4e 3d 43 e9 80 be ec 8e d2 3d
       0.08578488 0.05032584 -0.25177965 0.102811664
0003e0 5f 6c 76 be c3 6d b2 3d f8 74 a0 bd dc 50 08 3f
       -0.24064778 0.08712342 -0.0783481 0.5324838
0003f0 b0 4d 99 3e b0 c1 ad 3e 27 7f 0e 3d 28 23 8e 3e
       0.29942083 0.33936834 0.03478923 0.27761197

transformer.layers.0.self_attn.out_proj.bias f4 [32]
000000 e0 6d d8 3d 83 db 65 3e c6 5e 8a 3d a5 19 28 3f
       0.10567832 0.22447018 0.06756358 0.6566413
000010 11 bb c2 be c7 07 40 be 44 62 35 3e 99 4c 53 be
       -0.38033345 -0.18752967 0.17713267 -0.20634688
000020 bc 68 86 bc e8 99 79 3e d0 96 89 3e 6d d2 19 bd
       -0.016407363 0.24375117 0.26872873 -0.037554193
000030 cb 7d 70 3d 22 ed b0 3c a8 b4 39 3c b2 6b 05 be
       0.058713716 0.021597449 0.011334576 -0.13029364
000040 19 c9 64 bc b0 0a 25 3f f9 80 53 3e d2 56 63 be
       -0.013963961 0.6446943 0.20654668 -0.22201088
000050 39 bc 94 3d a6 0d 78 be a8 f2 ae 3d 74 a0 13 be
       0.07262463 -0.24223956 0.08542377 -0.14416677
000060 65 5b 85 3d 39 e1 fc bd ce 82 94 bd 35 4c 82 be
       0.06511573 -0.12347645 -0.072515115 -0.25448766
000070 3f 60 18 3e 70 fe 47 3d 1b fb 3a 3d ed 74 91 bd
       0.14880465 0.048826635 0.04564963 -0.0710238

transformer.layers.0.linear1.weight f4 [2048, 32]
000000 bc fc 23 3e af a8 ca 3c 8e 6a 5f 3d 88 fa a5 ba
       0.1601438 0.024738638 0.054544978 -0.0012663165
000010 7d e7 04 3e e1 c2 aa 3e b2 ed da 3c 3e bb 99 be
       0.12978931 0.33351806 0.02672467 -0.30025667
000020 5a cc ab be 5b 8f 8d bc 0e a3 4e be 8e d7 13 3e
       -0.33554345 -0.017280271 -0.20179388 0.14437696
000030 bd 54 9d be 28 45 3d 3d 7c 58 45 bd 66 de 6c bd
       -0.30728713 0.04620853 -0.04818009 -0.057829283
000040 0f df 17 bd bf e1 24 be 2a 0a 97 3d 5c ca a9 3e
       -0.03707796 -0.1610174 0.073749855 0.331622
000050 1c 99 7f 3d f0 8f 55 3e 16 64 83 bd 38 30 a6 3e
       0.062401876 0.20855689 -0.06415574 0.32458663
000060 8a 2e 1e be 24 81 bd 3d 20 f4 a7 bd 51 6f 8d be
       -0.1544744 0.09253147 -0.0820086 -0.2762399
000070 bc 0c 1c 3e 2c 22 ec bc cb 41 89 3e e9 17 69 be
       0.15239233 -0.028824888 0.2680801 -0.22763027
000080 21 d4 a7 bd 73 c9 50 3d 55 af 8b bd 11 df 28 3e
       -0.08194757 0.050973367 -0.06820551 0.16491343
000090 e1 e8 86 3e c5 e0 e2 bd f8 5a 42 bd 22 8f 09 3e
       0.26349548 -0.11078028 -0.047450036 0.13433507
0000a0 57 44 00 3e 2e f9 1d 3d ef cd 88 3d ed 43 6c 3d
       0.1252607 0.038567714 0.06679904 0.057681967
0000b0 dd 3d e4 bd 61 78 df 3e 86 53 96 3d 59 b4 bc 3d
       -0.11144612 0.4364653 0.073401496 0.09214086
0000c0 a7 fe 1d be 35 d9 31 bd 8f fd 2c bd 4e 76 40 bd
       -0.15429173 -0.043420035 -0.042234 -0.046987824
0000d0 40 01 73 3d 3e 4c fc bb c6 67 cc 3e c4 cd e5 3d
       0.059327364 -0.0076995185 0.39922923 0.11220887
0000e0 17 d2 5e bd a5 65 f4 3d c0 91 0a be 8e 37 38 be
       -0.054399576 0.1193345 -0.13532162 -0.17989942
0000f0 c7 ce 23 3c f5 a0 1f 3e dc ba 91 bd 74 10 80 3d
       0.00999803 0.15588744 -0.07115719 0.06253138
000100 63 31 e4 3c 0f ba 1d be a6 18 8e 3d c1 a3 b4 3d
       0.02785558 -0.15403007 0.06938295 0.08820296
000110 a9 16 4d 3d ac 4f 62 bd c1 10 ee 3d 7b 15 4b be
       0.05007044 -0.055251762 0.11624289 -0.19832413
000120 00 42 86 bd d0 7b 8c bd 4f 4d 4d 3d dd 36 07 3e
       -0.06555557 -0.06859553 0.050122555 0.13204522
000130 5c de 62 be a2 e9 35 bd ea 20 73 be e4 fc ac bd
       -0.22155136 -0.044412263 -0.23743024 -0.084466726
000140 e3 ab 82 3d cf 04 d8 bd d6 73 b5 bd f8 ce 35 3c
       0.06380441 -0.10547792 -0.088599846 0.0110967085
000150 40 9a f1 3c 4b e7 81 bc 96 43 56 bd 42 08 22 bd
       0.029492497 -0.01585736 -0.05231055 -0.039558657
000160 07 b1 63 be 93 b1 af 3d 5e 44 47 be bd 3d 34 3d
       -0.222355 0.085787915 -0.19459674 0.04400419
000170 ae ac a5 3c a0 b4 30 bd e6 d2 23 be e5 1b e2 3d
       0.020223942 -0.043141007 -0.1599842 0.11040477
000180 a6 57 30 3e d3 c8 4d 3d 2f af 15 3e fc 22 16 bd
       0.17220935 0.05024035 0.14617608 -0.036654457
000190 ed 09 70 3d bf 7c 00 be c1 ed dc bd ac 48 bd bd
       0.058603216 -0.12547587 -0.107875355 -0.09242377
0001a0 9f 5c c5 bd 03 60 87 3d 90 ca 55 ba 0b 2c 0c 3c
       -0.09636807 0.0661011 -0.00081554893 0.008555423
0001b0 f8 2f d7 bd 9c b5 ed 3c 38 d4 71 be 81 c6 48 be
       -0.10507196 0.029017262 -0.23616111 -0.19606973
0001c0 8e dc 31 be 69 8f 20 be be 57 65 bd a9 2e 7c 39
       -0.17369291 -0.15679707 -0.05599188 0.00024049975
0001d0 b0 24 eb 3c 93 d2 e0 3d 6d 96 25 3e cd 72 ab 3d
       0.028704017 0.10977664 0.16170664 0.08371506
0001e0 0a 1b 3d be c4 76 bf 3d 75 3c 63 bc ac e5 6c b9
       -0.18467346 0.093488246 -0.013869395 -0.00022592273
0001f0 3f 86 2b 3d 1a c0 6b 3c b3 2c 5b be 7e 62 22 be
       0.041876074 0.014389062 -0.2140377 -0.15857884
000200 14 5d 21 3e 14 58 0d bd 2e 3a f5 3d e8 02 75 be
       0.15758163 -0.034507826 0.119739875 -0.2392689
000210 75 35 36 be 38 97 6e 3d 22 e7 12 bd 04 ca 42 bc
       -0.1779383 0.058249682 -0.035864957 -0.011888985
000220 15 f4 e4 bd a6 eb 53 3e 5c 9a 8d be 24 60 fb 3d
       -0.111793675 0.20695361 -0.2765683 0.12274197
000230 31 a7 63 bd 0a 91 0d 3e f7 92 48 3c fe 78 e3 3d
       -0.055579368 0.1382486 0.01224207 0.11107062
000240 3e e8 7e be 16 c5 45 be 9e 28 e7 bc 55 51 89 bd
       -0.24893281 -0.19313464 -0.02821761 -0.06704966
000250 2b 65 a0 3c 5d c5 1e be f3 fd f3 3e 77 ed 91 be
       0.01957949 -0.15504976 0.47654685 -0.28501484
000260 17 d2 55 bd 05 6d 47 3d 16 3e 1e be 51 00 7d bd
       -0.05220231 0.048687954 -0.15453371 -0.06176788
000270 73 dd 9b bc c4 02 0d 3e 77 7a 4e bd c2 50 5b 3d
       -0.019026494 0.13770586 -0.05040976 0.053543814
000280 3e 11 37 3e 9b f2 3a ba 04 2e de 3d 12 71 b7 3b
       0.17877671 -0.0007131488 0.108486205 0.005598196
000290 ed ba ce 3d 90 3f 6a 3c 64 bb e9 3d 1e 52 db 3d
       0.10094247 0.014297381 0.11412695 0.10709022
0002a0 dc 25 7b bb 11 58 c7 3c 1c 19 1a 3d c7 8b f4 3c
       -0.0038322126 0.024333986 0.037621602 0.029851807
0002b0 f5 48 5f 3d 53 5e db bd 2c 59 88 bd 76 c8 d7 bd
       0.054512937 -0.1071135 -0.06657633 -0.10536282
0002c0 5a 13 cb bd e0 a1 3b 3b e9 82 84 bd fe e1 58 3e
       -0.099158004 0.002863042 -0.06470282 0.21179959
0002d0 80 9e 2d bc 60 73 e3 3c e2 81 1b 3e 38 b6 3a 3c
       -0.010596871 0.027764976 0.15186265 0.011395983
0002e0 c0 e7 22 be 07 13 ab 3d 7e c3 a6 bd e0 5a 6f bd
       -0.15908718 0.083532386 -0.08142756 -0.058436275
0002f0 14 7d c0 bc 05 27 9b bd 92 10 4c be aa dc 3d be
       -0.023497142 -0.07575802 -0.19928196 -0.18541208
000300 da ff a6 bc ac ad 8b 3d 4d 14 85 3e 17 4e ae 3d
       -0.020385671 0.06820235 0.2599205 0.08510988
000310 66 54 60 bd 60 66 24 3e 1c 97 6f bd 8a a9 49 be
       -0.05476799 0.16054678 -0.05849372 -0.1969358
000320 15 cf 5a be 82 14 16 bb c7 90 69 be 24 7f d0 3c
       -0.21368058 -0.0022900407 -0.22809134 0.02545125
000330 d6 4a 84 bd 5c a5 3a bd 0f 03 6f be d1 ac 57 be
       -0.06459586 -0.045567855 -0.2334101 -0.21062018
000340 01 e1 fe bd f2 5b 20 be 2a dc 26 3e 03 0a 1d 3e
       -0.1244526 -0.15660074 0.16294923 0.1533585
000350 85 38 f1 bc 56 9c de bd 3e f7 35 3e a4 63 c6 3d
       -0.029445896 -0.108696625 0.17770097 0.09686974
000360 1c 45 35 be 3d 6e bc bc 02 e3 8d 3d f4 47 67 be
       -0.17702144 -0.023001784 0.06928064 -0.22586042
000370 9b d2 c0 ba 18 07 d7 bd 7b 9c 34 bd f0 38 02 be
       -0.0014711203 -0.104994 -0.044094544 -0.12717032
000380 42 3f 34 bd a8 b3 39 3d eb c7 41 bd c0 fd 73 be
       -0.04400564 0.04533735 -0.047309797 -0.23827267
000390 44 61 31 3d 53 3e c0 3d a3 6a 42 3e 28 f6 83 be
       0.04330565 0.093868874 0.18985991 -0.2577374
0003a0 10 1a 99 bd 93 fd 31 3e b2 91 c8 bc 3a 0f 82 3e
       -0.07475674 0.17381887 -0.024483535 0.25402242
0003b0 2c 26 71 bd a2 36 fc 3d 24 15 b2 3c 8a a9 d3 bc
       -0.058874294 0.12315108 0.021738596 -0.025837678
0003c0 c0 a2 8f 3c af 0d 53 be 27 d9 44 bd 27 57 d3 3d
       0.01753366 -0.20610689 -0.048058655 0.10319357
0003d0 ea 8a 48 bd 23 a8 e8 bc fd 8d 20 bd e0 a5 e7 3b
       -0.048960604 -0.028400486 -0.03919791 0.0070693344
0003e0 cd 39 71 be 86 68 2d bc cf 78 af bb d0 1d 0d be
       -0.23557205 -0.010584002 -0.0053549777 -0.13780904
0003f0 1d 04 4d 3d e0 4e 57 be fe 01 5e be f7 3e 06 3d
       0.05005275 -0.21026182 -0.21680447 0.03277489

transformer.layers.0.linear1.bias f4 [2048]
000000 52 1a b0 bd aa 1a 8a bd 61 9e d6 3d f3 cd 33 3d
       -0.0859877 -0.06743367 0.10479427 0.04389758
000010 41 42 ab bd 16 3f 60 be 60 40 65 3d b3 82 6e be
       -0.08362246 -0.21899065 0.055969596 -0.23292045
000020 11 68 5d be d7 80 a9 bd c4 0c 4f bd 1a d1 1d bd
       -0.2162173 -0.082765274 -0.050549284 -0.038529493
000030 49 ef 50 be e3 71 9b 3c a0 e2 94 be 65 09 12 bd
       -0.2040378 0.018975204 -0.2907915 -0.03565349
000040 e0 16 43 be 5a 0a 7a be 9a fa 0f bd a8 8d cb bd
       -0.19051695 -0.24418011 -0.0351511 -0.09939128
000050 8e 83 0b 3d bc e9 7f be ec 0a 94 be 90 4d cc bc
       0.034061007 -0.24991506 -0.28914583 -0.024939328
000060 52 e0 5f be eb 49 e7 bc 2b 29 89 bd 19 dc 99 3b
       -0.21862915 -0.028233489 -0.06697305 0.004695427
000070 d3 08 9d 3c be b4 2e be 18 03 65 be 1b 3c 4c 3c
       0.019169247 -0.17061135 -0.22364461 0.012465502
000080 8c c5 fb bd a2 1c 90 be d8 11 8b be 9a af 66 be
       -0.122935385 -0.28146845 -0.2716205 -0.22527924
000090 81 23 6d be b6 5c 67 bd 01 46 03 be f1 4c c6 3c
       -0.23158075 -0.0564849 -0.12819673 0.02420661
0000a0 79 e3 0d be 6b 0b f7 bd 3a 45 4b bc 77 22 d6 3d
       -0.13856305 -0.12062725 -0.012406642 0.104557924
0000b0 ca 5c 80 3d 13 6d 00 be 48 51 09 be fb 77 ad bd
       0.06267698 -0.12541609 -0.13409913 -0.0847015
0000c0 00 ae 62 be 3d 46 1a be ec ed c8 bd 40 ed 2b be
       -0.22136688 -0.15065856 -0.09811005 -0.16789722
0000d0 81 dc 37 be fa 77 7c bd ea a6 18 be 91 22 45 be
       -0.1795521 -0.061637856 -0.14907423 -0.19251467
0000e0 da d6 2f bc bc 9c 25 be c8 4b 66 be 47 5d 00 bd
       -0.010732377 -0.1617307 -0.22489846 -0.031338956
0000f0 a1 31 2a be d7 f1 a5 3d bc 1f 3e be b9 1a f1 bd
       -0.16620494 0.08102768 -0.18566793 -0.11772675
000100 0a d4 3c 3d 2f a9 83 3c d1 b5 75 be b1 50 e5 bd
       0.046100654 0.016071884 -0.23995139 -0.11197031
000110 72 63 8d 3d 46 31 37 be 0d e2 80 be 67 cb 8a 3c
       0.06903733 -0.1788989 -0.25172463 0.016942693
000120 1a ba 77 be d2 2c 3e be 91 ef f5 bd 9c 15 5e be
       -0.24192086 -0.18571785 -0.12008584 -0.21687931
000130 ae 50 9b bd 97 b7 46 3d e4 7a 88 3d 59 08 e8 3c
       -0.07583748 0.04851493 0.066640645 0.028324293
000140 4e ef 02 3d c0 ad 3d be 28 f6 c3 bd d2 b3 21 3d
       0.0319665 -0.18523312 -0.09568435 0.03947813
000150 37 0e b0 bb 93 c7 54 be 07 d5 20 bd d6 13 12 be
       -0.0053727883 -0.20779257 -0.03926566 -0.1426538
000160 6f 41 19 be b9 6e 40 be 8a a7 65 be a5 95 8a be
       -0.14966367 -0.18792237 -0.22427192 -0.27067295
000170 f5 08 04 be 77 81 0b bd 21 45 c0 bd f5 9a fd bd
       -0.12894042 -0.034059014 -0.09388185 -0.12383071
000180 df a6 90 bc ee 63 d1 bd 46 71 20 be 4e 27 f2 bc
       -0.017657695 -0.10224138 -0.1566821 -0.029559758
000190 54 65 1e be f8 c6 9f bb c1 8b 61 be 7c 4e 4b be
       -0.15468341 -0.004876014 -0.22025968 -0.19854158
0001a0 b6 fb 98 3c a7 28 92 3c b4 15 88 3d 83 fb 58 be
       0.018674713 0.01784165 0.066447645 -0.21189694
0001b0 12 df f7 3c ba e5 08 be 82 25 50 bd 47 33 b3 bd
       0.030257735 -0.13368884 -0.05081702 -0.08750015
0001c0 0d 31 af 3d 5f 93 96 bd 0f f9 1c 3e d4 b3 13 bd
       0.085542776 -0.073523276 0.15329383 -0.03606017
0001d0 24 5a a2 3c 93 c9 9f bd 21 12 95 be 31 71 1f bd
       0.019818373 -0.07802119 -0.29115394 -0.038926307
0001e0 01 7d b0 3d 04 87 15 be 0f 08 52 be 83 aa 7c be
       0.086175926 -0.14602286 -0.20510887 -0.2467442
0001f0 cf 6d 95 3c 04 7e 9c 3a 50 32 67 be 28 6a 1d 3d
       0.018240837 0.0011939411 -0.22577786 0.038431317
000200 6d fd dd bd c4 d5 4c be 91 7e ef bd 51 71 93 bd
       -0.10839353 -0.2000342 -0.116940625 -0.07199348
000210 00 e4 ac 3b ef e0 66 be 37 08 36 be d2 10 1e bd
       0.005276203 -0.22546743 -0.17776571 -0.03859026
000220 b2 fc 1a be 6b 69 1d be 36 d3 4c bd 2f 05 09 3d
       -0.15135458 -0.15372245 -0.050006114 0.03345221
000230 c3 f4 39 be 6c 40 32 bd 9c c3 49 be 0b 6b 87 be
       -0.18159775 -0.04351847 -0.19703525 -0.26448855
000240 d2 ea ab bb 10 c9 ed bd 44 1a 1f be ad f3 d4 3d
       -0.0052464986 -0.11610615 -0.15537363 0.1039804
000250 d0 0e 44 bc 97 8a 96 3d 59 4a 28 3d 89 8f ed 3a
       -0.011966422 0.07350653 0.04108653 0.0018124442
000260 77 c8 77 be fd 03 89 bd b4 92 e9 3c a7 03 7b be
       -0.24197565 -0.06690214 0.028512336 -0.24513112
000270 58 3d ce bd 74 8c 71 be 06 00 3d be 01 6c 41 be
       -0.10070294 -0.23588735 -0.1845704 -0.18888856
000280 a5 b1 33 be a2 f3 19 be 89 1d 67 be 0d 26 c2 bd
       -0.17548235 -0.15034345 -0.2256986 -0.09479914
000290 d8 d5 64 bd 20 fd 5e be 4d 70 a3 3d 00 bf bf bd
       -0.055868 -0.21776247 0.07980404 -0.09362602
0002a0 de fb bf bd 4d 1a 52 3d d0 46 45 bd 5c c9 29 3d
       -0.09374212 0.051294614 -0.048163235 0.041451797
0002b0 5e ba 56 bd 19 7a ed bd 9e 53 b0 bd 15 ad 7d be
       -0.052423827 -0.11595554 -0.08609699 -0.24773057
0002c0 57 4f 29 be 86 a9 44 be 6e e9 77 bd 48 ea 7f be
       -0.16534172 -0.19205293 -0.06052535 -0.24991715
0002d0 6a 87 29 be b9 41 73 be 7d f1 eb 3c 40 be 9a bd
       -0.16555563 -0.2375554 0.028801674 -0.075558186
0002e0 75 25 6c 3c 2d 71 92 be d3 db f9 3a ea d3 ad bd
       0.014413227 -0.2860197 0.0019062705 -0.08487685
0002f0 fd 44 2b be 90 17 2b be 03 90 1e be 41 12 78 be
       -0.16725536 -0.16708207 -0.15484624 -0.24225713
000300 3b 57 c8 3d a7 ee eb bd e8 33 dd 3d 9f a4 00 be
       0.09782263 -0.11520129 0.10800916 -0.12562798
000310 de ab 57 be 45 6d 09 be d6 fd 44 be be 94 45 be
       -0.21061656 -0.1342059 -0.19237456 -0.19295022
000320 42 72 ea bd 93 bd 87 be 72 35 ae bd 94 7c 80 3d
       -0.11447574 -0.2651182 -0.08506288 0.062737614
000330 d1 7a 32 be 34 67 59 3c b0 8c 53 be e3 20 33 be
       -0.17429663 0.013269234 -0.20659137 -0.17493014
000340 39 b8 26 be 33 6c 05 3d 00 42 a9 3b 44 94 81 bd
       -0.16281213 0.03257389 0.0051653385 -0.063271075
000350 bd 0f c9 bd e8 07 5e be c8 44 06 3c c5 9f f9 3c
       -0.09817455 -0.21682703 0.00819511 0.030471692
000360 6d f0 d2 bc 08 ae ea bd ad 0f 26 be d7 0f 89 be
       -0.02574941 -0.11458975 -0.16216917 -0.26769897
000370 e9 95 79 be 86 0d 93 bd a2 24 2e bd 97 9d d0 bd
       -0.24373592 -0.07180314 -0.042515405 -0.10186308
000380 b3 e8 c0 3d f2 53 8a bd 74 9a 1c be 8e e4 8e be
       0.09419384 -0.067542925 -0.15293294 -0.27908748
000390 ad 84 3a be 38 f9 e2 3c e3 e4 07 3d 78 b9 c1 3d
       -0.18214674 0.027706727 0.033177268 0.094592035
0003a0 df 0c 2d be fa de f0 3d f2 7b 20 3c 52 be 5a bd
       -0.16899441 0.117612794 0.009795176 -0.05340416
0003b0 b1 f7 17 be f5 e8 9d 3d d5 62 ce bc b9 6f 2c 3d
       -0.1484058 0.07710449 -0.025193611 0.042098735
0003c0 2a fa 54 be 2b 6c 33 be 87 fb 0f 3d 50 dc 1c bc
       -0.20798555 -0.17521732 0.035151985 -0.009574011
0003d0 ea f6 1d 3e fe 31 6e 3d e2 87 84 bd c7 d4 98 bd
       0.15426221 0.058153145 -0.0647123 -0.07462459
0003e0 23 ba ea bd ce e5 e6 bd fb 6f 04 bd 81 95 f6 3c
       -0.11461284 -0.112743005 -0.032333355 0.030100586
0003f0 99 f5 51 be 95 1d 40 be dd ff d5 bd 7d d6 55 3c
       -0.20503844 -0.18761285 -0.10449193 0.013051626
