models/model_epoch_2.pth (torch, 581156 bytes, 18 tensors)

conv1.weight f4 [16, 8, 3]
0.09734181 -0.14427345 0.002618216 0.20796739 0.045507237 -0.04962437 0.16417801 -0.07514706
0.19412547 0.03125348 0.17372327 -0.13018031 -0.17229092 0.09309883 -0.059295364 -0.14872992
0.17205463 -0.04442234 -0.17793709 0.17677486 0.10201513 0.08096218 -0.07131733 0.14466816
0.20096692 0.19225144 0.05976545 0.1182723 -0.12223301 0.07943714 0.105855696 -0.12875794
0.06268393 -0.04476149 0.15557773 -0.1301393 0.10786875 0.071251884 -0.016440805 -0.11864073
0.0076275775 -0.15481347 0.081906304 -0.13661265 -0.013858802 -0.03849384 0.12857299 -0.08623572
-0.15864098 -0.022509992 -0.103129774 -0.19052465 -0.19140999 0.19096503 -0.045396805 0.070909955
-0.08179985 0.095643945 -0.14217131 0.06552592 0.005639349 0.1579463 -0.00670472 0.025237085
0.12900142 -0.17320009 -0.1713123 -0.06545101 0.110270016 -0.06749908 -0.092477866 -0.011443231
0.18332244 -0.00037308116 -0.12998539 0.1602821 0.17670566 0.07116516 0.090319216 0.16601652
0.14054397 -0.11052811 0.012448992 -0.097013846 -0.015903594 0.03030457 0.10030481 0.027729161
0.15525712 -0.073523924 -0.20140691 0.17999092 0.009636794 -0.102768965 -0.018202038 0.088281
-0.06169699 0.18403228 -0.15048352 -0.08200573 0.16199659 0.06511901 0.018108135 0.19046606
-0.09922012 0.1401173 -0.040371068 0.017306274 0.09387213 0.033767883 0.014420516 -0.12909208
-0.07351864 -0.110579506 0.09121055 0.07045579 0.14570683 -0.16033112 -0.09031827 0.0807983
0.11698648 0.014716726 0.05568222 -0.09389619 -0.0004956223 -0.1346258 0.1300921 0.17271823
-0.0723018 0.087703355 -0.056663666 0.01498389 0.24128121 -0.06954178 0.15541947 -0.16851234
-0.029483555 -0.13119087 0.16975884 -0.14857222 0.027397942 -0.10181232 0.0044367136 -0.13167909
0.0973988 0.20317732 0.014649397 -0.026618922 0.022461593 -0.014051985 -0.16428365 -0.040834136
-0.023965986 -0.08934794 0.19392392 0.11147636 0.060141742 0.13736942 0.11353861 -0.102858976
0.17609674 -0.118962005 -0.09993603 0.19493154 0.11158713 0.1952368 0.011818219 -0.059770048
0.09566036 -0.09408821 -0.16148327 -0.01934481 0.15373163 -0.03567641 -0.08394282 -0.15182489
-0.20492268 0.13165739 0.059432007 -0.01546025 -0.07312447 -0.1957214 0.121872894 0.2223208
0.10638534 0.10661721 -0.15416291 0.26822683 -0.033494763 -0.04309587 0.10569251 0.030143466
-0.07130495 0.006384138 -0.033541486 0.074829176 0.09763882 -0.10535651 0.14714716 0.056581754
-0.15847029 -0.16519453 0.00023848568 -0.07636787 0.07900537 -0.0050950022 0.20014973 -0.17927647
-0.20923038 -0.12125346 -0.14549439 0.04610693 0.1949935 0.00033920933 -0.10404459 0.0578204
-0.10768618 0.057248417 0.19141462 -0.04386217 0.104071654 -0.1244121 0.04887363 0.071288526
-0.19223817 -0.07881556 0.13475166 0.1386632 -0.04909981 0.10304875 -0.112236686 -0.09210717
-0.06793396 0.14413069 0.10007722 -0.0844282 -0.08724088 0.12398806 -0.140626 0.09834241
0.12097235 0.1193397 -0.094010316 -0.044707667 -0.01660012 0.26280454 -0.13008745 -0.17253849
-0.06590117 -0.13619584 -0.16405146 -0.047219142 -0.11000475 -0.029912114 -4.822377e-05 0.12314506
00000000: 255b c73d 6bbc 13be 6096 2b3b 67f5 543e
00000010: cc65 3a3d ec42 4bbd 481e 283e b4e6 99bd
00000020: d4c8 463e a603 003d 83e4 313e fd4d 05be
00000030: 086d 30be 99aa be3d b2df 72bd a84c 18be
00000040: 172f 303e 33f4 35bd 2435 36be 7804 353e
00000050: 4fed d03d 80cf a53d d20e 92bd e423 143e
00000060: 46ca 4d3e 90dd 443e 9ecc 743d bf38 f23d
00000070: 4d55 fabd f0af a23d dfca d83d 1fd9 03be
00000080: 6f60 803d d357 37bd c54f 1f3e 3d43 05be
00000090: 4bea dc3d 82ec 913d deae 86bc e9f9 f2bd
000000a0: c2f0 f93b 6c87 1ebe 7ebe a73d 30e4 0bbe
000000b0: 0710 63bc b7ab 1dbd a3a8 033e 5a9c b0bd
000000c0: c872 22be e066 b8bc b435 d3bd e518 43be
000000d0: fb00 44be 568c 433e 00f2 39bd 3d39 913d
000000e0: ae86 a7bd f9e0 c33d 5b95 11be 7432 863d
000000f0: 4aca b83b adbc 213e 45b3 dbbb 01be ce3c
00000100: f318 043e 5d5b 31be 7e6c 2fbe 2e0b 86bd
00000110: 3fd5 e13d f53c 8abd 0965 bdbd 647c 3bbc
00000120: e1b8 3b3e 1b9a c3b9 e41a 05be fe20 243e
00000130: 54f2 343e 0abf 913d 48f9 b83d 3c00 2a3e
00000140: c2ea 0f3e 905c e2bd dbf6 4b3c 32af c6bd
00000150: 4148 82bc 4a41 f83c 9c6c cd3d 4428 e33c
00000160: b9fb 1e3e b693 96bd 9d3d 4ebe 8a4f 383e
00000170: a5e3 1d3c 8978 d2bd 711c 95bc abcc b43d
00000180: fcb5 7cbd f572 3c3e 5a18 1abe 9ff2 a7bd
00000190: 6fe2 253e 1e5d 853d 8357 943c 8909 433e
000001a0: eb33 cbbd e97a 0f3e 225c 25bd e3c5 8d3c
000001b0: 0840 c03d 3150 0a3d 0744 6c3c b730 04be
000001c0: f190 96bd 8277 e2bd 99cc ba3d 204b 903d
000001d0: 2c34 153e d72d 24be c9f8 b8bd 9479 a53d
000001e0: 9c96 ef3d 6c1e 713c 0a13 643d a54c c0bd
000001f0: a6ec 01ba 59db 09be dd36 053e 0cdd 303e
00000200: f712 94bd d19d b33d 2918 68bd fd7e 753c
00000210: 6c12 773e ec6b 8ebd 4826 1f3e 808e 2cbe
00000220: 7f87 f1bc e656 06be 43d5 2d3e 5123 18be
00000230: a671 e03c fa82 d0bd da61 913b e2d6 06be
00000240: 0679 c73d b70d 503e 0604 703c ed0f dabc
00000250: 6001 b83c 4c3a 66bc f939 28be b241 27bd
00000260: 5154 c4bc 0efc b6bd fe93 463e b84d e43d
00000270: 3057 763d 92aa 0c3e ee86 e83d baa7 d2bd
00000280: b452 343e 5aa2 f3bd 43ab ccbd 229c 473e
00000290: cb87 e43d 28ec 473e 34a1 413c 70d1 74bd
000002a0: 94e9 c33d 52b1 c0bd df5b 25be 0279 9ebc
000002b0: d36b 1d3e 6d21 12bd 37ea abbd fc77 1bbe
000002c0: 40d7 51be 32d1 063e fa6e 733d fd4c 7dbc
000002d0: 48c2 95bd 316b 48be 7f98 f93d 10a8 633e
000002e0: 8fe0 d93d 205a da3d e2dc 1dbe 0755 893e
000002f0: ce31 09bd 4c85 30bd 5175 d83d 6eef f63c
00000300: 5408 92bd 0832 d13b cc62 09bd 0a40 993d
00000310: ddf6 c73d 27c5 d7bd bfad 163e 45c2 673d
00000320: 0946 22be c128 29be 0312 7a39 c266 9cbd
00000330: 91cd a13d faf3 a6bb 0df4 4c3e 4094 37be
00000340: 7d40 56be bc53 f8bd 7bfc 14be 9fda 3c3d
00000350: 60ac 473e e8d7 b139 5415 d5bd 15d5 6c3d
00000360: 928a dcbd 517d 6a3d 3202 443e d2a8 33bd
00000370: 8523 d53d c5cb febd b72f 483d b8ff 913d
00000380: 15da 44be 0d6a a1bd 57fc 093e bafd 0d3e
00000390: e21c 49bd 390b d33d 59dc e5bd afa2 bcbd
000003a0: f620 8bbd ff96 133e 49f5 cc3d b1e8 acbd
000003b0: 59ab b2bd 74ed fd3d 4300 10be bf67 c93d
000003c0: 5ac0 f73d 5f68 f43d 7b88 c0bd 631f 37bd
000003d0: fafc 87bc 518e 863e a535 05be eead 30be
000003e0: 31f7 86bd ec76 0bbe 1bfd 27be dc68 41bd
000003f0: 2c4a e1bd 400a f5bc e143 4ab8 7a33 fc3d

conv1.bias f4 [16]
0.030980483 0.2032917 -0.020536937 0.15219131 -0.20383772 -0.08109482 -0.10697267 0.02755765
-0.13772008 0.15739746 -0.046842 -0.15025444 -0.06468359 0.03206062 0.13975541 0.13733126
00000000: c8ca fd3c b32b 503e 143d a8bc 0ad8 1b3e
00000010: d6ba 50be 0a15 a6bd 7d14 dbbd 95c0 e13c
00000020: 7e06 0dbe cd2c 213e 66dd 3fbd 4ddc 19be
00000030: d478 84bd ff51 033d 0b1c 0f3e 91a0 0c3e

conv2.weight f4 [32, 16, 3]
0.09877321 0.07770287 -0.061934285 -0.03716762 0.12741435 -0.00665966 0.021924598 0.107748926
-0.037888825 -0.08628627 -0.09129751 -0.12304965 -0.038353775 -0.14303261 0.0038312927 0.053474706
-0.10105019 -0.0121436855 -0.08503332 -0.02844937 -0.037482616 0.12736021 -0.017220397 -0.013857907
-0.12446213 -0.047377627 0.013165755 0.015938545 0.07071251 -0.05765343 -0.058009386 -0.13500017
-0.1636226 0.037568614 -0.07840595 -0.2029205 0.07461405 -0.043926217 0.116650715 -0.0025896633
0.056004938 0.085303016 -0.06995749 0.14334464 -0.07811006 -0.020249154 0.12116665 -0.017226648
-0.13793921 0.07028933 0.16419034 0.10586558 0.049026582 0.069613755 -0.10642569 -0.08262804
0.010375883 0.06851719 -0.14021997 0.008966209 -0.09922602 0.10743988 -0.046069182 -0.09526849
0.10925461 0.06416775 -0.083986364 0.017466385 -0.076312594 -0.062005863 0.08205385 0.15941109
-0.010914424 -0.05125281 -0.1142195 -0.10666372 -0.07866008 0.14287509 0.063295275 -0.026381265
0.1837824 -0.088425465 -0.057188675 -0.035372984 -0.022025576 -0.07153925 0.12053215 -0.024141565
0.041436642 0.09812051 -0.045345224 -0.0041947775 -0.050668795 -0.049806256 -0.10292844 0.11038908
-0.075161226 -0.019579586 0.020495825 0.03950994 0.043046523 -0.038965736 -0.11432587 -0.023160692
-0.12415924 -0.043193206 -0.08927557 0.10421614 0.057217058 0.014825153 0.13599712 0.11991886
-0.051472507 -0.030416764 0.013163344 0.007077586 0.033982787 0.027144387 -0.02239716 -0.010592841
-0.017860238 0.053015158 -0.027402036 0.013897162 -0.10398241 -0.0304131 -0.1132477 -0.13105202
-0.036483545 -0.08693015 -0.087312035 0.073470525 0.0007358308 -0.058431707 0.072322935 0.025140068
0.058375187 -0.0690688 -0.055141486 0.017194197 0.10877411 0.14258265 -0.048742607 0.09896832
-0.37708998 0.3072156 -0.008161829 -0.11063418 0.024112452 0.11514682 0.16433667 -0.20657304
0.12646212 -0.12928587 -0.076310046 0.07462759 0.0023636746 -0.08956768 -0.005953338 -0.15336667
-0.09264514 -0.07306133 -0.13176274 -0.03408365 -0.12106349 -0.07880224 -0.09932713 0.028477268
-0.0089468695 0.06188572 0.13995436 -0.11467786 -0.098098606 -0.017371507 0.08849712 -0.06853995
-0.073156886 -0.06509722 0.16911153 0.0578697 0.09688628 -0.10078333 0.13821808 0.08879009
0.064905 0.01581304 0.10883184 -0.04381491 0.12164134 -0.10385103 0.0900608 0.048131783
-0.03558588 -0.01385116 0.0026201545 -0.13046242 0.06802922 0.079127096 0.07528665 0.01300495
0.054366216 0.011132836 0.11437164 0.03939717 -0.00032547585 0.14299779 -0.08240205 0.13193856
0.049075473 -0.12481016 0.08841044 -0.0016529995 -0.026896099 -0.1517333 -0.022844829 -0.049114283
0.019048505 -0.07623861 -0.039284416 -0.027098807 0.065485016 0.12803537 0.008599258 -0.12260326
-0.013688838 -0.1589996 -0.09442475 0.038172375 0.05961635 0.05040908 0.05316014 -0.06921089
0.009765308 0.0020284427 -0.049417097 0.000869662 -0.07555903 -0.030643959 -0.11343281 -0.09599513
-0.16496076 0.0046828743 0.08944929 0.11876147 -0.08402766 -0.012886098 -0.11022083 0.06557652
0.07866164 0.001407 0.040863223 -0.02989629 0.09498886 0.08473472 -0.01515118 0.008447349
00000000: 9c49 ca3d af22 9f3d ceae 7dbd 133d 18bd
00000010: e878 023e 4739 dabb 379b b33c 78ab dc3d
00000020: 5031 1bbd dbb6 b0bd 30fa babd 7401 fcbd
00000030: d918 1dbd 2477 12be 6d16 7b3b 4b08 5b3d
00000040: 67f3 cebd 4ff6 46bc f325 aebd a70e e9bc
00000050: 5f87 19bd b76a 023e ca11 8dbc 460c 63bc
00000060: 00e6 febd 0b0f 42bd 2eb5 573c 8d91 823c
00000070: b8d1 903d 0126 6cbd 409b 6dbd 7c3d 0abe
00000080: af8c 27be 8ce1 193d 4c93 a0bd 64ca 4fbe
00000090: 40cf 983d faeb 33bd 92e6 ee3d 57b7 29bb
000000a0: 6f65 653d 59b3 ae3d df45 8fbd f0c8 123e
000000b0: 2bf8 9fbd 8ee1 a5bc 3826 f83d e61e 8dbc
000000c0: f03f 0dbe daf3 8f3d 8321 283e 0ed0 d83d
000000d0: 19d0 483d a891 8e3d b6f5 d9bd e438 a9bd
000000e0: 9cff 293c be52 8c3d d395 0fbe 02e7 123c
000000f0: 0337 cbbd 7109 dc3d 0ab3 3cbd 201c c3bd
00000100: e2c0 df3d 626a 833d 0b01 acbd aa15 8f3c
00000110: c749 9cbd dcf9 7dbd d90b a83d a93c 233e
00000120: 6ad2 32bc 77ee 51bd eaeb e9bd 8272 dabd
00000130: 8918 a1bd d94d 123e f4a0 813d 861d d8bc
00000140: 7431 3c3e 6918 b5bd ac3e 6abd 43e3 10bd
00000150: fb6e b4bc 2c83 92bd 8fd9 f63d 88c4 c5bc
00000160: 78b9 293d 68f3 c83d eabb 39bd 5874 89bb
00000170: 158a 4fbd a501 4cbd 25cc d2bd ac13 e23d
00000180: 21ee 99bd 5e65 a0bc dce6 a73c 2dd5 213d
00000190: 8d51 303d 899a 1fbd af23 eabd 7ebb bdbc
000001a0: 3347 febd 5ceb 30bd 1cd6 b6bd 466f d53d
000001b0: 6f5c 6a3d 33e5 723c d442 0b3e 0598 f53d
000001c0: d6d4 52bd 942c f9bc 11ab 573c 18eb e73b
000001d0: 8931 0b3d e85d de3c 407a b7bc 988d 2dbc
000001e0: a24f 92bc 6c26 593d 3c7a e0bc ecb0 633c
000001f0: bbf4 d4bd e524 f9bc 69ee e7bd 8032 06be
00000200: c56f 15bd 6f08 b2bd a7d0 b2bd b777 963d
00000210: c5e4 403a 1656 6fbd 0c1e 943d 8bf2 cd3c
00000220: d21a 6f3d f173 8dbd 0adc 61bd d8da 8c3c
00000230: f6c4 de3d 3001 123e 54a6 47bd e7af ca3d
00000240: f011 c1be 5d4b 9d3e 31b9 05bc 2c94 e2bd
00000250: 7a87 c53c 19d2 eb3d df47 283e e287 53be
00000260: 497f 013e 8463 04be 7148 9cbd 5ad6 983d
00000270: e1e7 1a3b 436f b7bd 3814 c3bb 270c 1dbe
00000280: bcbc bdbd 2ea1 95bd d0ec 06be 4c9b 0bbd
00000290: 23f0 f7bd 1263 a1bd 066c cbbd 2949 e93c
000002a0: e495 12bc e17b 7d3d 3250 0f3e 3adc eabd
000002b0: ece7 c8bd b14e 8ebc fa3d b53d ac5e 8cbd
000002c0: 47d3 95bd b151 85bd 932b 2d3e c708 6d3d
000002d0: 506c c63d 7e67 cebd 0a89 0d3e 94d7 b53d
000002e0: eaec 843d 598a 813c 3ae3 de3d 4377 33bd
000002f0: 181f f93d d9af d4bd cc71 b83d d525 453d
00000300: 80c2 11bd faef 62bc e6b6 2b3b f197 05be
00000310: e752 8b3d 630d a23d e32f 9a3d b712 553c
00000320: 1caf 5e3d 8066 363c ae3b ea3d ed5e 213d
00000330: a1a4 aab9 036e 123e 68c2 a8bd e71a 073e
00000340: 5d03 493d 789c ffbd 8810 b53d 76a9 d8ba
00000350: 3555 dcbc f95f 1bbe 1425 bbbc 0f2c 49bd
00000360: 9c0b 9c3c fd22 9cbd b2e8 20bd 51fe ddbc
00000370: 021d 863d b41b 033e e7e3 0c3c 6b17 fbbd
00000380: 2647 60bc cbd0 22be c361 c1bd a35a 1c3d
00000390: 4630 743d c079 4e3d 72be 593d 70be 8dbd
000003a0: acfe 1f3c 9fef 043b 9569 4abd 07fa 633a
000003b0: b1be 9abd 0a09 fbbc 764f e8bd 1899 c4bd
000003c0: 79eb 28be cc72 993b 3031 b73d 3739 f33d
000003d0: b216 acbd 3620 53bc 75bb e1bd fc4c 863d
000003e0: 5b19 a13d 166b b83a 3260 273d 10e9 f4bc
000003f0: 8589 c23d 6689 ad3d a83c 78bc c066 0a3c

conv2.bias f4 [32]
-0.04094887 -0.13417147 -0.17328481 0.13574222 0.016879393 -0.14472355 -0.17362313 0.001942284
0.08559731 -0.09502732 -0.06992981 0.01949491 -0.104348026 0.11194068 -0.08191708 -0.044653587
-0.09047848 -0.18356423 0.090418346 0.048930965 0.043572787 -0.027504468 -0.17472903 0.066027135
0.080178596 -0.030567143 0.04642491 0.048574246 -0.026232183 -0.15116663 0.07163473 0.11942009
00000000: 01ba 27bd 3f64 09be 9371 31be 0200 0b3e
00000010: a746 8a3c 6932 14be 43ca 31be 3d94 fe3a
00000020: a44d af3d af9d c2bd 5c37 8fbd cab3 9f3c
00000030: 6bb4 d5bd 2841 e53d 24c4 a7bd aee6 36bd
00000040: c84c b9bd 43f8 3bbe 412d b93d d66b 483d
00000050: 6179 323d 0d51 e1bc 2bec 32be 3c39 873d
00000060: ad34 a43d f267 fabc 0c28 3e3d caf5 463d
00000070: e0e4 d6bc 6dcb 1abe 3bb5 923d 8592 f43d

transformer.layers.0.self_attn.in_proj_weight f4 [96, 32]
0.22119623 0.1209202 0.069703035 -0.44743183 -0.026707007 -0.11218077 0.060614835 0.049396217
0.16649266 0.09740938 0.47501695 0.21252514 0.15021442 0.5132244 0.31325212 0.29538706
0.1793022 0.20775618 -0.07311241 0.09340402 0.17040737 0.21828346 0.042521313 -0.088987134
0.2009573 0.23044832 0.3227022 0.14258833 -0.03918382 0.021769272 0.288483 0.17670584
0.062496338 -0.14134675 -0.08796156 -0.1647271 0.04070013 -0.19208194 -0.14015584 -0.06127996
-0.0008321574 0.12847719 -0.15876503 -0.03799105 -0.27583617 -0.38104242 0.14215595 -0.012472948
-0.047769286 0.00816306 -0.03897459 0.12655418 0.23344953 0.06871583 0.00313241 -0.16464187
-0.22927277 -0.3384396 0.15882607 -0.1266087 0.14781146 0.044574704 -0.12168888 0.06113918
-0.24384089 0.083794974 0.11977476 0.17760608 -0.09117315 0.13214616 -0.15411827 0.04587632
-0.10253041 -0.036303446 -0.12947151 -0.19030568 -0.05238299 -0.20648137 -0.165793 0.23669104
-0.06615 -0.028380144 0.15094627 -0.0053335447 0.07384719 -0.12882854 -0.09894897 -0.14771707
-0.0929778 0.19540617 0.15712066 0.16512896 0.15958406 0.03246116 0.23114768 -0.03318764
-0.26987517 -0.19128975 0.20924133 0.8610051 -0.18692032 0.19963136 -0.008180146 0.0128870625
0.028167099 -0.10922076 -0.1662312 -0.000116300704 -0.068704545 -0.5970095 -0.113177374 -0.025213819
-0.07280365 -0.17333844 0.114166684 0.21067601 -0.15506795 -0.207892 -0.30438346 -0.17543352
0.1775578 -0.35476285 -0.16562845 0.009984201 0.11555468 0.14647748 -0.34466925 0.08291339
0.04700647 -0.11422598 -0.11110845 -0.0051460858 -0.03210527 0.0014008406 0.12392865 0.099277854
0.08746137 -0.15564711 0.21422721 0.06958896 0.10975745 0.10875024 0.038926218 0.17929718
0.02545205 0.01930616 -0.07872927 0.061136488 0.09464289 0.14610727 0.025974628 -0.043704916
0.27428845 0.028403724 0.04412314 0.31886527 -0.060462788 -0.038159173 0.2326473 0.21521783
-0.12116479 -0.12513566 0.033457037 -0.28772596 -0.07385497 -0.13166086 0.12388476 0.0198853
-0.15710682 -0.054977007 -0.21396689 0.07863959 -0.1193542 -0.15016817 -0.2079866 -0.13462488
-0.023282684 -0.045756407 0.21333787 -0.045650207 0.117283255 0.14287971 -0.13430364 -0.2196922
-0.21197736 0.08163047 -0.011125288 -0.2758902 -0.19909233 -0.36622488 0.044787776 -0.2083049
-0.22042683 -0.14836505 0.01682222 -0.1858584 -0.34120944 0.1420439 -0.18423644 -0.14363821
-0.078030296 -0.06572655 -0.05584756 -0.02237754 -0.33184168 -0.2564876 -0.05588873 -0.31330895
-0.27858308 -0.032681238 -0.044555392 -0.2453354 0.1968369 -0.023792617 -0.033233803 0.02537419
-0.31015456 -0.090671875 -0.21990082 -0.29794684 0.069887795 -0.07651843 -0.18531382 -0.17234212
-0.0646694 -0.07115505 0.09303378 -0.17857614 -0.22043149 -0.17943223 0.03425826 -0.3843024
-0.013664595 -0.07503766 -0.16620252 0.2096124 -0.06471899 -0.39406717 -0.008342852 -0.18324336
-0.11939576 -0.16121356 0.07838495 -0.35352242 0.12540923 0.21938962 -0.20303513 -0.14850168
-0.26057044 0.24692997 -0.32972878 -0.07852916 0.078976646 -0.15329975 0.056092322 -0.30107707
00000000: 4481 623e 03a5 f73d 77c0 8e3d c915 e5be
00000010: a7c8 dabc 08bf e5bd 4347 783d b053 4a3d
00000020: 0d7d 2a3e 927e c73d 6c35 f33e 31a0 593e
00000030: cfd1 193e ad62 033f 9562 a03e f93c 973e
00000040: ff9a 373e 09be 543e f6bb 95bd 9b4a bf3d
00000050: 457f 2e3e b385 5f3e d42a 2e3d e33e b6bd
00000060: c0c7 4d3e a5fa 6b3e 3939 a53e ad02 123e
00000070: 377f 20bd 7955 b23c 0bb4 933e 60f2 343e
00000080: 29fc 7f3d 34bd 10be 3125 b4bd 39ae 28be
00000090: 2eb5 263d 21b1 44be 0385 0fbe b200 7bbd
000000a0: 2325 5aba 868f 033e 4d93 22be 819c 1bbd
000000b0: 663a 8dbe fe17 c3be 5491 113e 565b 4cbc
000000c0: baa9 43bd 5bbe 053c d2a3 1fbd 6b97 013e
000000d0: 650d 6f3e e3ba 8c3d 1f49 4d3b e197 28be
000000e0: 7bc6 6abe f547 adbe 4da3 223e b6a5 01be
000000f0: e35b 173e f793 363d 0538 f9bd 146d 7a3d
00000100: 6db1 79be b39c ab3d 784c f53d 5ede 353e
00000110: fdb8 babd 5351 073e 2ed1 1dbe cfe8 3b3d
00000120: 77fb d1bd ecb2 14bd 2e94 04be 7edf 42be
00000130: 8c8f 56bd da6f 53be a4c5 29be 235f 723e
00000140: a779 87bd 7a7d e8bc a991 1a3e 04c5 aebb
00000150: 323d 973d a1eb 03be c2a5 cabd 2543 17be
00000160: 256b bebd 8e18 483e 3de4 203e 9117 293e
00000170: 016a 233e fef5 043d fab1 6c3e c3ef 07bd
00000180: 142d 8abe 76e1 43be 5c43 563e d56a 5c3f
00000190: 0a68 3fbe 2a6c 4c3e 0506 06bc 4224 533c
000001a0: b0be e63c 22af dfbd 8338 2abe 77e6 f3b8
000001b0: f8b4 8cbd 9dd5 18bf 8ac9 e7bd 368d cebc
000001c0: 141a 95bd a27f 31be 39d0 e93d 74bb 573e
000001d0: 22ca 1ebe a4e1 54be 26d8 9bbe d8a4 33be
000001e0: b6d1 353e 7aa3 b5be 819a 29be c694 233c
000001f0: efa7 ec3d 31fe 153e 7d78 b0be 7fce a93d
00000200: db89 403d 50ef e9bd d48c e3bd 7fa0 a8bb
00000210: d180 03bd 699c b73a 4ece fd3d 3052 cb3d
00000220: f21e b33d f561 1fbe 615e 5b3e a884 8e3d
00000230: 84c8 e03d 72b8 de3d 1971 1f3d ae99 373e
00000240: d180 d03c f427 9e3c d03c a1bd 416a 7a3d
00000250: 22d4 c13d 259d 153e bec8 d43c ed03 33bd
00000260: 896f 8c3e edae e83c 77ba 343d 4f42 a33e
00000270: d4a7 77bd cb4c 1cbd 183b 6e3e 1062 5c3e
00000280: 3f25 f8bd 9023 00be 3f0a 093d d150 93be
00000290: 4641 97bd 1bd2 06be 4bb7 fd3d 7fe6 a23c
000002a0: 9ce0 20be 922f 61bd 231a 5bbe cb0d a13d
000002b0: fa6f f4bd afc5 19be 70fa 54be 1bdb 09be
000002c0: 54bb bebc 126b 3bbd 3e75 5a3e b6fb 3abd
000002d0: 3432 f03d 0f4f 123e e586 09be fef6 60be
000002e0: 9810 59be e02d a73d d746 36bc 7b41 8dbe
000002f0: dcde 4bbe d481 bbbe 6373 373d e14d 55be
00000300: 92b7 61be 02ed 17be c1ce 893c aa51 3ebe
00000310: 01b3 aebe f573 113e 7aa8 3cbe e515 13be
00000320: 59ce 9fbd a49b 86bd 69c0 64bd 1a51 b7bc
00000330: 27e7 a9be 5852 83be 95eb 64bd 086a a0be
00000340: 71a2 8ebe c3dc 05bd b77f 36bd 3439 7bbe
00000350: 9d8f 493e bce8 c2bc 2b20 08bd 89dd cf3c
00000360: 94cc 9ebe 2db2 b9bd ae2d 61be 7d8c 98be
00000370: 5521 8f3d b2b5 9cbd e8c2 3dbe 747a 30be
00000380: 6471 84bd bdb9 91bd 7f88 be3d aadc 36be
00000390: cbb8 61be 15bd 37be 6452 0c3d 49c3 c4be
000003a0: 77e1 5fbc 58ad 99bd fe30 2abe a2a4 563e
000003b0: 648b 84bd 2cc3 c9be 75b0 08bc 26a4 3bbe
000003c0: c485 f4bd 2b15 25be 4a88 a03d e400 b5be
000003d0: 476b 003e aca7 603e 71e8 4fbe d310 18be
000003e0: 7d69 85be 36db 7c3e 36d2 a8be e5d3 a0bd
000003f0: 82be a13d 9cfa 1cbe 10c1 653d c626 9abe

transformer.layers.0.self_attn.in_proj_bias f4 [96]
0.16607568 -0.1534944 0.08022567 -0.06526635 0.099100664 -0.16967867 -0.12202806 -0.15668401
-0.2245623 -0.36490005 -0.21053454 -0.37833834 -0.11926963 0.05802949 0.011914439 0.09124222
0.17419477 0.17203027 -0.16025335 -0.18872733 -0.15861803 0.14344135 0.09671449 -0.102237344
-0.10874451 0.009162838 -0.13313441 0.23029028 -0.10130588 -0.13708098 0.04847321 -0.051798593
0.09427269 0.056188487 -0.028533528 -0.47434875 0.24201642 -0.33583987 -0.22355975 -0.30603102
-0.024046604 -0.1037761 0.0048512216 -0.31020874 0.03556114 -0.027382948 0.049383346 -0.07980768
0.23399949 0.12196343 -0.38543454 -0.361098 0.1381395 -0.11916236 -0.12400963 0.13543591
-0.053984314 -0.10696081 -0.20038071 0.39846456 -0.07209518 -0.36135557 0.019932205 -0.0065211784
-0.05979212 0.053727295 -0.0718873 0.063408785 -0.015880398 0.07523419 0.01176864 0.12517454
-0.11191575 -0.037673894 0.020472474 0.19994734 0.0977365 0.15085143 -0.10638367 0.050027665
-0.011827067 -0.11499316 -0.076885864 -0.07014368 -0.00031372067 0.040210176 -0.067141175 -0.066164605
0.012996281 -0.0050665494 0.15462247 -0.026714144 -0.009474324 0.035112195 -0.022153927 0.026808603
00000000: be0f 2a3e a32d 1dbe 5b4d a43d 5daa 85bd
00000010: 4af5 ca3d 3fc0 2dbe d9e9 f9bd c671 20be
00000020: a9f3 65be 2ed4 babe 5e96 57be 90b5 c1be
00000030: a343 f4bd 55b0 6d3d c734 433c 33dd ba3d
00000040: 1d60 323e b428 303e 7419 24be bd41 41be
00000050: c46c 22be 4ae2 123e 3f12 c63d d061 d1bd
00000060: 71b5 debd ba1f 163c 6354 08be 37d1 6b3e
00000070: 7579 cfbd f55e 0cbe d88b 463d c32a 54bd
00000080: 0a12 c13d e625 663d 25bf e9bc d7dd f2be
00000090: 27d3 773e 34f3 abbe d9ec 64be 19b0 9cbe
000000a0: 62fd c4bc 9088 d4bd fff6 9e3b aed3 9ebe
000000b0: 8fa8 113d 3452 e0bc 3146 4a3d 3572 a3bd
000000c0: 909d 6f3e f6c7 f93d ad57 c5be d6e1 b8be
000000d0: 7174 0d3e 650b f4bd c3f8 fdbd b6af 0a3e
000000e0: a81e 5dbd 450e dbbd 9a30 4dbe 8c03 cc3e
000000f0: a3a6 93bd 9903 b9be dd48 a33c 9caf d5bb
00000100: 95e8 74bd 2711 5c3d a639 93bd 77dc 813d
00000110: 9c17 82bc 6214 9a3d 41d1 403c c12d 003e
00000120: 1634 e5bd f14f 1abd e4b5 a73c ffbe 4c3e
00000130: 132a c83d cc78 1a3e aedf d9bd cfe9 4c3d
00000140: 50c6 41bc 8981 ebbd 5676 9dbd 7da7 8fbd
00000150: e07a a4b9 6db3 243d 5081 89bd 4f81 87bd
00000160: 5aee 543c 4c05 a6bb 5a55 1e3e 9fd7 dabc
00000170: 323a 1bbc ced1 0f3d 277c b5bc b79d db3c

transformer.layers.0.self_attn.out_proj.weight f4 [32, 32]
0.19422291 0.009143481 0.13488741 -0.29123944 0.07172961 0.025501665 -0.006794104 0.3320277
-0.27662143 0.15393159 0.03193457 -0.024688693 -0.015093799 -0.015531363 -0.0043959203 0.07909195
-0.0030598366 -0.0142088765 0.29691118 0.039412238 0.059194088 0.22127824 -0.14958704 -0.107925706
0.14272927 -0.011040245 0.04707947 -0.111099616 0.010446421 -0.09151013 -0.124659926 -0.14818074
0.4352187 -0.15901357 -0.16039866 0.5732986 0.25403753 0.3444757 0.25710946 -0.25444922
0.12397714 -0.31472662 -0.22451434 0.7775047 -0.2562876 0.1541706 0.57326823 0.52217156
-0.27360967 -0.23786832 -0.047901873 -0.28837287 0.19399719 0.01003955 0.3986715 -0.044324443
0.40783247 -0.48466197 -0.34571642 0.1837647 -0.17566012 -0.14986528 0.21603328 0.07639531
0.08535188 -0.0045380513 0.07205401 -0.4049363 0.07323329 -0.051565006 -0.04675202 0.34999812
-0.18439566 0.29387027 -0.03301632 -0.2198188 -0.063725814 0.018509198 -0.020993812 0.062675096
0.05045438 -0.0761714 0.19190343 0.08457178 0.011106744 0.16857415 -0.36226377 -0.13891996
0.17336673 0.054136384 -0.0118035255 -0.10873421 -0.12124439 0.022891901 -0.42165986 -0.045101758
0.5053597 -0.095397055 -0.42560366 0.3648292 0.5796086 0.5159651 0.30777067 -0.42260548
0.045222197 -0.57181555 -0.15133356 0.83742046 -0.39543858 0.43789217 0.43160796 0.3817855
-0.286205 -0.3526405 -0.380703 -0.14429966 0.2703583 0.23652354 0.43819728 -0.4310717
0.5047383 -0.29757094 -0.487054 0.35734153 -0.37296084 -0.069602855 0.2108673 -0.13241448
-0.08089123 0.07587538 0.002884141 0.29350972 -0.110194385 -0.113480926 0.009775145 -0.37277693
0.43163484 -0.114145696 -0.04888649 -0.07109601 0.021425497 -0.21550864 0.04782116 -0.075983636
0.024719192 0.06749065 -0.06760866 -0.032763187 -0.272226 -0.18711266 0.36782873 0.033329476
-0.0152343195 0.01676739 -0.0218314 0.01814999 0.010444852 0.040834285 0.051942963 -0.032384623
-0.24466918 -0.04262012 -0.0702564 0.45304224 -0.08923024 -0.043523848 -0.105479605 -0.19277008
0.36383113 -0.33960807 0.33764446 0.14888652 -0.09634141 -0.21287185 0.11261928 0.0029382827
0.038612287 0.111088976 -0.31739432 0.0012259785 -0.2561562 -0.5650085 0.36156982 0.09806411
-0.24021424 0.052108575 0.059709314 0.22309029 0.090362504 0.15942098 0.27289346 -0.04643015
0.115661316 -0.026952282 0.12228586 -0.5035558 0.0067973193 -0.21750362 0.08303609 0.17524283
0.009143696 0.39401639 -0.10311803 -0.32515845 0.03788019 -0.082249664 0.04775259 0.050582957
0.031826913 0.011679578 0.35178676 0.051952973 -0.13448012 0.106946886 -0.15862204 -0.088685654
0.10739034 0.0017835003 -0.04314516 -0.23524071 -0.12481259 -0.05275577 -0.44979572 -0.06827194
-0.2648553 0.4912795 -0.28172734 0.39092812 0.3080391 0.15351081 -0.38905758 0.0046772426
-0.71677125 -0.106319144 0.27348036 0.07138921 -0.08142675 0.0821623 0.3092846 0.13019706
-0.31305462 -0.09252084 -0.55691195 -0.14631516 0.17095871 0.011804107 -0.2296211 0.29682523
-0.1230967 0.10095838 -0.096274905 0.53142804 0.17254156 0.24410309 0.0863428 0.33686188
00000000: 5fe2 463e 8ace 153c ed1f 0a3e 561d 95be
00000010: f9e6 923d dee8 d03c 13a1 debb 89ff a93e
00000020: 53a1 8dbe 3ea0 1d3e d3cd 023d f13f cabc
00000030: fb4b 77bc 4277 7ebc a70b 90bb f6fa a13d
00000040: 8a87 48bb 59cc 68bc be04 983e ba6e 213d
00000050: 8075 723d c396 623e 582d 19be 2708 ddbd
00000060: 9f27 123e 25e2 34bc 67d6 403d 3288 e3bd
00000070: 7727 2b3c aa69 bbbd b44d ffbd b1bc 17be
00000080: fcd4 de3e 74d4 22be 8c3f 24be b2c3 123f
00000090: 3511 823e 1e5f b03e daa3 833e 2b47 82be
000000a0: bae7 fd3d d923 a1be 16e7 65be 8c0a 473f
000000b0: 2138 83be e6de 1d3e b5c1 123f 09ad 053f
000000c0: 9116 8cbe c193 73be c134 44bd 9ca5 93be
000000d0: 33a7 463e ed7c 243c ac1e cc3e 8c8d 35bd
000000e0: 6bcf d03e 9d25 f8be be01 b1be d02c 3c3e
000000f0: 3fe0 33be 4976 19be d437 5d3e 2575 9c3d
00000100: f7cc ae3d efb3 94bb 0e91 933d d053 cfbe
00000110: 56fb 953d d435 53bd 0c7f 3fbd f432 b33e
00000120: 37d2 3cbe 2a76 963e 1f3c 07bd 2e18 61be
00000130: ae82 82bd 9aa0 973c 37fb abbc cd5b 803d
00000140: 41a9 4e3d c0ff 9bbd 5582 443e f833 ad3d
00000150: 10f9 353c b49e 2c3e a37a b9be 0941 0ebe
00000160: 0c87 313e 1dbe 5d3d 9363 41bc 0bb0 debd
00000170: fb4e f8bd cc87 bb3c cde3 d7be 9fbc 38bd
00000180: 415f 013f 885f c3bd b9e8 d9be e5ca ba3e
00000190: 3b61 143f 4a16 043f 1e94 9d3e bf5f d8be
000001a0: e93a 393d 8162 12bf 2ff7 1abe 3061 563f
000001b0: ed76 cabe 6733 e03e b8fb dc3e 6479 c33e
000001c0: 7689 92be 4c8d b4be 81eb c2be 4ac3 13be
000001d0: 676c 8a3e 3a33 723e 655b e03e 6eb5 dcbe
000001e0: 8736 013f 385b 98be 245f f9be 78f5 b63e
000001f0: b9f4 bebe f18b 8ebd 99ed 573e a997 07be
00000200: 4daa a5bd 8d64 9b3d db03 3d3b e846 963e
00000210: 98ad e1bd b068 e8bd ee27 203c 9edc bebe
00000220: 3eff dc3e 38c5 e9bd 333d 48bd c99a 91bd
00000230: 8684 af3c 4cae 5cbe 1fe0 433d 4f9d 9bbd
00000240: e77f ca3c 8a38 8a3d 6976 8abd b132 06bd
00000250: 3561 8bbe 769a 3fbe 0c54 bc3e 7d84 083d
00000260: 5e99 79bc c45b 893c c4d7 b2bc 4aaf 943c
00000270: e220 2b3c da41 273d 25c2 543d bda5 04bd
00000280: 8f8a 7abe 6f92 2ebd 96e2 8fbd 27f5 e73e
00000290: 58be b6bd 1046 32bd b105 d8bd 8565 45be
000002a0: 1348 ba3e 1ce1 adbe bcdf ac3e b575 183e
000002b0: a54e c5bd 14fb 59be f0a4 e63d 3490 403b
000002c0: eb27 1e3d 9e82 e33d 8281 a2be 03b1 a03a
000002d0: e826 83be 66a4 10bf ae1f b93e d6d5 c83d
000002e0: b9fa 75be cd6f 553d c191 743d c871 643e
000002f0: fa0f b93d 413f 233e b1b8 8b3e 8a2d 3ebd
00000300: d7df ec3d 08cb dcbc 0271 fa3d 08e9 00bf
00000310: 0cbc de3b 45b9 5ebe d30e aa3d db72 333e
00000320: 71cf 153c 84bc c93e 8c2f d3bd 2b7b a6be
00000330: 4228 1b3d 8372 a8bd 3898 433d 1330 4f3d
00000340: f05c 023d b35b 3f3c 651d b43e a4cc 543d
00000350: 28b5 09be f806 db3d d16d 22be d3a0 b5bd
00000360: 77ef db3d 57c4 e93a fbb8 30bd f1e2 70be
00000370: be9d ffbd 6f16 58bd a04b e6be 29d2 8bbd
00000380: 1d9b 87be fd88 fb3e 913e 90be bb27 c83e
00000390: 4db7 9d3e f031 1d3e 8e32 c7be 8e43 993b
000003a0: 527e 37bf dabd d9bd 9e05 8c3e 8234 923d
000003b0: 11c3 a6bd b544 a83d 8d5a 9e3e 6152 053e
000003c0: b248 a0be 917b bdbd c891 0ebf a4d3 15be
000003d0: cd0f 2f3e 0366 413c cb21 6bbe 7af9 973e
000003e0: 1f1a fcbd 44c3 ce3d c72b c5bd ab0b 083f
000003f0: bcae 303e 29f6 793e 7ed4 b03d 2979 ac3e

transformer.layers.0.self_attn.out_proj.bias f4 [32]
0.07970751 0.1704466 0.063363664 0.6842029 -0.15438655 -0.037429888 0.15342313 -0.19930686
-0.14116031 0.11056604 0.21460506 -0.011417979 -0.04215027 -0.1353081 -0.07944812 -0.29955906
-0.08619219 0.46342725 0.07030371 -0.07761313 0.11515953 0.024660103 -0.16815837 0.016577994
0.0030597271 -0.05646979 -0.09876548 -0.30112484 0.06549938 -0.02967642 -0.056361325 -0.23804215
00000000: b13d a33d 8e89 2e3e cfc4 813d ec27 2f3f
00000010: 8217 1ebe 1550 19bd f41a 1d3e 1917 4cbe
00000020: 548c 10be 7370 e23d 6ec1 5b3e 7a12 3bbc
00000030: c3a5 2cbd 358e 0abe b2b5 a2bd ce5f 99be
00000040: 8885 b0bd 5646 ed3e 64fb 8f3d a2f3 9ebd
00000050: c2d8 eb3d fc03 ca3c b531 2cbe 93ce 873c
00000060: b485 483b de4c 67bd 8e45 cabd 092d 9abe
00000070: 8a24 863d f71b f3bc 22db 66bd 52c1 73be

transformer.layers.0.linear1.weight f4 [2048, 32]
0.2041503 0.0678254 -0.035193976 0.08257483 -0.040968873 0.21105191 -0.06328438 -0.19994943
-0.23428378 -0.06087149 -0.14056967 0.037004177 -0.2294431 -0.01777889 0.052317556 0.030830858
-0.06448665 -0.09146468 0.024193384 0.2343382 -0.045535177 0.13589789 -0.10361349 0.3688397
-0.06499903 -0.046346 0.0027709266 -0.1808324 0.052406676 0.06405649 0.051939115 -0.15434347
0.06730593 -0.05213427 -0.019491078 0.12366645 0.20288354 -0.058044452 0.020431813 0.115782335
0.10078695 0.003327382 0.014905406 0.0835438 -0.12603176 0.26994425 0.041115273 0.04937482
-0.1909592 -0.06260867 0.017066196 -0.034346674 0.09897395 0.027716603 0.25772244 0.07599305
-0.086187735 0.12146472 -0.1935549 -0.22930661 0.06900608 0.0987673 -0.12817943 0.03121197
0.02785558 -0.15403007 0.06938295 0.08820296 0.05007044 -0.055251762 0.11624289 -0.19832413
-0.06555557 -0.06859553 0.050122555 0.13204522 -0.22155136 -0.044412263 -0.23743024 -0.084466726
0.06380441 -0.10547792 -0.088599846 0.0110967085 0.029492497 -0.01585736 -0.05231055 -0.039558657
-0.222355 0.085787915 -0.19459674 0.04400419 0.020223942 -0.043141007 -0.1599842 0.11040477
0.17220935 0.05024035 0.14617608 -0.036654457 0.058603216 -0.12547587 -0.107875355 -0.09242377
-0.09636807 0.0661011 -0.00081554893 0.008555423 -0.10507196 0.029017262 -0.23616111 -0.19606973
-0.17369291 -0.15679707 -0.05599188 0.00024049975 0.028704017 0.10977664 0.16170664 0.08371506
-0.18467346 0.093488246 -0.013869395 -0.00022592273 0.041876074 0.014389062 -0.2140377 -0.15857884
0.09609333 0.038909588 0.12538801 -0.20204385 -0.1862698 -0.029985502 -0.022667611 0.021871606
-0.082390346 0.23056076 -0.21863168 0.055420786 -0.031232212 0.06999146 0.030156689 0.16165541
-0.16438945 -0.11508203 -0.07554483 -0.14894632 0.017831396 -0.21044429 0.31557348 -0.118351154
-0.0141602345 -0.010863388 -0.08048186 -0.034692187 0.014142225 0.15262884 0.020518284 0.098241165
0.17877671 -0.0007131488 0.108486205 0.005598196 0.10094247 0.014297381 0.11412695 0.10709022
-0.0038322126 0.024333986 0.037621602 0.029851807 0.054512937 -0.1071135 -0.06657633 -0.10536282
-0.099158004 0.002863042 -0.06470282 0.21179959 -0.010596871 0.027764976 0.15186265 0.011395983
-0.15908718 0.083532386 -0.08142756 -0.058436275 -0.023497142 -0.07575802 -0.19928196 -0.18541208
-0.028563382 0.09121892 0.20250916 0.11581312 -0.08694451 0.14910136 -0.036571078 -0.16508862
-0.18338715 0.036775053 -0.19781399 -0.0065184655 -0.036744665 -0.067038395 -0.19930336 -0.18113747
-0.09034522 -0.12769274 0.18523073 0.10465568 -0.04713233 -0.14797 0.19205046 0.08014956
-0.14650734 -0.05151312 0.09253002 -0.19694614 0.019912777 -0.07146896 -0.022963664 -0.098957375
-0.106541425 0.104784675 -0.10980617 -0.1752051 0.043328695 0.09438717 0.17258948 -0.19453584
-0.011422081 0.17346881 0.03834816 0.19101836 0.0040243845 0.17576179 0.08514122 0.037269447
0.076798566 -0.20615488 -0.04972884 0.039802864 -0.04875938 -0.028608397 0.007608583 0.007705614
-0.17256637 -0.07368073 0.057837088 -0.075054206 0.047172733 -0.14709388 -0.15850665 0.095909834
00000000: c70c 513e 0be8 8a3d 8f27 10bd fe1c a93d
00000010: face 27bd fe1d 583e 3e9b 81bd 8bbf 4cbe
00000020: 16e8 6fbe 6254 79bd 7ff1 0fbe b191 173d
00000030: 22f3 6abe 09a5 91bc ef4a 563d ff90 fc3c
00000040: 9411 84bd d651 bbbd 3431 c63c 5af6 6f3e
00000050: 1883 3abd d128 0b3e 4f33 d4bd 8fd8 bc3e
00000060: 361e 85bd 4ed5 3dbd 6f98 353b 212c 39be
00000070: 62a8 563d 0d30 833d 1cbe 543d 370c 1ebe
00000080: b1d7 893d bf8a 55bd c1ab 9fbc d644 fd3d
00000090: b4c0 4f3e 05c0 6dbd 9e60 a73c 4a1f ed3d
000000a0: 6369 ce3d 3510 5a3b ce35 743c 0319 ab3d
000000b0: 780e 01be 2236 8a3e 7d68 283d 403d 4a3d
000000c0: cf8a 43be f938 80bd 68ce 8b3c 19af 0cbd
000000d0: dbb2 ca3d ee0d e33c 32f4 833e 3fa2 9b3d
000000e0: 3283 b0bd 7fc2 f83d 4133 46be 5acf 6abe
000000f0: 0f53 8d3d 8346 ca3d 7841 03be 3fb0 ff3c
00000100: 6331 e43c 0fba 1dbe a618 8e3d c1a3 b43d
00000110: a916 4d3d ac4f 62bd c110 ee3d 7b15 4bbe
00000120: 0042 86bd d07b 8cbd 4f4d 4d3d dd36 073e
00000130: 5cde 62be a2e9 35bd ea20 73be e4fc acbd
00000140: e3ab 823d cf04 d8bd d673 b5bd f8ce 353c
00000150: 409a f13c 4be7 81bc 9643 56bd 4208 22bd
00000160: 07b1 63be 93b1 af3d 5e44 47be bd3d 343d
00000170: aeac a53c a0b4 30bd e6d2 23be e51b e23d
00000180: a657 303e d3c8 4d3d 2faf 153e fc22 16bd
00000190: ed09 703d bf7c 00be c1ed dcbd ac48 bdbd
000001a0: 9f5c c5bd 0360 873d 90ca 55ba 0b2c 0c3c
000001b0: f82f d7bd 9cb5 ed3c 38d4 71be 81c6 48be
000001c0: 8edc 31be 698f 20be be57 65bd a92e 7c39
000001d0: b024 eb3c 93d2 e03d 6d96 253e cd72 ab3d
000001e0: 0a1b 3dbe c476 bf3d 753c 63bc ace5 6cb9
000001f0: 3f86 2b3d 1ac0 6b3c b32c 5bbe 7e62 22be
00000200: 94cc c43d a95f 1f3d b765 003e 95e4 4ebe
00000210: 83bd 3ebe 28a4 f5bc 6db1 b9bc 152c b33c
00000220: 45bc a8bd 1f18 6c3e fce0 5fbe e800 633d
00000230: b2da ffbc af57 8f3d 290b f73c ff88 253e
00000240: b555 28be 21b0 ebbd 3fb7 9abd 6285 18be
00000250: 2613 923c b57e 57be d992 a13e 1762 f2bd
00000260: 5400 68bc 5afc 31bc acd3 a4bd 6519 0ebd
00000270: cab4 673c bc4a 1c3e f615 a83c aa32 c93d
00000280: 3e11 373e 9bf2 3aba 042e de3d 1271 b73b
00000290: edba ce3d 903f 6a3c 64bb e93d 1e52 db3d
000002a0: dc25 7bbb 1158 c73c 1c19 1a3d c78b f43c
000002b0: f548 5f3d 535e dbbd 2c59 88bd 76c8 d7bd
000002c0: 5a13 cbbd e0a1 3b3b e982 84bd fee1 583e
000002d0: 809e 2dbc 6073 e33c e281 1b3e 38b6 3a3c
000002e0: c0e7 22be 0713 ab3d 7ec3 a6bd e05a 6fbd
000002f0: 147d c0bc 0527 9bbd 9210 4cbe aadc 3dbe
00000300: c1fd e9bc fcd0 ba3d 905e 4f3e 6e2f ed3d
00000310: f70f b2bd 07ae 183e 8ecb 15bd fe0c 29be
00000320: d7c9 3bbe 70a1 163d c08f 4abe da98 d5bb
00000330: 9381 16bd 6d4b 89bd 2e16 4cbe 1a7c 39be
00000340: ea06 b9bd e3c1 02be 20ad 3d3e b855 d63d
00000350: d40d 41bd 7385 17be e0a8 443e 7425 a43d
00000360: 0506 16be 6cff 52bd 6180 bd3d 40ac 49be
00000370: 1f20 a33c 515e 92bd 4b1e bcbc 2aaa cabd
00000380: 6432 dabd 5999 d63d 0fe2 e0bd f768 33be
00000390: 6e79 313d 104e c13d 4cbb 303e 6734 47be
000003a0: ae23 3bbc cfa1 313e f612 1d3d 519a 433e
000003b0: fcde 833b e6fa 333e 855e ae3d d9a7 183d
000003c0: 9148 9d3d 441a 53be 78b0 4bbd 5408 233d
000003d0: eab7 47bd 285c eabc 6c51 f93b 607f fc3b
000003e0: 3db5 30be ece5 96bd 95e6 6c3d 05b6 99bd
000003f0: 3238 413d c79f 16be 914f 22be 606c c43d

transformer.layers.0.linear1.bias f4 [2048]
0.004365193 -0.10271819 0.10479427 0.04389758 -0.045654785 -0.21899065 0.086804785 -0.16964887
-0.18445146 -0.0150860185 -0.022973377 0.013837894 -0.1942609 0.013168205 -0.23251268 -0.006646592
-0.15924104 -0.16343902 -0.019974507 -0.09139111 0.034782276 -0.19019946 -0.2212601 0.0067269476
-0.1697491 -0.028233489 -0.045098703 0.0093889665 0.023600185 -0.1727189 -0.22313628 0.020980218
-0.09131102 -0.24675444 -0.1919003 -0.16892892 -0.23158075 -0.025841685 -0.09643284 0.02420661
-0.13793267 -0.11600035 -0.012406642 0.104557924 0.08139184 -0.12541609 -0.13781686 -0.0847015
-0.20330532 -0.1000696 -0.087246776 -0.13145804 -0.1645434 0.04221801 -0.14907423 -0.10982225
-0.0025525417 -0.12996502 -0.2291318 -0.031338956 -0.16620494 0.04511622 -0.15439221 -0.11772675
0.13705452 0.055103187 -0.20935865 -0.076400176 0.07720606 -0.16848092 -0.21995886 0.04110536
-0.24192086 -0.15902132 -0.09895344 -0.21687931 -0.07583748 0.060495965 0.09186822 0.028324293
0.0319665 -0.18523312 -0.09568435 0.03947813 0.022983978 -0.20779257 -0.007499901 -0.07057806
-0.1045904 -0.17518528 -0.22427192 -0.23398788 -0.11866068 -0.031991903 -0.09388185 -0.1077396
-0.0054568434 -0.08565294 -0.1282149 -0.015638849 -0.12291778 0.012071431 -0.175419 -0.19854158
0.0664197 0.04802352 0.066447645 -0.21189694 0.061746497 -0.11681239 -0.023757242 -0.08750015
0.085542776 -0.024508469 0.09917081 -0.008191481 0.041274697 -0.04258463 -0.29115394 -0.010151371
0.09280509 -0.14602286 -0.1735488 -0.21513607 0.030793369 -0.0112374555 -0.22577786 0.08392257
-0.10839353 -0.2000342 -0.101168215 -0.052779384 0.037041795 -0.2115233 -0.1460415 -0.021125676
-0.11979393 -0.10621428 -0.050006114 0.06503937 -0.15508693 0.00737536 -0.13862413 -0.23925659
0.026513554 -0.06439285 -0.14079621 0.1039804 0.03311445 0.08994972 0.064366505 0.057103503
-0.17221025 -0.032557786 0.084459856 -0.2477479 -0.06893717 -0.19812575 -0.15281145 -0.18888856
-0.17548235 -0.12821557 -0.2256986 -0.07000514 -0.024228036 -0.18599844 0.043996472 -0.07654579
-0.06071574 0.033750955 -0.034547493 0.06990008 -0.048947766 -0.10333132 -0.0543312 -0.21596472
-0.11940756 -0.13959579 -0.05991461 -0.21759564 -0.12507114 -0.20578955 0.028801674 -0.012542691
0.10675743 -0.22349294 0.021382287 -0.05317506 -0.1361304 -0.14657572 -0.11170048 -0.19657165
0.09782263 -0.095519036 0.12743525 -0.12562798 -0.1788577 -0.08895091 -0.17008607 -0.16526273
-0.10694705 -0.24292627 -0.04746817 0.09482481 -0.1699552 0.02985258 -0.18817107 -0.15431574
-0.20091455 0.013094503 0.047745585 -0.063271075 -0.066408776 -0.21682703 0.02609617 0.091509916
0.003271427 -0.08135855 -0.15367515 -0.23597637 -0.24373592 -0.038771234 -0.042515405 -0.070097655
0.17242481 -0.042664032 -0.1375215 -0.25911823 -0.15020467 0.027706727 0.05381439 0.08672897
-0.16769828 0.060898356 0.05153564 -0.05340416 -0.116108574 0.08754948 -0.008944659 0.042098735
-0.20798555 -0.17521732 0.106850214 -0.013550878 0.14933619 0.10314765 -0.060318727 -0.07462459
-0.11461284 -0.045445576 0.019563166 0.044140436 -0.16914427 -0.14968559 -0.1089267 0.013051626
00000000: e509 8f3b ea5d d2bd 619e d63d f3cd 333d
00000010: 8300 3bbd 163f 60be b5c6 b13d 6fb8 2dbe
00000020: d8e0 3cbe 592b 77bc aa32 bcbc 56b8 623c
00000030: 54ec 46be 74bf 573c ce17 6ebe a8cb d9bb
00000040: 1510 23be 8f5c 27be 94a1 a3bc 432b bbbd
00000050: dc77 0e3d a6c3 42be 0292 62be ba6d dc3b
00000060: b5d2 2dbe eb49 e7bc 6bb9 38bd 2ed4 193c
00000070: 2d55 c13c 39dd 30be d67d 64be b5de ab3c
00000080: 4601 bbbd 32ad 7cbe 8381 44be b4fb 2cbe
00000090: 8123 6dbe f1b1 d3bc 957e c5bd f14c c63c
000000a0: 393e 0dbe 9791 edbd 3a45 4bbc 7722 d63d
000000b0: c4b0 a63d 136d 00be dd1f 0dbe fb77 adbd
000000c0: 452f 50be 4af1 ccbd 70ae b2bd f09c 06be
000000d0: 117e 28be cbec 2c3d eaa6 18be 7dea e0bd
000000e0: 8b48 27bb 8d15 05be 87a1 6abe 475d 00bd
000000f0: a131 2abe c9cb 383d fe18 1ebe b91a f1bd
00000100: 0558 0c3e e1b3 613d 1d62 56be b277 9cbd
00000110: 361e 9e3d 4386 2cbe e53c 61be 185e 283d
00000120: 1aba 77be 7cd6 22be 1aa8 cabd 9c15 5ebe
00000130: ae50 9bbd 9eca 773d 6825 bc3d 5908 e83c
00000140: 4eef 023d c0ad 3dbe 28f6 c3bd d2b3 213d
00000150: e548 bc3c 93c7 54be bbc1 f5bb 3b8b 90bd
00000160: 7e33 d6bd c563 33be 8aa7 65be 859a 6fbe
00000170: 5f04 f3bd f109 03bd 2145 c0bd 94a6 dcbd
00000180: 52cf b2bb cf6a afbd c44a 03be 0b1d 80bc
00000190: 51bc fbbd 40c7 453c 0aa1 33be 7c4e 4bbe
000001a0: 0d07 883d 4fb4 443d b415 883d 83fb 58be
000001b0: e5e9 7c3d 563b efbd 8c9e c2bc 4733 b3bd
000001c0: 0d31 af3d fcc5 c8bc 111a cb3d 9035 06bc
000001d0: a80f 293d 396d 2ebd 2112 95be f051 26bc
000001e0: 9810 be3d 0487 15be c7b6 31be a14c 5cbe
000001f0: 6042 fc3c 4e1d 38bc 5032 67be 99df ab3d
00000200: 6dfd ddbd c4d5 4cbe 4831 cfbd 322f 58bd
00000210: 23b9 173d 9099 58be e78b 15be c10f adbc
00000220: 8556 f5bd df86 d9bd 36d3 4cbd 5c33 853d
00000230: 1ccf 1ebe 01ad f13b 7cf3 0dbe aeff 74be
00000240: f432 d93c 66e0 83bd e22c 10be adf3 d43d
00000250: 04a3 073d 8f37 b83d 96d2 833d 5de5 693d
00000260: e257 30be 505b 05bd 4af9 ac3d a0b1 7dbe
00000270: ee2e 8dbd 7ae1 4abe 9b7a 1cbe 016c 41be
00000280: a5b1 33be f14a 03be 891d 67be db5e 8fbd
00000290: e079 c6bc 6076 3ebe a535 343d 0ac4 9cbd
000002a0: 11b1 78bd 713e 0a3d ac81 0dbd c627 8f3d
000002b0: 747d 48bd 5f9f d3bd 648a 5ebd db25 5dbe
000002c0: f38b f4bd 33f2 0ebe 0669 75bd 64d1 5ebe
000002d0: a612 00be 7fba 52be 7df1 eb3c dc7f 4dbc
000002e0: a4a3 da3d 55db 64be e829 af3c 17ce 59bd
000002f0: c465 0bbe f217 16be 39c3 e4bd 144a 49be
00000300: 3b57 c83d 7c9f c3bd 637e 023e 9fa4 00be
00000310: 7926 37be e52b b6bd 0b2b 2ebe a23a 29be
00000320: 0e07 dbbd aac1 78be fc6d 42bd 8333 c23d
00000330: bc08 2ebe 668d f43c ebaf 40be f204 1ebe
00000340: 8bbc 4dbe 548a 563c e090 433d 4494 81bd
00000350: 5301 88bd e807 5ebe a3c7 d53c 8d69 bb3d
00000360: 7065 563b 509f a6bd 055d 1dbe caa3 71be
00000370: e995 79be 96ce 1ebd a224 2ebd 5c8f 8fbd
00000380: 2190 303e 7bc0 2ebd 70d2 0cbe 25ab 84be
00000390: 41cf 19be 38f9 e23c 7a6c 5c3d f59e b13d
000003a0: 19b9 2bbe 8e70 793d 0917 533d 52be 5abd
000003b0: 55ca edbd 244d b33d 9e8c 12bc b96f 2c3d
000003c0: 2afa 54be 2b6c 33be 49d4 da3d 8004 5ebc
000003d0: 96eb 183e 133f d33d c510 77bd c7d4 98bd
000003e0: 23ba eabd 2425 3abd ef42 a03c 9acc 343d
000003f0: 2834 2dbe 2e47 19be f614 dfbd 7dd6 553c

transformer.layers.0.linear2.weight f4 [32, 2048]
-0.12462893 -0.00090712873 0.021000907 0.0034129012 -0.03438154 0.015214581 0.044597574 0.003937657
0.008893156 0.01898393 0.056336284 -0.07059543 0.0193572 0.13097462 0.004581186 0.015991375
-0.016459584 -0.09113456 -0.00504705 -0.039478216 -0.050717935 -0.034553394 -0.0652611 -0.027152164
0.05524929 -0.028716588 -0.027364032 0.028258597 0.0038473431 0.0063383887 0.03630541 0.009904562
-0.017489064 -0.060561314 -0.023966756 -0.017372835 -0.06368445 -0.07559531 0.029059881 -0.014555302
0.08976564 -0.057875328 -0.03603161 -0.0071547474 -0.014471665 -0.0032374857 -0.03065362 -0.019880809
-0.046574682 0.019975003 0.03186823 -0.060909487 -0.002057156 -0.085244514 0.033240393 0.007960432
0.03145617 0.00026648253 -0.016901057 0.04202755 0.043803144 0.07694627 0.052565336 -0.0027356874
-0.100878514 -0.011310901 0.031742256 0.14698985 -0.019071564 0.037094317 -0.023009075 0.031953488
0.027376775 -0.0029294908 -0.036332175 0.0063263057 -0.007538007 -0.07581688 -0.058676355 0.05583611
-0.010641664 -0.040235966 -0.0021787272 0.04909085 0.04069061 0.021329682 -0.088503316 -0.020003378
-0.021845495 0.029589407 0.0018266854 -0.05829417 -0.037257373 -0.048796322 -0.013262911 -0.025502084
0.011069275 -0.10118124 0.07433151 0.007772672 -0.022593308 -0.058190998 -0.02504437 0.018256199
-0.033586293 -0.023678197 0.059108187 -0.018344773 0.018308332 0.008584331 -0.05957114 -0.019573871
0.014599892 0.016708476 -0.022086592 0.10557986 0.01306424 -0.008746099 -0.08308985 -0.0123039475
0.0055537536 -0.028020423 -0.04619853 -0.008925597 0.009421795 -0.0139655555 -0.0008029603 -0.044525694
-0.03493708 -0.0008484539 -0.048976094 0.037151184 0.015105129 -0.027513472 -0.06524591 0.020383028
0.006196805 0.07104017 0.0046862117 -0.042086266 -0.040539533 -0.01925503 -0.054239932 -0.029544527
-0.025491625 0.0236764 -0.012397523 -0.00392557 -0.025839638 -0.0356764 -0.03499748 0.042545516
-0.13503726 -0.047355223 0.0012086941 0.031702533 0.02543007 -0.02850626 -0.02133629 0.011682326
0.022117518 -0.0036283107 0.034480963 0.014912049 0.12608664 -0.030262996 0.03407248 -0.021671923
-0.065427154 -0.06259928 -0.037191678 -0.012939763 -0.07860012 -0.026833322 0.002588798 -0.0073022274
-0.041499566 -0.027298316 -0.05943517 -0.027734717 -0.05403375 -0.02729558 -0.036800757 0.01182434
0.0037532013 0.04186489 -0.0020496605 0.03377551 -0.0025817882 -0.030802824 0.032379784 -0.08882579
0.016100204 0.012586445 -0.0104170395 -0.033224896 -0.025332745 -0.0016410628 -0.019380156 0.021094944
-0.035140257 -0.019425016 -0.05408168 0.0341512 -0.074208125 0.048097603 -0.050408658 0.08014656
0.043070316 0.040385425 0.10924923 -0.0015178546 0.040317815 -0.03597607 -0.0020641428 -0.031748965
0.06816749 -0.017949672 -0.0028200033 -0.03598879 0.047995105 -0.1388285 -0.0033551864 -0.029536093
-0.08805453 0.06417007 0.12217754 -0.028078848 -0.038035993 -0.006238724 0.020714248 -0.03678805
0.015254326 -0.07474478 -0.0003300456 0.07251086 -0.03632644 -0.010521677 0.027933514 -0.0020058893
-0.02869358 -0.035116665 0.06029218 0.041427214 0.046497963 -0.01054572 0.052502554 0.020615127
-0.010758226 -0.03525672 0.03698748 -0.030473122 -0.031757217 0.007630477 -0.061876208 -0.05259127
00000000: 743d ffbd 61cc 6dba 180a ac3c fbaa 5f3b
00000010: a8d3 0cbd 9446 793c f2ab 363d 7607 813b
00000020: 9ab4 113c 3084 9b3c e0c0 663d 5694 90bd
00000030: fe92 9e3c 361e 063e c61d 963b 5800 833c
00000040: 40d6 86bc c2a4 babd b961 a5bb e9b3 21bd
00000050: 9cbd 4fbd dc87 0dbd 9da7 85bd 376e debc
00000060: 144d 623d 0d3f ebbc 892a e0bc 937e e73c
00000070: b523 7c3b 42b2 cf3b fbb4 143d be46 223c
00000080: 3a45 8fbc 240f 78bd ee55 c4bc 7a51 8ebc
00000090: fe6c 82bd b7d1 9abd fd0e ee3c 5d79 6ebc
000000a0: 0cd7 b73d ae0e 6dbd e295 13bd 5f72 eabb
000000b0: 901a 6dbc ff2b 54bb 4d1d fbbc 14dd a2bc
000000c0: 18c5 3ebd 9ea2 a33c 4388 023d 3a7c 79bd
000000d0: 5ad1 06bb ad94 aebd 1427 083d 796c 023c
000000e0: 2fd8 003d aeb6 8b39 1674 8abc 1525 2c3d
000000f0: ed6a 333d 0296 9d3d c04e 573d 3849 33bb
00000100: 6599 cebd 5b51 39bc 2b04 023d 8284 163e
00000110: f83b 9cbc 36f0 173d 877d bcbc a9e1 023d
00000120: 4245 e03c b3fc 3fbb 0cd1 14bd e64c cf3b
00000130: 6301 f7bb e145 9bbd 9e56 70bd 68b4 643d
00000140: 605a 2ebc 78ce 24bd fac8 0ebb 7d13 493d
00000150: 32ab 263d 96bb ae3c 3a41 b5bd 20de a3bc
00000160: 53f5 b2bc 7c65 f23c 646d ef3a dec5 6ebd
00000170: 309b 18bd a7de 47bd ae4c 59bc bfe9 d0bc
00000180: e85b 353c 1c38 cfbd 1e3b 983d e6b1 fe3b
00000190: 9a15 b9bc af59 6ebd da29 cdbc 068e 953c
000001a0: c891 09bd c7f8 c1bc 6d1b 723d c747 96bc
000001b0: 5bfb 953c 4ba5 0c3c de00 74bd 6259 a0bc
000001c0: 6334 6f3c 37e0 883c f1ee b4bc 413a d83d
000001d0: 650b 563c cc4b 0fbc 032b aabd 7f96 49bc
000001e0: 43fc b53b 168b e5bc ab3a 3dbd ab3c 12bc
000001f0: df5d 1a3c c9cf 64bc c17d 52ba 9360 36bd
00000200: 2f1a 0fbd c76a 5eba 289b 48bd d72b 183d
00000210: 817b 773c ef63 e1bc a69f 85bd 4ffa a63c
00000220: 910e cb3b 827d 913d cb8e 993b a662 2cbd
00000230: c80c 26bd babc 9dbc b12a 5ebd 5d07 f2bc
00000240: d0d3 d0bc 02f5 c13c fb1e 4bbc 11a2 80bb
00000250: a6ad d3bc 6b21 12bd 8559 0fbd 3544 2e3d
00000260: 3547 0abe 8df7 41bd 0b6d 9e3a 84da 013d
00000270: b952 d03c f685 e9bc 71c9 aebc 3a67 3f3c
00000280: cc2f b53c f4c8 6dbb e93b 0d3d ab51 743c
00000290: db1c 013e 1aea f7bc 968f 0b3d 5189 b1bc
000002a0: acfe 85bd 0d34 80bd 4d56 18bd 4d01 54bc
000002b0: 1af9 a0bd 8ed1 dbbc d3a8 293b 8647 efbb
000002c0: 73fb 29bd b8a0 dfbc 4b72 73bd eb33 e3bc
000002d0: 7e52 5dbd fb9a dfbc 64bc 16bd e0ba 413c
000002e0: 45f8 753b 857a 2b3d 9953 06bb 3058 0a3d
000002f0: 3833 29bb 3456 fcbc aaa0 043d 4cea b5bd
00000300: 93e4 833c 6037 4e3c 3bac 2abc d416 08bd
00000310: 9e86 cfbc ee18 d7ba 22c3 9ebc 4ecf ac3c
00000320: 3bef 0fbd 3621 9fbc c084 5dbd 21e2 0b3d
00000330: 6efa 97bd fe01 453d 4f79 4ebd e123 a43d
00000340: 806a 303d 306b 253d 0fbe df3d c0f2 c6ba
00000350: 4b24 253d a55b 13bd 9246 07bb 340b 02bd
00000360: 669b 8b3d 310b 93bc cecf 38bb fb68 13bd
00000370: 8496 443d 0f29 0ebe b0e2 5bbb adf5 f1bc
00000380: ef55 b4bd 996b 833d 3838 fa3d 9d05 e6bc
00000390: a1cb 1bbd 366e ccbb edb0 a93c 11af 16bd
000003a0: 48ed 793c cb13 99bd f809 adb9 9380 943d
000003b0: 08cb 14bd 1d63 2cbc d3d4 e43c 3d75 03bb
000003c0: cc0e ebbc 7ed6 0fbd eff4 763d 95af 293d
000003d0: a674 3e3d f5c7 2cbc eb0c 573d 0ee1 a83c
000003e0: 4543 30bc 5a69 10bd 2f80 173d c5a2 f9bc
000003f0: db13 02bd 1509 fa3b e871 7dbd f269 57bd

transformer.layers.0.linear2.bias f4 [32]
0.10882328 -0.19255911 -0.008336472 -0.15686524 0.16039631 0.041121725 0.020218229 -0.15599866
-0.18665037 0.123925254 -0.18762876 -0.034488738 -0.17403115 0.23976925 -0.051119383 -0.078688465
-0.1463904 0.1621974 0.07249633 0.08464042 -0.05166515 0.06397328 0.101633534 0.106016345
-0.1692944 -0.008137385 -0.17780636 -0.102094404 -4.858724e-05 -0.051595338 -0.21954758 -0.13627242
00000000: bdde de3d 372e 45be b395 08bc 48a1 20be
00000010: ee3e 243e 416f 283d b3a0 a53c 1dbe 1fbe
00000020: 4621 3fbe 86cc fd3d c121 40be 1044 0dbd
00000030: 3935 32be 1286 753e 8f62 51bd 6b27 a1bd
00000040: 5de7 15be 1317 263e f578 943d f557 ad3d
00000050: d69e 53bd 6c04 833d 3e25 d03d 191f d93d
00000060: 835b 2dbe ab52 05bc df12 36be df16 d1bd
00000070: 27ca 4bb8 a255 53bd 15d1 60be ff8a 0bbe

transformer.layers.0.norm1.weight f4 [32]
1.2749562 -0.10810547 1.3948828 0.04768592 0.90513784 1.4790232 1.4733489 -0.046938423
-0.16729043 1.2746382 -0.00015625141 1.3575819 -0.13598411 0.58161134 0.23128982 -0.018480273
0.17485811 0.6846097 1.3282564 1.4566654 1.5197576 1.8174307 1.0692772 1.5499532
-0.0019829543 1.2949795 0.3697766 0.16952793 1.4543301 0.27480116 -0.14249876 -0.10343031
00000000: c431 a33f 6766 ddbd 858b b23f 5052 433d
00000010: 1db7 673f a250 bd3f b296 bc3f 8142 40bd
00000020: 2f4e 2bbe 5827 a33f 6bd7 23b9 3ec5 ad3f
00000030: 6b3f 0bbe 7be4 143f 3dd7 6c3e f163 97bc
00000040: 010e 333e 9542 2f3f 4e04 aa3f 0374 ba3f
00000050: 6b87 c23f 92a1 e83f 13de 883f de64 c63f
00000060: 74f4 01bb e3c1 a53f 5c53 bd3e bb98 2d3e
00000070: 7d27 ba3f bdb2 8c3e 32eb 11be 45d3 d3bd
