models/model_epoch_8.pth (torch, 581156 bytes, 18 tensors)

conv1.weight f4 [16, 8, 3]
0	0x3dc75b25	0.09734181
1	0xbe13bc6b	-0.14427345
2	0x3b2b9660	0.002618216
3	0x3e54f567	0.20796739
4	0x3d3a65cc	0.045507237
5	0xbd4b42ec	-0.04962437
6	0x3e281e48	0.16417801
7	0xbd99e6b4	-0.07514706
8	0x3e46c8d4	0.19412547
9	0x3d0003a6	0.03125348
10	0x3e31e483	0.17372327
11	0xbe054dfd	-0.13018031
12	0xbe306d08	-0.17229092
13	0x3dbeaa99	0.09309883
14	0xbd72dfb2	-0.059295364
15	0xbe184ca8	-0.14872992
16	0x3e302f17	0.17205463
17	0xbd35f433	-0.04442234
18	0xbe363524	-0.17793709
19	0x3e350478	0.17677486
20	0x3dd0ed4f	0.10201513
21	0x3da5cf80	0.08096218
22	0xbd920ed2	-0.07131733
23	0x3e1423e4	0.14466816
24	0x3e4dca46	0.20096692
25	0x3e44dd90	0.19225144
26	0x3d74cc9e	0.05976545
27	0x3df238bf	0.1182723
28	0xbdfa554d	-0.12223301
29	0x3da2aff0	0.07943714
30	0x3dd8cadf	0.105855696
31	0xbe03d91f	-0.12875794
32	0x3d80606f	0.06268393
33	0xbd3757d3	-0.04476149
34	0x3e1f4fc5	0.15557773
35	0xbe05433d	-0.1301393
36	0x3ddcea4b	0.10786875
37	0x3d91ec82	0.071251884
38	0xbc86aede	-0.016440805
39	0xbdf2f9e9	-0.11864073
40	0x3bf9f0c2	0.0076275775
41	0xbe1e876c	-0.15481347
42	0x3da7be7e	0.081906304
43	0xbe0be430	-0.13661265
44	0xbc631007	-0.013858802
45	0xbd1dabb7	-0.03849384
46	0x3e03a8a3	0.12857299
47	0xbdb09c5a	-0.08623572
48	0xbe370b3a	-0.17875376
49	0xbcb29817	-0.021801038
50	0xbd85662d	-0.06513629
51	0xbe95d6c3	-0.29265413
52	0xbe5a7994	-0.21335441
53	0x3e6b9ce3	0.23009066
54	0xbe09521b	-0.13410227
55	0x3d0a72b6	0.033800803
56	0xbd15d608	-0.03658107
57	0x3e3c79f3	0.18405895
58	0xbd6a9c02	-0.057277687
59	0x3e1f4ffd	0.15557857
60	0x3d5d11f5	0.053972203
61	0x3e536f1e	0.20647857
62	0x3d89c333	0.067266844
63	0x3b657f25	0.003501841
64	0x3dc74995	0.097308315
65	0xbe3608f8	-0.17776859
66	0xbe77c3ea	-0.24195829
67	0xbd7938ad	-0.060845066
68	0xbd76f126	-0.06028857
69	0xbd25608c	-0.040375277
70	0xbd8c5034	-0.06851235
71	0x3d3c16b6	0.045920096
72	0x3e3bb8e1	0.18332244
73	0xb9c39a1b	-0.00037308116
74	0xbe051ae4	-0.12998539
75	0x3e2420fe	0.1602821
76	0x3e34f254	0.17670566
77	0x3d91bf0a	0.07116516
78	0x3db8f948	0.090319216
79	0x3e2a003c	0.16601652
80	0x3e0feac2	0.14054397
81	0xbde25c90	-0.11052811
82	0x3c4bf6db	0.012448992
83	0xbdc6af32	-0.097013846
84	0xbc824841	-0.015903594
85	0x3cf8414a	0.03030457
86	0x3dcd6c9c	0.10030481
87	0x3ce32844	0.027729161
88	0x3e1efbb9	0.15525712
89	0xbd9693b6	-0.073523924
90	0xbe4e3d9d	-0.20140691
91	0x3e384f8a	0.17999092
92	0x3c1de3a5	0.009636794
93	0xbdd27889	-0.102768965
94	0xbc951c71	-0.018202038
95	0x3db4ccab	0.088281
96	0xbd7cb5fc	-0.06169699
97	0x3e3c72f5	0.18403228
98	0xbe1a185a	-0.15048352
99	0xbda7f29f	-0.08200573
100	0x3e25e26f	0.16199659
101	0x3d855d1e	0.06511901
102	0x3c945783	0.018108135
103	0x3e430989	0.19046606
104	0xbdcb33eb	-0.09922012
105	0x3e0f7ae9	0.1401173
106	0xbd255c22	-0.040371068
107	0x3c8dc5e3	0.017306274
108	0x3dc04008	0.09387213
109	0x3d0a5031	0.033767883
110	0x3c6c4407	0.014420516
111	0xbe0430b7	-0.12909208
112	0xbd9690f1	-0.07351864
113	0xbde27782	-0.110579506
114	0x3dbacc99	0.09121055
115	0x3d904b20	0.07045579
116	0x3e15342c	0.14570683
117	0xbe242dd7	-0.16033112
118	0xbdb8f8c9	-0.09031827
119	0x3da57994	0.0807983
120	0x3def969c	0.11698648
121	0x3c764669	0.0150314355
122	0x3d6558bc	0.055992827
123	0xbdc04ca5	-0.09389619
124	0xb95a7d2c	-0.0002083673
125	0xbe098d98	-0.1343292
126	0x3e0536dd	0.1300921
127	0x3e312856	0.17300543
128	0xbd937362	-0.07199742
129	0x3db39dd1	0.087703355
130	0xbd6744b2	-0.056461997
131	0x3c78c6c8	0.015184112
132	0x3e77126c	0.24128121
133	0xbd8de0bd	-0.06927631
134	0x3e1f6bcb	0.15568464
135	0xbe2c8e80	-0.16851234
136	0xbcf2c1c2	-0.029633407
137	0xbe067ef0	-0.1313436
138	0x3e2dd543	0.16975884
139	0xbe172321	-0.14759494
140	0x3ce638ea	0.02810331
141	0xbdd082fa	-0.10181232
142	0x3b9b681f	0.004742637
143	0xbe0686f5	-0.1313742
144	0x3dc77906	0.0973988
145	0x3e500db7	0.20317732
146	0x3c700406	0.014649397
147	0xbcda0fed	-0.026618922
148	0x3cb80160	0.022461593
149	0xbc663a4c	-0.014051985
150	0xbe2839f9	-0.16428365
151	0xbd2741b2	-0.040834136
152	0xbcc45451	-0.023965986
153	0xbdb6fc0e	-0.08934794
154	0x3e4693fe	0.19392392
155	0x3de44db8	0.11147636
156	0x3d765730	0.060141742
157	0x3e0caa92	0.13736942
158	0x3de886ee	0.11353861
159	0xbdd2a7ba	-0.102858976
160	0x3e3452b4	0.17609674
161	0xbdf3a25a	-0.118962005
162	0xbdccab43	-0.09993603
163	0x3e479c22	0.19493154
164	0x3de487cb	0.11158713
165	0x3e47ec28	0.1952368
166	0x3c41a134	0.011818219
167	0xbd74d170	-0.059770048
168	0x3e231644	0.15926462
169	0x3c90f9a9	0.017697172
170	0xbd838497	-0.06421774
171	0x3d74c69c	0.05975972
172	0x3e895c22	0.26828104
173	0x3d0678c3	0.03283001
174	0xbbf62209	-0.0075113815
175	0xbd2490de	-0.04017722
176	0xbdff7799	-0.12473983
177	0x3dbbe34f	0.09174215
178	0x3d3b6b6c	0.045756742
179	0x3d345a21	0.044031266
180	0xbd7ca98a	-0.061685123
181	0xbe15db7b	-0.14634506
182	0x3e514cb5	0.20439418
183	0x3e7e2e29	0.24822296
184	0x3dac2bda	0.084068015
185	0x3d064308	0.03277877
186	0xbce37fad	-0.027770841
187	0x3f0c2710	0.54747105
188	0x3c9f0b3d	0.019414539
189	0xbc09debe	-0.008414922
190	0x3e3ad85e	0.182466
191	0x3e034f41	0.12823202
192	0xbd920854	-0.07130495
193	0x3bd13208	0.006384138
194	0xbd0962cc	-0.033541486
195	0x3d99400a	0.074829176
196	0x3dc7f6dd	0.09763882
197	0xbdd7c527	-0.10535651
198	0x3e16adbf	0.14714716
199	0x3d67c245	0.056581754
200	0xbe224609	-0.15847029
201	0xbe2928c1	-0.16519453
202	0x397a1203	0.00023848568
203	0xbd9c66c2	-0.07636787
204	0x3da1cd91	0.07900537
205	0xbba6f3fa	-0.0050950022
206	0x3e4cf40d	0.20014973
207	0xbe379440	-0.17927647
208	0xbe56407d	-0.20923038
209	0xbdf853bc	-0.12125346
210	0xbe14fc7b	-0.14549439
211	0x3d3cda9f	0.04610693
212	0x3e47ac60	0.1949935
213	0x39b1d7e8	0.00033920933
214	0xbdd51554	-0.10404459
215	0x3d6cd515	0.0578204
216	0xbddc8a92	-0.10768618
217	0x3d6a7d51	0.057248417
218	0x3e440232	0.19141462
219	0xbd33a8d2	-0.04386217
220	0x3dd52385	0.104071654
221	0xbdfecbc5	-0.1244121
222	0x3d482fb7	0.04887363
223	0x3d91ffb8	0.071288526
224	0xbe44da15	-0.19223817
225	0xbda16a0d	-0.07881556
226	0x3e09fc57	0.13475166
227	0x3e0dfdba	0.1386632
228	0xbd491ce2	-0.04909981
229	0x3dd30b39	0.10304875
230	0xbde5dc59	-0.112236686
231	0xbdbca2af	-0.09210717
232	0xbd8b20f6	-0.06793396
233	0x3e1396ff	0.14413069
234	0x3dccf549	0.10007722
235	0xbdace8b1	-0.0844282
236	0xbdb2ab59	-0.08724088
237	0x3dfded74	0.12398806
238	0xbe100043	-0.140626
239	0x3dc967bf	0.09834241
240	0x3e3d0699	0.18459548
241	0x3e41fefb	0.18944924
242	0xbc90e1f5	-0.01768587
243	0xbb05057a	-0.0020297454
244	0x3cf26d51	0.029593142
245	0x3ebcd66b	0.36882338
246	0xbd8665d9	-0.06562395
247	0xbdd804e0	-0.10547805
248	0x3d232027	0.039825585
249	0xbe6b6f36	-0.22991642
250	0xbe849174	-0.25892222
251	0xbd402bf7	-0.04691693
252	0xbde36a69	-0.111042805
253	0xbcd4887c	-0.025943987
254	0x3d312059	0.04324374
255	0x3e4a16bf	0.1973524

conv1.bias f4 [16]
0	0x3cfdcac8	0.030980483
1	0x3e502bb3	0.2032917
2	0xbd3797f7	-0.04482266
3	0x3e1bd80a	0.15219131
4	0xbe50bad6	-0.20383772
5	0xbda6b2e6	-0.08139591
6	0xbddb147d	-0.10697267
7	0xbd422a42	-0.04740358
8	0xbe0d067e	-0.13772008
9	0x3e212ccd	0.15739746
10	0xbdd52e7e	-0.10409258
11	0xbe57227e	-0.21009251
12	0xbd8478d4	-0.06468359
13	0x3d0351ff	0.03206062
14	0x3e0f1c0b	0.13975541
15	0x3e0ca091	0.13733126

conv2.weight f4 [32, 16, 3]
0	0x3dca499c	0.09877321
1	0x3d9f22af	0.07770287
2	0xbd7daece	-0.061934285
3	0xbd183d13	-0.03716762
4	0x3e0278e8	0.12741435
5	0xbbda3947	-0.00665966
6	0xbd9c88d6	-0.07643287
7	0x3d39fa76	0.045404874
8	0xbcba6a4b	-0.022755763
9	0xbdb0b6db	-0.08628627
10	0xbdbafa30	-0.09129751
11	0xbdfc0174	-0.12304965
12	0xbd1d18d9	-0.038353775
13	0xbe127724	-0.14303261
14	0x3b7b166d	0.0038312927
15	0x3d5b084b	0.053474706
16	0xbdcef367	-0.10105019
17	0xbc46f64f	-0.0121436855
18	0xbdae25f3	-0.08503332
19	0xbce90ea7	-0.02844937
20	0xbd19875f	-0.037482616
21	0x3ddd4d5f	0.10805773
22	0xbd8c6583	-0.06855299
23	0xbdcc331d	-0.099706866
24	0xbdfee600	-0.12446213
25	0xbd420f0b	-0.047377627
26	0x3c57b52e	0.013165755
27	0x3c82918d	0.015938545
28	0x3d90d1b8	0.07071251
29	0xbd6c2601	-0.05765343
30	0xbdf0bc23	-0.11754634
31	0xbe22f90a	-0.15915313
32	0xbe50cf18	-0.203915
33	0x3d589983	0.052880775
34	0xbd00c1c5	-0.031434793
35	0xbe4fccd3	-0.20292978
36	0x3d98cf40	0.07461405
37	0xbd33ebfa	-0.043926217
38	0x3deee692	0.116650715
39	0xbb29b757	-0.0025896633
40	0x3d65656f	0.056004938
41	0x3daeb359	0.085303016
42	0xbd8f45df	-0.06995749
43	0x3e12c8f0	0.14334464
44	0xbd9ff82b	-0.07811006
45	0xbca5e18e	-0.020249154
46	0x3df82638	0.12116665
47	0xbc8d1ee6	-0.017226648
48	0xbe0d3ff0	-0.13793921
49	0x3d8ff3da	0.07028933
50	0x3e282183	0.16419034
51	0x3dd8d00e	0.10586558
52	0x3d48d019	0.049026582
53	0x3d8e91a8	0.069613755
54	0xbe2125ec	-0.15737122
55	0xbdc5303c	-0.096283406
56	0xbd52bf38	-0.05145189
57	0x3d8c52be	0.06851719
58	0xbe0f95d3	-0.14021997
59	0x3c12e702	0.008966209
60	0xbdcb3703	-0.09922602
61	0x3ddc0971	0.10743988
62	0xbd3cb30a	-0.046069182
63	0xbdc31c20	-0.09526849
64	0x3ddfc056	0.10925357
65	0x3d836a62	0.06416775
66	0xbdac010b	-0.083986364
67	0x3c8f15aa	0.017466385
68	0xbd9c49c7	-0.076312594
69	0xbd2f6910	-0.042824805
70	0x3d9bb668	0.076031506
71	0x3db293b9	0.08719582
72	0xbc32d26a	-0.010914424
73	0xbd51ee77	-0.05125281
74	0xbde9ebea	-0.1142195
75	0xbdda7282	-0.10666372
76	0xbda11889	-0.07866008
77	0x3e124dd9	0.14287509
78	0x3b3f6e73	0.002921012
79	0xbe09461f	-0.13405655
80	0x3e60634b	0.21912877
81	0xbdc608b0	-0.09669626
82	0xbd34b0e2	-0.044114
83	0xbceec805	-0.029148111
84	0xbcb46efb	-0.022025576
85	0xbd92832c	-0.07153925
86	0x3df6d98f	0.12053215
87	0xbcc5c488	-0.024141565
88	0x3d29b978	0.041436642
89	0x3dc8f368	0.09812051
90	0xbd39bbea	-0.045345224
91	0xbb897458	-0.0041947775
92	0xbd4f8a15	-0.050668795
93	0xbd4c01a5	-0.049806256
94	0xbdd2cc25	-0.10292844
95	0x3de213ac	0.11038908
96	0xbd99ee21	-0.075161226
97	0xbca0655e	-0.019579586
98	0x3ca7e6dc	0.020495825
99	0x3d21d52d	0.03950994
100	0x3d30518d	0.043046523
101	0xbd1f9a89	-0.038965736
102	0xbdea23af	-0.11432587
103	0xbcbdbb7e	-0.023160692
104	0xbdfe4733	-0.12415924
105	0xbd30eb5c	-0.043193206
106	0xbdb6d61c	-0.08927557
107	0x3dd56f46	0.10421614
108	0x3d6a5c6f	0.057217058
109	0x3c72e533	0.014825153
110	0x3e0b42d4	0.13599712
111	0x3df59805	0.11991886
112	0xbd52d4d6	-0.051472507
113	0xbcf92c94	-0.030416764
114	0x3c57ab11	0.013163344
115	0x3be7eb18	0.007077586
116	0x3d0b3189	0.033982787
117	0x3cde5de8	0.027144387
118	0xbcb77a40	-0.02239716
119	0xbc2d8d98	-0.010592841
120	0xbc924fa2	-0.017860238
121	0x3d59266c	0.053015158
122	0xbce07a3c	-0.027402036
123	0x3c63b0ec	0.013897162
124	0xbdd4f4bb	-0.10398241
125	0xbcf924e5	-0.0304131
126	0xbde7ee69	-0.1132477
127	0xbe063280	-0.13105202
128	0xbd156fc5	-0.036483545
129	0xbdb2086f	-0.08693015
130	0xbdb2d0a7	-0.087312035
131	0x3d9677b7	0.073470525
132	0x3a40e4c5	0.0007358308
133	0xbd6f5616	-0.058431707
134	0x3d941e0c	0.072322935
135	0x3ccdf28b	0.025140068
136	0x3d6f1ad2	0.058375187
137	0xbd8d73f1	-0.0690688
138	0xbd61dc0a	-0.055141486
139	0x3c8cdad8	0.017194197
140	0x3ddec4f6	0.10877411
141	0x3e120130	0.14258265
142	0xbd47a654	-0.048742607
143	0x3dcaafe7	0.09896832
144	0xbec111f0	-0.37708998
145	0x3e9d4b5d	0.3072156
146	0xbc05b931	-0.008161829
147	0xbde2942c	-0.11063418
148	0x3cc5877a	0.024112452
149	0x3debd219	0.11514682
150	0xbbff78b0	-0.0077963695
151	0xbeb54d33	-0.3541046
152	0xbcca751a	-0.024714042
153	0xbe046384	-0.12928587
154	0xbd9c4871	-0.076310046
155	0x3d98d65a	0.07462759
156	0x3b1ae7e1	0.0023636746
157	0xbdb76f43	-0.08956768
158	0xbbc31438	-0.005953338
159	0xbe1d0c27	-0.15336667
160	0xbdbdbcbc	-0.09264514
161	0xbd95a12e	-0.07306133
162	0xbe06ecd0	-0.13176274
163	0xbd0b9b4c	-0.03408365
164	0xbdf7f023	-0.12106349
165	0xbe2f04fe	-0.17091748
166	0xbd9d1ac3	-0.0767112
167	0x3cade981	0.021229507
168	0xbc1295e4	-0.0089468695
169	0x3d7d7be1	0.06188572
170	0x3e0f5032	0.13995436
171	0xbdeadc3a	-0.11467786
172	0xbdc8e7ec	-0.098098606
173	0xbc8e4eb1	-0.017371507
174	0x3d0d6508	0.03452018
175	0xbc9ca8e9	-0.019123511
176	0xbe036c56	-0.12834296
177	0xbdd9c5d9	-0.106334396
178	0x3e608041	0.21923925
179	0xbc834df6	-0.016028386
180	0x3dc66c50	0.09688628
181	0xbdce677e	-0.10078333
182	0x3e0d890a	0.13821808
183	0x3db5d794	0.08879009
184	0x3d84ecea	0.064905
185	0x3c818a59	0.01581304
186	0x3ddee33a	0.10883184
187	0xbd337743	-0.04381491
188	0x3df91f18	0.12164134
189	0xbdd4afd9	-0.10385103
190	0x3db871cc	0.0900608
191	0x3d4525d5	0.048131783
192	0xbd11c280	-0.03558588
193	0xbc62effa	-0.01385116
194	0x3b2bb6e6	0.0026201545
195	0xbe0597f1	-0.13046242
196	0x3d8b52e7	0.06802922
197	0x3da20d63	0.079127096
198	0xbc9ef87c	-0.019405596
199	0xbd746a1a	-0.0596715
200	0xbc49a66d	-0.012307745
201	0x3c366680	0.011132836
202	0x3dea3bae	0.11437164
203	0x3d215eed	0.03939717
204	0xb9aaa4a1	-0.00032547585
205	0x3e126e03	0.14299779
206	0xbda8c268	-0.08240205
207	0x3e071ae7	0.13193856
208	0x3d49035d	0.049075473
209	0xbdff9c78	-0.12481016
210	0x3db51088	0.08841044
211	0xbad8a976	-0.0016529995
212	0xbcdc5535	-0.026896099
213	0xbe9100de	-0.28320974
214	0xbd8f7773	-0.07005205
215	0xbe1d816b	-0.153814
216	0x3c9c0b9c	0.019048505
217	0xbd9c22fd	-0.07623861
218	0xbd20e8b2	-0.039284416
219	0xbcddfe51	-0.027098807
220	0x3d861d02	0.065485016
221	0x3e031bb4	0.12803537
222	0xbdfb28ce	-0.12263642
223	0xbe3bfa3d	-0.18357177
224	0xbe85aa22	-0.26106364
225	0xbe3f7c55	-0.18699773
226	0xbdede005	-0.11614994
227	0x3a87cd33	0.0010360837
228	0x3d743046	0.05961635
229	0x3d4e79c0	0.05040908
230	0x3d59be72	0.05316014
231	0xbd8dbe70	-0.06921089
232	0x3c1ffeac	0.009765308
233	0x3b04ef9f	0.0020284427
234	0xbd4a6995	-0.049417097
235	0x3a63fa07	0.000869662
236	0xbd9abeb1	-0.07555903
237	0xbcfb090a	-0.030643959
238	0xbde84f76	-0.11343281
239	0xbdc49918	-0.09599513
240	0xbe28eb79	-0.16496076
241	0x3b9972cc	0.0046828743
242	0x3db73130	0.08944929
243	0x3df33937	0.11876147
244	0xbdac16b2	-0.08402766
245	0xbc532036	-0.012886098
246	0xbe3275ac	-0.17427701
247	0xbcdf4c9e	-0.027258214
248	0xbcabd5a3	-0.020975893
249	0x3ab86b16	0.001407
250	0x3d276032	0.040863223
251	0xbcf4e910	-0.02989629
252	0x3dc28985	0.09498886
253	0x3dad8966	0.08473472
254	0xbc783ca8	-0.01515118
255	0x3c0a66c0	0.008447349

conv2.bias f4 [32]
0	0xbe02a127	-0.12756787
1	0xbe19280d	-0.14956684
2	0xbe317193	-0.17328481
3	0xbccefd96	-0.025267404
4	0xbd1c2e3b	-0.038130026
5	0xbea46433	-0.32107696
6	0xbe4ca3b7	-0.19984327
7	0x3e9a43c4	0.30129826
8	0xbc0652f1	-0.008198486
9	0xbd3bae7d	-0.045820702
10	0xbe0e26dd	-0.13882013
11	0x3da9c6ad	0.082898475
12	0xbe83974b	-0.25701365
13	0x3d84b9f9	0.06480784
14	0xbe608166	-0.21924362
15	0x3db48d0c	0.08815965
16	0xbdd5a13c	-0.10431144
17	0xbd8912c0	-0.066930294
18	0x3e547fd4	0.20751888
19	0xbd5970ae	-0.053085975
20	0x3e48d885	0.19613846
21	0x3d53c29d	0.05169927
22	0x3d2ab4bb	0.041676264
23	0x3babd92f	0.005244396
24	0xbc3e7e56	-0.0116268005
25	0xbe15a80d	-0.14614888
26	0x3dc8f23e	0.09811829
27	0xbd06a28d	-0.032869864
28	0x3d98c9a9	0.074603386
29	0xbe35cea5	-0.1775461
30	0xbcdd38b9	-0.027004587
31	0x3c425df9	0.011863225

transformer.layers.0.self_attn.in_proj_weight f4 [96, 32]
0	0x3ea589f2	0.32331806
1	0x3edfc552	0.4370523
2	0x3d8ec077	0.069703035
3	0xbeee111c	-0.46497428
4	0x3b7b4259	0.0038339107
5	0xbd3a3ca2	-0.04546798
6	0x3dbf48f0	0.093400836
7	0x3e068294	0.13135749
8	0x3e281b22	0.164166
9	0x3e1c5620	0.15267229
10	0x3f6429a1	0.8912602
11	0x3ee85130	0.4537444
12	0x3e926842	0.28595167
13	0x3f761994	0.9613278
14	0x3ebb748e	0.36612362
15	0x3f25aadb	0.6471383
16	0x3f02ffa4	0.51171327
17	0xbf1135c4	-0.56722665
18	0x3db21d2f	0.086969726
19	0xbd2836e1	-0.04106796
20	0x3e62aebc	0.22136968
21	0xbe06597e	-0.13120076
22	0x3ecf8e0a	0.40538055
23	0x3e9709e9	0.29499748
24	0x3e7a6ce2	0.24455598
25	0x3ec08da2	0.37608057
26	0x3f599baf	0.8500318
27	0x3e9ae3b6	0.30251855
28	0x3e931f9e	0.2873506
29	0x3d9a4f23	0.075346254
30	0x3ec7162d	0.38884106
31	0x3eb76344	0.3581792
32	0xbd5459af	-0.05184334
33	0xbec52044	-0.3850118
34	0xbdb42531	-0.08796156
35	0xbe0cb089	-0.13739218
36	0xbc94c56a	-0.01816054
37	0xbe8d645d	-0.27615634
38	0xbe2f5c74	-0.17125112
39	0xbdd00fea	-0.10159285
40	0x3b826785	0.0039796256
41	0x3d8c8186	0.06860642
42	0xbf0697a1	-0.5257512
43	0xbe8ec0b0	-0.27881384
44	0xbec28f0c	-0.3799976
45	0xbf547896	-0.829965
46	0x3d86eee2	0.06588532
47	0xbeb1fd93	-0.34763774
48	0xbec06831	-0.37579492
49	0x3f3e6546	0.7437328
50	0xbe545bbe	-0.20738122
51	0x3e859464	0.26089776
52	0x3e464b62	0.19364694
53	0x3ec6e1b5	0.38844076
54	0xbece45a1	-0.40287498
55	0xbf045977	-0.5169901
56	0xbe8d049c	-0.2754258
57	0xbf00b917	-0.50282425
58	0xbea89d8a	-0.32932693
59	0xbe80e851	-0.25177243
60	0xbe42869f	-0.18996666
61	0xbaad3d21	-0.001321707
62	0xbe5861b6	-0.21131024
63	0xbcfaa13f	-0.030594466
64	0xbdf06fa2	-0.11740042
65	0x3eb7e02c	0.35913217
66	0x3df54c78	0.11977476
67	0x3e354d42	0.17705253
68	0xbbe46f9b	-0.006971312
69	0x3e6e4a06	0.23270425
70	0xbdfa6fb4	-0.12228337
71	0x3e3a3638	0.18184745
72	0xbdd7034b	-0.10498675
73	0x3c98df9c	0.018661313
74	0x3e8b142a	0.2716382
75	0x3d8f9746	0.07011275
76	0x3dd0c9b9	0.101947255
77	0x3e8eabe7	0.27865526
78	0xbdb873ca	-0.0900646
79	0x3f170660	0.589941
80	0x3e881a0a	0.26582366
81	0xbf324f2e	-0.6965207
82	0x3eb047c3	0.3442975
83	0xbe0f2bb9	-0.13981523
84	0x3e1be863	0.15225367
85	0xbeccab67	-0.3997452
86	0x3e49d8ea	0.19711652
87	0x3ea08209	0.3134921
88	0xbd4504f4	-0.048100427
89	0x3eb58348	0.35451722
90	0x3f30f34b	0.69121236
91	0x3eae934e	0.3409676
92	0x3f065fe1	0.5249005
93	0x3dac2753	0.08405938
94	0x3eabf66e	0.33586448
95	0x3e136d9a	0.14397278
96	0xbec21465	-0.37906185
97	0xbee4992e	-0.44648117
98	0x3e56435c	0.20924133
99	0x3f65aa11	0.89712626
100	0xbe61a13a	-0.2203416
101	0x3de2cbd4	0.110740334
102	0xbd2447d3	-0.04010756
103	0xbe1de621	-0.15419818
104	0x3cece60e	0.028918292
105	0xbe2dcd38	-0.16972816
106	0xbf021850	-0.5081835
107	0xbe719662	-0.23592523
108	0xbe2a51bc	-0.16632742
109	0xbf83da09	-1.0300914
110	0xbe2b6c6c	-0.16740578
111	0xbeb55709	-0.35417965
112	0xbed519ac	-0.4162115
113	0x3f0a4a0d	0.5401924
114	0xbd79ef6d	-0.06101935
115	0x3eb0ba3a	0.3451708
116	0xbe5265f5	-0.20546706
117	0x3dc6aad7	0.09700554
118	0xbf24097a	-0.6407696
119	0xbf049a83	-0.51798266
120	0x3e04916a	0.12946096
121	0xbf05f455	-0.52325946
122	0xbf24b8cf	-0.64344496
123	0xbddf8e3f	-0.10915803
124	0xbe604c61	-0.21904136
125	0x3dc7f867	0.09764176
126	0xbed8dd61	-0.423564
127	0xbda2c923	-0.0794852
128	0x3c9b313b	0.018944373
129	0xbc93392e	-0.017971601
130	0xbde38cd4	-0.11110845
131	0xbce65abd	-0.02811944
132	0xbcde00c8	-0.027099982
133	0x3e1286d7	0.1430925
134	0x3e0dd9f6	0.13852677
135	0x3e6512ef	0.22370504
136	0x3df30285	0.11865715
137	0xbdb58445	-0.08863119
138	0x3e8aff36	0.27147835
139	0xbd07cdf4	-0.033155397
140	0x3cbcdc0c	0.023054145
141	0x3ea85e22	0.32884318
142	0x3d815819	0.063156314
143	0x3e7cb716	0.24679217
144	0x3e2c3561	0.16817237
145	0xbcf18874	-0.029484011
146	0xbe9f294a	-0.3108619
147	0x3dbf961e	0.093548045
148	0x3eb6626c	0.35621965
149	0x3f207d80	0.626915
150	0xbcc1c006	-0.023651134
151	0x3e17b6a6	0.14815769
152	0x3e80ed25	0.25180927
153	0x3d5a0fe1	0.0532378
154	0x3e6c237f	0.23060416
155	0x3ef640b3	0.48096237
156	0xbe6e1f73	-0.23254184
157	0xbd2adb68	-0.04171315
158	0x3e2fea23	0.1717916
159	0x3e8fc31f	0.28078553
160	0xbe31dd2f	-0.17369531
161	0xbe2c85bb	-0.16847889
162	0x3d090a3f	0.033457037
163	0xbe1c99db	-0.15293066
164	0xbd3724e8	-0.04471293
165	0xbd90fb33	-0.070791624
166	0x3deaa060	0.1145637
167	0x3e6321fe	0.22180936
168	0xbdfcc94c	-0.12343082
169	0x3cd126af	0.025531141
170	0xbe9f00ac	-0.310552
171	0x3eabf5d3	0.33585986
172	0x3d12b7a5	0.03581967
173	0xbe710e6d	-0.23540659
174	0xbe888bf3	-0.26669273
175	0xbda6b26c	-0.081395
176	0x3c94ea44	0.018178113
177	0x3dfcb15a	0.123385146
178	0x3e4b6bd4	0.19865352
179	0xbda297f0	-0.07939136
180	0x3e85c98b	0.26130328
181	0x3ed5d271	0.41762117
182	0x3d549cb6	0.051907264
183	0xbe576e56	-0.21038184
184	0xbe52725b	-0.20551436
185	0x3e207d12	0.1567271
186	0x3e8d18b3	0.27557907
187	0xbe32f25e	-0.17475268
188	0xbd7d9f0c	-0.061919257
189	0xbebb106d	-0.3653597
190	0x3ca02fa0	0.01955396
191	0x3d07ca13	0.033151697
192	0xbe78f1b6	-0.24310955
193	0xbe561f78	-0.20910442
194	0x3c89cec1	0.01682222
195	0xbdcc57cd	-0.09977684
196	0xbeaac38e	-0.3335232
197	0x3e336cb1	0.17521931
198	0xbe4b7bca	-0.1987144
199	0xbc190283	-0.009338978
200	0xbddfef67	-0.10934334
201	0xbac4e352	-0.001502136
202	0xbe26afc1	-0.16277982
203	0x3e849e7d	0.25902167
204	0xbe362018	-0.1778568
205	0xbe8d397a	-0.27582914
206	0xbdfdaade	-0.12386106
207	0xbe7a4134	-0.24438936
208	0xbe6285c4	-0.2212134
209	0x3e7b3318	0.2453121
210	0xbc191ff8	-0.009346001
211	0xbe8e4013	-0.2778326
212	0x3eb54793	0.3540617
213	0x3e8454b6	0.2584588
214	0x3e6dd0a4	0.23224121
215	0x3d0a3c19	0.03374872
216	0xbe977f4a	-0.295893
217	0xbbf3356f	-0.0074221413
218	0x3e0f5058	0.13995492
219	0xbe4cc71d	-0.1999783
220	0x3e921521	0.28531745
221	0xbd971da8	-0.07378703
222	0xbe601cc1	-0.21885969
223	0x3dbbbf28	0.091673195
224	0xbe10310c	-0.1408121
225	0xbe041e6d	-0.12902232
226	0x3dbe887f	0.09303378
227	0xbda63216	-0.08115022
228	0xbe625265	-0.22101744
229	0xbe294dc1	-0.16533567
230	0x3c9dafba	0.019248832
231	0xbe255e84	-0.16149336
232	0xbd387ed8	-0.045042843
233	0xbc9f3ddb	-0.019438675
234	0xbe8a61f4	-0.27027857
235	0x3ee96aed	0.4558939
236	0x3db236b2	0.087018386
237	0xbef57473	-0.47940406
238	0xbdae47fd	-0.085098244
239	0xbe0dfeaa	-0.13866678
240	0xbe03cfbd	-0.12872215
241	0xbd8041a4	-0.0626252
242	0x3d27b0b2	0.040939994
243	0xbec6814a	-0.38770515
244	0x3e5b8e02	0.2144089
245	0x3f0b72f9	0.5447231
246	0xbd1a52bd	-0.03767656
247	0xbe37eb76	-0.17960915
248	0xbe7f3c6f	-0.24925397
249	0x3eadc0a5	0.3393604
250	0xbdb5d564	-0.08878592
251	0x3c8dca5e	0.01730841
252	0x3e8d8c48	0.2764609
253	0xbe1bf3bf	-0.152297
254	0x3bb2f000	0.005460739
255	0x3d730470	0.059330404

transformer.layers.0.self_attn.in_proj_bias f4 [96]
0	0x3f17214f	0.590352
1	0xbf18faef	-0.59757894
2	0x3f111627	0.56674427
3	0xbee6e5a4	-0.45097077
4	0x3d76acfe	0.060223572
5	0xbe8c804d	-0.27441636
6	0xbe9dfdf4	-0.30857813
7	0xbec91cea	-0.39279872
8	0xbdfa380e	-0.12217723
9	0xbf25fb1c	-0.6483629
10	0x3ca967fd	0.020679468
11	0xbedea9ba	-0.43488866
12	0x3ce4837f	0.027894733
13	0x3e5270cc	0.20550841
14	0x3e67ae5e	0.2262511
15	0x3ea5ae24	0.3235942
16	0xbe5b8282	-0.21436504
17	0x3d7f80fd	0.062378872
18	0x3e16fe02	0.14745334
19	0xbde5ad76	-0.11214726
20	0xbc6c6487	-0.014428264
21	0x3e842a7b	0.2581366
22	0x3d0d84e0	0.034550548
23	0xbe80599b	-0.25068364
24	0x3df0492d	0.11732707
25	0x3d76ee9e	0.060286157
26	0xbe317d64	-0.17332989
27	0x3ea306dc	0.3184117
28	0x3ddfea9c	0.1093342
29	0xbd1ac817	-0.037788477
30	0xbe38109a	-0.17975083
31	0x3e785ef5	0.24254973
32	0x3efd6d74	0.4949757
33	0xbeaca968	-0.33722997
34	0x3ec03229	0.3753827
35	0xbf5c2b8f	-0.86003965
36	0x3cbfceb8	0.023414
37	0x3ee36ee3	0.44420537
38	0x3d60d3e0	0.05488956
39	0x3e969180	0.29407883
40	0xbee3b340	-0.44472694
41	0x3eb1bcac	0.34714258
42	0x3de0a546	0.109690234
43	0xbd11e320	-0.035616994
44	0xbd81358a	-0.0630904
45	0xbed391b7	-0.4132211
46	0xbe8695cc	-0.2628616
47	0x3d9c517c	0.076327294
48	0x3da924c2	0.08258964
49	0xbd040031	-0.032226745
50	0xbcbcbecc	-0.023040198
51	0xbe0160d6	-0.12634596
52	0x3ecece4f	0.40391776
53	0x3dd266c6	0.10273509
54	0xbd8435ec	-0.06455597
55	0xbdd5d7f2	-0.10441579
56	0x3e7e65fe	0.24843594
57	0x3e216282	0.15760234
58	0xbdf24b4d	-0.11830769
59	0x3e45f65c	0.1933226
60	0x3de0899a	0.109637454
61	0xbdd69fcc	-0.104796976
62	0x3db3d021	0.08779932
63	0x3e281316	0.1641353
64	0x3ea7f241	0.32802013
65	0xbd421c0b	-0.047390025
66	0xbcc00b1d	-0.0234428
67	0xbcbf3b63	-0.023343747
68	0xbf35b34b	-0.70976704
69	0x3f397e93	0.7245876
70	0xbea071ca	-0.31336814
71	0x3e7ccaf3	0.24686794
72	0xbf8efeca	-1.1171505
73	0xbf5cd041	-0.8625527
74	0xbf5893a7	-0.846003
75	0x3f716d50	0.9430742
76	0x3e5ebddc	0.21752113
77	0x3fb81f47	1.4384545
78	0xbf38e059	-0.7221733
79	0xbf5c5339	-0.8606449
80	0xc013e969	-2.3111212
81	0xbff99e0d	-1.9501358
82	0x4009e56c	2.1546278
83	0xbf2f4949	-0.684712
84	0xbfada8d7	-1.3567151
85	0x3fe1607d	1.7607571
86	0x40054541	2.082352
87	0xc027fb90	-2.6247292
88	0x3fe9cb4b	1.8265165
89	0xbfb119cb	-1.3835996
90	0x3edf7631	0.4364486
91	0xbf77f1a4	-0.9685309
92	0x3e8a9222	0.27064615
93	0xbf834666	-1.0255859
94	0x3f811009	1.0083019
95	0x3f2e86a3	0.6817419

transformer.layers.0.self_attn.out_proj.weight f4 [32, 32]
0	0x3ea6590d	0.32489815
1	0xbf0c7392	-0.54863846
2	0x3f8a8f02	1.0824893
3	0xbf0fe334	-0.5620606
4	0xbceb3256	-0.028710525
5	0xbd5a5378	-0.05330226
6	0xbe5d51a1	-0.2161317
7	0x3e1c91bd	0.1528997
8	0xbe77d438	-0.24202049
9	0xbe866779	-0.26250818
10	0xbdb6e6e9	-0.08930761
11	0xbe467504	-0.19380575
12	0xbec92832	-0.3928848
13	0xbe392234	-0.18079454
14	0x3e828709	0.2549365
15	0xbe8b8ec6	-0.27257365
16	0x3e10cfda	0.14141789
17	0xbe8ab764	-0.2709304
18	0x3e08dac1	0.13364698
19	0xbe5d742e	-0.2162635
20	0xbd244ee6	-0.040114306
21	0x3e6b51a3	0.2298036
22	0x3e3eecc7	0.18645011
23	0x3e1c0d48	0.15239441
24	0x3e93fb67	0.28902742
25	0xbd20af1d	-0.0392295
26	0xbe39b45e	-0.18135211
27	0x3d8dd6b0	0.06925714
28	0x3e8c529f	0.27406785
29	0xbd944113	-0.072389744
30	0x3ddcd425	0.10782651
31	0x3e725979	0.23666944
32	0x3f71acb2	0.9440414
33	0xbec21fcf	-0.37914893
34	0x3e8bd126	0.27308005
35	0x3d27eff3	0.041000318
36	0xbd95e5ce	-0.073192224
37	0x3e0c0f9a	0.13677827
38	0x3e8de882	0.27716452
39	0xbee58a6f	-0.4483218
40	0xbe4ac7fb	-0.19802849
41	0xbd6771b5	-0.056504924
42	0xbeed3527	-0.46329615
43	0x3ece2712	0.40264183
44	0x3b19eb84	0.0023486326
45	0x3dc1e677	0.09467786
46	0x3e86e3be	0.26345628
47	0x3da3e779	0.08003134
48	0xbf1f4134	-0.6220887
49	0xbeb346eb	-0.35015044
50	0x3f31291e	0.69203365
51	0xbe596f04	-0.21233755
52	0xbee795f1	-0.45231584
53	0x3e97a231	0.2961593
54	0x3f68c114	0.90919614
55	0xbe87bff8	-0.26513648
56	0x3f58173b	0.84410447
57	0xbf1d42fb	-0.6143033
58	0xbec1799d	-0.37788096
59	0x3dd3af58	0.103361785
60	0xbe2178a0	-0.15768671
61	0xbe3024c4	-0.17201525
62	0x3ea1068c	0.31450307
63	0x3c545023	0.012958559
64	0xbea04b88	-0.31307626
65	0x3e4f9947	0.20273314
66	0x3d82b959	0.063830085
67	0xbe40b6e2	-0.18819764
68	0x3e9e80a7	0.3095753
69	0xbdda7916	-0.106676266
70	0x3df2e83e	0.11860703
71	0x3ea1d30a	0.31606323
72	0x3df766b3	0.12080135
73	0x3e27ef6a	0.16399923
74	0x3e93e0f2	0.28882557
75	0x3d098a66	0.033579253
76	0xbd169f4e	-0.03677302
77	0x3e38a768	0.1803261
78	0xbe884caa	-0.2662099
79	0xbe1971fa	-0.14984885
80	0xbddc6f26	-0.107633874
81	0xbe93f218	-0.2889564
82	0xbe8e2b43	-0.2776738
83	0xbe1809c1	-0.14847471
84	0xbe936b96	-0.2879302
85	0xbe721ed6	-0.23644575
86	0x3ca3b246	0.019982468
87	0xbe0ce6fe	-0.13759992
88	0x3e78eed1	0.24309851
89	0xbe382632	-0.1798332
90	0x3e634b25	0.22196634
91	0xbf329f8a	-0.6977469
92	0xbe65620a	-0.2240068
93	0x3ee892f7	0.45424625
94	0xbeff77bb	-0.49896035
95	0xbd8981e2	-0.06714226
96	0x3f290109	0.66017205
97	0xbca27df1	-0.019835444
98	0xbf286f51	-0.65794855
99	0x3d952790	0.072829366
100	0x3f03aba1	0.5143376
101	0x3f1f8ddc	0.62325835
102	0x3ef3a97d	0.47590247
103	0xbef310e7	-0.47473833
104	0x3d824514	0.06360832
105	0xbee550db	-0.4478825
106	0xbeebdc28	-0.46066403
107	0x3f07f5dc	0.53109527
108	0xbdd110c9	-0.1020828
109	0x3e9f5a00	0.31123352
110	0x3eb359dd	0.35029498
111	0x3e708365	0.23487623
112	0xbea1f320	-0.31630802
113	0xbe5228b8	-0.20523345
114	0xbd314fa9	-0.04328886
115	0xbc25c2ef	-0.010117277
116	0x3ed186b1	0.40923074
117	0x3e6d6093	0.23181371
118	0x3ee0bb3b	0.43892846
119	0xbed2a5bc	-0.4114207
120	0x3f56a03e	0.8383826
121	0xbe92aeb9	-0.28648928
122	0xbec3347f	-0.3812599
123	0x3edcc648	0.43120027
124	0xbee0d71e	-0.4391412
125	0xbe6e976d	-0.23299952
126	0x3e74616b	0.23865287
127	0xbe72ce16	-0.23711428
128	0xbe0a0e1e	-0.13481948
129	0x3e81194d	0.25214615
130	0xbf3c4c5b	-0.7355401
131	0x3ec8ffe8	0.3925774
132	0xbe9a75e1	-0.3016806
133	0xbe292f39	-0.1652192
134	0xbe3ce2f5	-0.18445952
135	0xbf096fe6	-0.5368637
136	0x3f311340	0.6917
137	0xbe9c319e	-0.30506605
138	0xbe9c59db	-0.30537304
139	0x3ca1cf5b	0.019752195
140	0x3eaa70e4	0.33289254
141	0xb99a1ea8	-0.0002939601
142	0x3e3e89eb	0.18607299
143	0x3e8d982a	0.27655154
144	0x3c219704	0.009862665
145	0x3e512181	0.20422937
146	0xbdd6898a	-0.10475452
147	0xbb4c8da5	-0.0031212356
148	0xbe150e62	-0.14556268
149	0x3e676627	0.22597562
150	0xbdbb12fd	-0.09134481
151	0xbe013738	-0.1261872
152	0x3c82c155	0.015961329
153	0x3df73c70	0.120720744
154	0x3d13720f	0.035997447
155	0x3edebd55	0.43503824
156	0xbec92579	-0.39286402
157	0xbd8cb149	-0.06869752
158	0xbe4ecf84	-0.20196348
159	0x3df68d9e	0.1203873
160	0xbe82ad95	-0.25523058
161	0xbd90e271	-0.0707444
162	0x3e668893	0.22513036
163	0x3e4cd7a4	0.20004135
164	0x3dda1c9d	0.10649989
165	0xbc2f9b2b	-0.010718147
166	0x3e47869a	0.1948494
167	0x3d094093	0.03350885
168	0x3db9abec	0.090659946
169	0xbe8e3d6a	-0.2778123
170	0x3ee76fe5	0.45202556
171	0xbcd0b552	-0.025477085
172	0xbebeeb6a	-0.37288982
173	0xbe08c194	-0.13355094
174	0x3e840242	0.25782973
175	0x3d60f234	0.054918483
176	0x3e863d78	0.26218772
177	0xbeb87b08	-0.36031365
178	0xbe8c347a	-0.27383786
179	0xbe0430d9	-0.12909259
180	0xbd1cf5c9	-0.038320336
181	0xbe1503b8	-0.145522
182	0x3bf48f60	0.0074633807
183	0x3d8f137b	0.069861375
184	0xbd51ed4f	-0.051251706
185	0x3d4eb9f9	0.050470326
186	0x3ef909ec	0.48640382
187	0x3ea342e6	0.31886977
188	0x3eb98ef7	0.36241886
189	0xbd1239f7	-0.03569981
190	0xbca48271	-0.02008173
191	0xbd97fb0f	-0.074209325
192	0xbe009825	-0.12558039
193	0x3c9bee1e	0.019034442
194	0x3e050426	0.12989864
195	0xbe5ee455	-0.2176679
196	0x3d99dc38	0.075127065
197	0xbee6726a	-0.45009166
198	0x3dd11e9d	0.10210917
199	0xbc971e45	-0.01844705
200	0x3e34b846	0.1764842
201	0x3e382d53	0.1798604
202	0xbbd3bc04	-0.006461622
203	0xbda029ee	-0.078204975
204	0x3b06d960	0.0020576343
205	0xbe3d7385	-0.18501098
206	0xbda6b3ac	-0.081397384
207	0xbdb10a12	-0.08644499
208	0x3e544928	0.20731032
209	0x3d508142	0.05090452
210	0xbe9099ef	-0.28242442
211	0xbd7c4d56	-0.06159719
212	0xbe26d5bd	-0.16292472
213	0xbe6dea83	-0.2323399
214	0xbdb6234f	-0.08893453
215	0x3e42349b	0.1896538
216	0x3d94adc5	0.072597064
217	0x3d9b5919	0.075853534
218	0xbecfc915	-0.405831
219	0xbf0fed25	-0.5622123
220	0xbe921b55	-0.28536478
221	0x3e15bc64	0.14622647
222	0xbe8584ce	-0.26077884
223	0x3e120ee9	0.142635
224	0xbf02c6ee	-0.5108479
225	0x3f369f68	0.71336985
226	0xbf7c3591	-0.98519236
227	0x3f5fa69e	0.8736361
228	0x3f0e6118	0.55616903
229	0x3eef3677	0.4672124
230	0xbe337f52	-0.17529038
231	0x3f5917c8	0.8480191
232	0xbeec6d65	-0.4617721
233	0xbe529c3a	-0.20567408
234	0x3f22bb77	0.635673
235	0x3f09f6f2	0.53892434
236	0x3e2a4217	0.16626774
237	0x3d742bad	0.059611965
238	0x3eae42d1	0.34035352
239	0x3d355aec	0.044276163
240	0xbdf4c6b1	-0.1195196
241	0x3e716d59	0.23576869
242	0xbee6c3f5	-0.45071378
243	0xbea38bd6	-0.31942624
244	0x3f1ac30a	0.60453856
245	0xbc5c30aa	-0.013439337
246	0xbea1c9f7	-0.315994
247	0x3c457086	0.012050753
248	0xbf6e0920	-0.92982674
249	0x3c8db031	0.017295929
250	0x3cc9588b	0.024578353
251	0x3f55939f	0.83428377
252	0xbd73edf5	-0.059553105
253	0x3f12d9af	0.5736341
254	0x3e50ccfc	0.20390695
255	0x3e7ed3bb	0.24885456

transformer.layers.0.self_attn.out_proj.bias f4 [32]
0	0x3f90a959	1.1301681
1	0x40042360	2.064659
2	0xbeb70e63	-0.35753164
3	0x3ff75a20	1.9324379
4	0xbcc45ceb	-0.023970088
5	0xbf8c139c	-1.0943484
6	0xbef485dc	-0.47758377
7	0xbf905f56	-1.1279094
8	0x3facadd4	1.3490548
9	0xbeac0989	-0.33601025
10	0x3fc6b87e	1.5525053
11	0x3e881f46	0.2658636
12	0x3f6407b0	0.8907423
13	0x3f831327	1.024022
14	0x3f986cb6	1.1908176
15	0x3f83ffac	1.03124
16	0x3f88aaa3	1.0677074
17	0x3fedfa11	1.8591939
18	0x3f58292d	0.8443783
19	0xbf6c3f7b	-0.92284364
20	0xbf38d934	-0.72206426
21	0x3e6af689	0.22945608
22	0x3ef47bcf	0.47750708
23	0xc00df905	-2.218324
24	0x3f9c67f0	1.2219219
25	0xbe2a0890	-0.16604829
26	0x3f7a3401	0.977356
27	0x3f375b0f	0.7162332
28	0xbd4dddcd	-0.050260354
29	0x3f90d9ba	1.1316445
30	0x3e6c919e	0.23102424
31	0xbf1c347d	-0.6101759

transformer.layers.0.linear1.weight f4 [2048, 32]
0	0x3e4c77aa	0.19967523
1	0x3ce6b840	0.02816403
2	0x3d8c0fac	0.06838927
3	0xbcbebbfb	-0.023282995
4	0x3dbbe6d5	0.09174887
5	0x3ec14f3d	0.37755767
6	0x3d9e2675	0.07722179
7	0xbea7835a	-0.327174
8	0xbea7c810	-0.32769823
9	0x3d1bb38c	0.038013026
10	0xbe78491d	-0.2424664
11	0x3e3c2b58	0.1837591
12	0xbeb497eb	-0.35272154
13	0x3d80c3ca	0.06287344
14	0xbd95e22a	-0.07318528
15	0xbda4a415	-0.08039109
16	0xbe0d62dd	-0.13807245
17	0xbe32f0f8	-0.17474735
18	0x3df2325a	0.1182601
19	0x3eaddc8f	0.33957335
20	0x3db510c8	0.088410914
21	0x3e7a844c	0.2446453
22	0xbd51404e	-0.051086716
23	0x3ea2e092	0.3181196
24	0xbe3b2265	-0.18274839
25	0x3df4a517	0.11945551
26	0xbde3025f	-0.110844366
27	0xbea072b3	-0.3133751
28	0x3e33c706	0.1755639
29	0xbd6e24e3	-0.058140647
30	0x3e75bf07	0.23998652
31	0xbe5c50b8	-0.21515167
32	0xbe6a089f	-0.22854851
33	0x3d0b561f	0.03401768
34	0xbc4ced06	-0.012507683
35	0x3d420007	0.047363307
36	0x3f306782	0.6890794
37	0x3d67a90f	0.05655771
38	0xbdbcc1f7	-0.09216683
39	0x3e511639	0.20418634
40	0x3dc8999f	0.09794926
41	0xbe0106b3	-0.12600212
42	0xbe19a6db	-0.15005057
43	0x3e2b6c39	0.16740502
44	0xbd8b27df	-0.06794714
45	0x3ebf5b99	0.3737457
46	0x3d14d758	0.03633818
47	0x3dc09abd	0.09404514
48	0xbd4d7606	-0.050161384
49	0xbe600d94	-0.2188018
50	0xbd70561d	-0.058675874
51	0xbe18cd12	-0.14921978
52	0x3dd4a3a1	0.10382772
53	0x3daa1a79	0.083058305
54	0x3f024304	0.5088351
55	0x3dffdb32	0.1249298
56	0x3e23a75a	0.15981808
57	0x3e086ce2	0.13322785
58	0xbd545530	-0.051839054
59	0xbe444fce	-0.19171068
60	0x3de1c218	0.110233486
61	0x3e0fa262	0.14026788
62	0x3e0beb1e	0.13663909
63	0x3d0d67e3	0.034522902
64	0x3ce43163	0.02785558
65	0xbe1dba0f	-0.15403007
66	0x3d8e18a6	0.06938295
67	0x3db4a3c1	0.08820296
68	0x3d4d16a9	0.05007044
69	0xbd624fac	-0.055251762
70	0x3dee10c1	0.11624289
71	0xbe4b157b	-0.19832413
72	0xbd864200	-0.06555557
73	0xbd8c7bd0	-0.06859553
74	0x3d4d4d4f	0.050122555
75	0x3e0736dd	0.13204522
76	0xbe62de5c	-0.22155136
77	0xbd35e9a2	-0.044412263
78	0xbe7320ea	-0.23743024
79	0xbdacfce4	-0.084466726
80	0x3d82abe3	0.06380441
81	0xbdd804cf	-0.10547792
82	0xbdb573d6	-0.088599846
83	0x3c35cef8	0.0110967085
84	0x3cf19a40	0.029492497
85	0xbc81e74b	-0.01585736
86	0xbd564396	-0.05231055
87	0xbd220842	-0.039558657
88	0xbe63b107	-0.222355
89	0x3dafb193	0.085787915
90	0xbe47445e	-0.19459674
91	0x3d343dbd	0.04400419
92	0x3ca5acae	0.020223942
93	0xbd30b4a0	-0.043141007
94	0xbe23d2e6	-0.1599842
95	0x3de21be5	0.11040477
96	0x3e3057a6	0.17220935
97	0x3d4dc8d3	0.05024035
98	0x3e15af2f	0.14617608
99	0xbd1622fc	-0.036654457
100	0x3d7009ed	0.058603216
101	0xbe007cbf	-0.12547587
102	0xbddcedc1	-0.107875355
103	0xbdbd48ac	-0.09242377
104	0xbdc55c9f	-0.09636807
105	0x3d876003	0.0661011
106	0xba55ca90	-0.00081554893
107	0x3c0c2c0b	0.008555423
108	0xbdd72ff8	-0.10507196
109	0x3cedb59c	0.029017262
110	0xbe71d438	-0.23616111
111	0xbe48c681	-0.19606973
112	0xbe31dc8e	-0.17369291
113	0xbe208f69	-0.15679707
114	0xbd6557be	-0.05599188
115	0x397c2ea9	0.00024049975
116	0x3ceb24b0	0.028704017
117	0x3de0d293	0.10977664
118	0x3e25966d	0.16170664
119	0x3dab72cd	0.08371506
120	0xbe3d1b0a	-0.18467346
121	0x3dbf76c4	0.093488246
122	0xbc633c75	-0.013869395
123	0xb96ce5ac	-0.00022592273
124	0x3d2b863f	0.041876074
125	0x3c6bc01a	0.014389062
126	0xbe5b2cb3	-0.2140377
127	0xbe22627e	-0.15857884
128	0x3e8cb064	0.27478325
129	0xbf808bdd	-1.0042683
130	0x3de08685	0.109631576
131	0xbf3e4bd3	-0.7433445
132	0xbe634da2	-0.22197583
133	0xbbf7d191	-0.007562824
134	0xbe14a155	-0.14514668
135	0x3d9bd043	0.07608082
136	0xbe48ac35	-0.19596942
137	0x3ddc8e41	0.1076932
138	0xbef4b5ef	-0.47795054
139	0x3e03060b	0.12795274
140	0xbd0aba83	-0.033869278
141	0x3d9d4b1e	0.07680343
142	0xbd2e7885	-0.042595405
143	0x3dc8803b	0.09790083
144	0xbd99783a	-0.074936345
145	0xbdf8b2b4	-0.1214346
146	0xbcee3fcc	-0.029083155
147	0xbd980e89	-0.07424647
148	0x3d70dc0d	0.058803607
149	0xbe32e968	-0.1747185
150	0x3ee127cc	0.43975675
151	0xbf224003	-0.63378924
152	0x3e5b66dd	0.21425958
153	0x3d2fa616	0.042883
154	0xbe6bb17f	-0.23016928
155	0xbdd83017	-0.105560474
156	0x3e0d61fa	0.13806906
157	0x3dbdecf1	0.092737086
158	0x3e39c562	0.18141702
159	0x3e89bbd8	0.26901126
160	0x3e37113e	0.17877671
161	0xba3af29b	-0.0007131488
162	0x3dde2e04	0.108486205
163	0x3bb77112	0.005598196
164	0x3dcebaed	0.10094247
165	0x3c6a3f90	0.014297381
166	0x3de9bb64	0.11412695
167	0x3ddb521e	0.10709022
168	0xbb7b25dc	-0.0038322126
169	0x3cc75811	0.024333986
170	0x3d1a191c	0.037621602
171	0x3cf48bc7	0.029851807
172	0x3d5f48f5	0.054512937
173	0xbddb5e53	-0.1071135
174	0xbd88592c	-0.06657633
175	0xbdd7c876	-0.10536282
176	0xbdcb135a	-0.099158004
177	0x3b3ba1e0	0.002863042
178	0xbd8482e9	-0.06470282
179	0x3e58e1fe	0.21179959
180	0xbc2d9e80	-0.010596871
181	0x3ce37360	0.027764976
182	0x3e1b81e2	0.15186265
183	0x3c3ab638	0.011395983
184	0xbe22e7c0	-0.15908718
185	0x3dab1307	0.083532386
186	0xbda6c37e	-0.08142756
187	0xbd6f5ae0	-0.058436275
188	0xbcc07d14	-0.023497142
189	0xbd9b2705	-0.07575802
190	0xbe4c1092	-0.19928196
191	0xbe3ddcaa	-0.18541208
192	0xbc3de41a	-0.011590028
193	0x3d92acee	0.0716189
194	0x3e8ff581	0.28116992
195	0x3cf664b9	0.030077325
196	0x3c8bc2c0	0.017060637
197	0x3e45556e	0.1927087
198	0xbc5e87b0	-0.013582155
199	0xbe88c41e	-0.26712126
200	0xbe4baf42	-0.19891074
201	0x3cc10b19	0.023564862
202	0xbe671330	-0.22565913
203	0x3d45f2b9	0.04832718
204	0x3cac5825	0.021038124
205	0xbcec6fd5	-0.02886192
206	0xbe8a42bf	-0.27004048
207	0xbe7f3468	-0.24922335
208	0xbe0aaf55	-0.13543446
209	0xbe44aa97	-0.192057
210	0x3e565b61	0.20933296
211	0x3e0f7447	0.140092
212	0x3b763f70	0.0037574433
213	0xbd6638b3	-0.056206416
214	0x3e83687e	0.2566566
215	0x3dd0632b	0.10175165
216	0xbe3bc1e9	-0.1833569
217	0xb8133360	-3.5095378e-05
218	0x3cdf7b00	0.02728033
219	0xbe8c0b95	-0.27352586
220	0x3c2f20fa	0.010689015
221	0xbe1d27a2	-0.1534715
222	0xbde95bed	-0.113944866
223	0xbdfbad68	-0.12288934
224	0xbd343f42	-0.04400564
225	0x3d39b3a8	0.04533735
226	0xbd41c7eb	-0.047309797
227	0xbe73fdc0	-0.23827267
228	0x3d316144	0.04330565
229	0x3dc03e53	0.093868874
230	0x3e426aa3	0.18985991
231	0xbe83f628	-0.2577374
232	0xbd991a10	-0.07475674
233	0x3e31fd93	0.17381887
234	0xbcc891b2	-0.024483535
235	0x3e820f3a	0.25402242
236	0xbd71262c	-0.058874294
237	0x3dfc36a2	0.12315108
238	0x3cb21524	0.021738596
239	0xbcd3a98a	-0.025837678
240	0x3c8fa2c0	0.01753366
241	0xbe530daf	-0.20610689
242	0xbd44d927	-0.048058655
243	0x3dd35727	0.10319357
244	0xbd488aea	-0.048960604
245	0xbce8a823	-0.028400486
246	0xbd208dfd	-0.03919791
247	0x3be7a5e0	0.0070693344
248	0xbe7139cd	-0.23557205
249	0xbc2d6886	-0.010584002
250	0xbbaf78cf	-0.0053549777
251	0xbe0d1dd0	-0.13780904
252	0x3d4d041d	0.05005275
253	0xbe574ee0	-0.21026182
254	0xbe5e01fe	-0.21680447
255	0x3d063ef7	0.03277489

transformer.layers.0.linear1.bias f4 [2048]
0	0xbde99c5c	-0.11406776
1	0xbd2ec6b5	-0.04266997
2	0x3dd69e61	0.10479427
3	0x3d33cdf3	0.04389758
4	0xbdd1bcd1	-0.10241092
5	0xbe603f16	-0.21899065
6	0x3c3eada5	0.01163808
7	0xbe6e82b3	-0.23292045
8	0xbe5d6811	-0.2162173
9	0xbe0e5b08	-0.13901913
10	0xbda894cf	-0.08231508
11	0xbd8ff6f1	-0.07029522
12	0xbe81169f	-0.2521257
13	0xbbe7e669	-0.0070770276
14	0xbe94e2a0	-0.2907915
15	0xbd895bac	-0.06706938
16	0xbe4316e0	-0.19051695
17	0xbe846e46	-0.25865382
18	0xbd216c75	-0.039410073
19	0xbe064e09	-0.13115706
20	0x3c9c3f48	0.019073144
21	0xbe7fe9bc	-0.24991506
22	0xbe940aec	-0.28914583
23	0xbccc4d90	-0.024939328
24	0xbe5fe052	-0.21862915
25	0xbce749eb	-0.028233489
26	0xbd89292b	-0.06697305
27	0xbd3c6321	-0.045992974
28	0xbce3f679	-0.027827488
29	0xbdf7105f	-0.120636694
30	0xbe6e9317	-0.23298298
31	0x3da13456	0.078713104
32	0xbdfbc58c	-0.122935385
33	0xbea5cee9	-0.32384422
34	0xbe8b11d8	-0.2716205
35	0xbe66af9a	-0.22527924
36	0xbe86d559	-0.26334646
37	0xbdf527d1	-0.11970485
38	0xbe034601	-0.12819673
39	0x3cc64cf1	0.02420661
40	0xbe0de379	-0.13856305
41	0xbe53fd36	-0.20702061
42	0xbd334747	-0.043769147
43	0x3dd62277	0.104557924
44	0xbd0e5284	-0.03474666
45	0xbe20f44d	-0.15718193
46	0xbe272079	-0.16320981
47	0xbdad77fb	-0.0847015
48	0xbe9182ec	-0.28420198
49	0xbe1a463d	-0.15065856
50	0xbe15f164	-0.14642864
51	0xbe35fb4a	-0.1777164
52	0xbe43ee6d	-0.19133921
53	0xbdfafd5e	-0.12255357
54	0xbe18a6ea	-0.14907423
55	0xbe206297	-0.15662609
56	0xbd399b1a	-0.045313932
57	0xbe259cbc	-0.1617307
58	0xbe765485	-0.24055679
59	0xbd571f5d	-0.052520145
60	0xbe4ab8db	-0.1979708
61	0xbd2346c8	-0.039862424
62	0xbe5ea6f6	-0.21743378
63	0xbe399bd0	-0.18125844
64	0x3c41ea82	0.011835696
65	0x3a9e1155	0.0012059609
66	0xbe75b5d1	-0.23995139
67	0xbe0c1514	-0.13679916
68	0x3d8d6372	0.06903733
69	0xbe527684	-0.20553023
70	0xbe9125a5	-0.28349033
71	0x3c8acb67	0.016942693
72	0xbe77ba1a	-0.24192086
73	0xbe7fa390	-0.24964738
74	0xbc78af9d	-0.015178588
75	0xbe7e9cd6	-0.24864516
76	0xbd9b50ae	-0.07583748
77	0x3c6df995	0.014524837
78	0x3d0ed8eb	0.034874838
79	0x3ce80859	0.028324293
80	0x3d02ef4e	0.0319665
81	0xbe3ca4c8	-0.18422234
82	0xbe02824b	-0.12745015
83	0x3bfcb795	0.0077123144
84	0xbc8b334f	-0.01699224
85	0xbe54c793	-0.20779257
86	0xbd20d507	-0.03926566
87	0xbe1213d6	-0.1426538
88	0xbe2cb955	-0.16867574
89	0xbe406eb9	-0.18792237
90	0xbe65a78a	-0.22427192
91	0xbe9811c2	-0.29701048
92	0xbe4b8969	-0.19876637
93	0xbd795344	-0.060870424
94	0xbdc04521	-0.09388185
95	0xbdfd9af5	-0.12383071
96	0xbd6f5686	-0.058432125
97	0xbe38e5e5	-0.18056448
98	0xbe39e6ef	-0.181545
99	0x3cccd05b	0.025001695
100	0xbe1e6554	-0.15468341
101	0xbc435c83	-0.011923912
102	0xbe80af59	-0.2513378
103	0xbe4b4e7c	-0.19854158
104	0x3c98fbb6	0.018674713
105	0x3c509b95	0.012732406
106	0x3d6a1f8b	0.057158988
107	0xbe7982bd	-0.24366279
108	0x3cf7df12	0.030257735
109	0xbe44ef92	-0.19232014
110	0xbd739896	-0.05947169
111	0xbdb33347	-0.08750015
112	0x3daf310d	0.085542776
113	0xbe3a33a8	-0.18183768
114	0x3e3e59f1	0.18588997
115	0xbd13b3d4	-0.03606017
116	0x3bca4927	0.006173271
117	0xbd9fc993	-0.07802119
118	0xbe951221	-0.29115394
119	0xbd1f7131	-0.038926307
120	0x3d30a1a9	0.04312292
121	0xbe158704	-0.14602286
122	0xbe52080f	-0.20510887
123	0xbe7caa83	-0.2467442
124	0x3c953a95	0.01821641
125	0xbcc285b7	-0.0237454
126	0xbe673250	-0.22577786
127	0xbcb4ff44	-0.022094376
128	0xbe0f85f1	-0.14015938
129	0xbe4cd5c4	-0.2000342
130	0xbe11de3e	-0.14244935
131	0xbddc7257	-0.10763996
132	0x3bace400	0.005276203
133	0xbe659a48	-0.22422135
134	0xbe360837	-0.17776571
135	0xbd1e10d2	-0.03859026
136	0xbe1afcb2	-0.15135458
137	0xbe1d696b	-0.15372245
138	0xbd0b4cc6	-0.034008764
139	0x3d4fa776	0.050696813
140	0xbe4289cc	-0.18997878
141	0xbd32406c	-0.04351847
142	0xbe49c39c	-0.19703525
143	0xbe88d513	-0.26725063
144	0xbbabead2	-0.0052464986
145	0xbdedc910	-0.11610615
146	0xbe2f3b80	-0.17112541
147	0x3dd4f3ad	0.1039804
148	0xbcc57788	-0.024104849
149	0x3d08b228	0.033373028
150	0x3c3c5e57	0.011497102
151	0xbc334f44	-0.010944191
152	0xbe904638	-0.28178573
153	0xbd8797a2	-0.066207185
154	0xbb553731	-0.0032534117
155	0xbe9485fe	-0.29008478
156	0xbdce3d58	-0.10070294
157	0xbe718c74	-0.23588735
158	0xbe3d0006	-0.1845704
159	0xbe416c01	-0.18888856
160	0xbe33b1a5	-0.17548235
161	0xbe19f3a2	-0.15034345
162	0xbe671d89	-0.2256986
163	0xbe0198fa	-0.12656012
164	0xbd64d5d8	-0.055868
165	0xbe5efd20	-0.21776247
166	0x3cf0406c	0.029327594
167	0xbde94bde	-0.11391424
168	0xbdaa80bf	-0.083253376
169	0xbce27269	-0.027642446
170	0xbdd24a8e	-0.102681264
171	0x3d29c95c	0.041451797
172	0xbdac44dd	-0.08411572
173	0xbe174436	-0.14772114
174	0xbdb0539e	-0.08609699
175	0xbe7dad15	-0.24773057
176	0xbe294f57	-0.16534172
177	0xbe44a986	-0.19205293
178	0xbd77e96e	-0.06052535
179	0xbe824c4a	-0.2544883
180	0xbe5a365a	-0.21309796
181	0xbe7341b9	-0.2375554
182	0x3cebf17d	0.028801674
183	0xbd9abe40	-0.075558186
184	0x3c6c2575	0.014413227
185	0xbe92712d	-0.2860197
186	0xbe0f37d2	-0.13986138
187	0xbdadd3ea	-0.08487685
188	0xbe3b5e28	-0.18297637
189	0xbe4b9eca	-0.19884792
190	0xbe1e9003	-0.15484624
191	0xbea08322	-0.31350046
192	0x3d8748cf	0.06605684
193	0xbdebeea7	-0.11520129
194	0x3dd84169	0.10559351
195	0xbe00a49f	-0.12562798
196	0xbe57abde	-0.21061656
197	0xbe096d45	-0.1342059
198	0xbe44fdd6	-0.19237456
199	0xbe61e742	-0.22060874
200	0xbe0d0f60	-0.13775396
201	0xbe87bd93	-0.2651182
202	0xbdc4bf5d	-0.09606812
203	0x3d807c94	0.062737614
204	0xbe48de55	-0.19616063
205	0x3bd66cf8	0.006543752
206	0xbe762261	-0.24036552
207	0xbe8ed95c	-0.27900207
208	0xbe3d18e3	-0.18466525
209	0x3e27562f	0.1634147
210	0xbd6f4669	-0.058416758
211	0xbdc22c74	-0.09481135
212	0xbdb4e418	-0.08832568
213	0xbe5e07e8	-0.21682703
214	0xbc6f3927	-0.0146010285
215	0xbaa99c02	-0.0012940171
216	0xbd6b9501	-0.057515148
217	0xbdeaae08	-0.11458975
218	0xbe469645	-0.19393261
219	0xbe890fd7	-0.26769897
220	0xbe7995e9	-0.24373592
221	0xbe3ceb84	-0.18449217
222	0xbd2e24a2	-0.042515405
223	0xbdd09d97	-0.10186308
224	0x3d9acfbb	0.07559153
225	0xbd8a53f2	-0.067542925
226	0xbe4be5a1	-0.19911815
227	0xbe8ee48e	-0.27908748
228	0xbe3a84ad	-0.18214674
229	0x3ce2f938	0.027706727
230	0x3d07e4e3	0.033177268
231	0x3de7e13e	0.113222584
232	0xbe54efb0	-0.20794559
233	0x3d82cca8	0.06386691
234	0x3c207bf2	0.009795176
235	0xbd5abe52	-0.05340416
236	0xbe337da6	-0.175284
237	0x3d9de8f5	0.07710449
238	0xbd0935f6	-0.033498727
239	0x3c294b58	0.010332905
240	0xbe54fa2a	-0.20798555
241	0xbe4b2884	-0.19839674
242	0x3b5dec99	0.0033862947
243	0xbd2953f1	-0.04133982
244	0x3db7d08c	0.08975324
245	0x3d6e31fe	0.058153145
246	0xbdbf4ab6	-0.09340422
247	0xbd98d4c7	-0.07462459
248	0xbdeaba23	-0.11461284
249	0xbe16cdb0	-0.14726901
250	0xbd8345b7	-0.064097814
251	0x3cf270f8	0.029594883
252	0xbe51f599	-0.20503844
253	0xbe401d95	-0.18761285
254	0xbdba2a70	-0.090901256
255	0x3c55d67d	0.013051626
