models/model_epoch_5.pth (torch, 581156 bytes, 18 tensors)

conv1.weight f4 [16, 8, 3]
000000 25 5b c7 3d 6b bc 13 be 60 96 2b 3b 67 f5 54 3e
       0.09734181 -0.14427345 0.002618216 0.20796739
000010 cc 65 3a 3d ec 42 4b bd 48 1e 28 3e b4 e6 99 bd
       0.045507237 -0.04962437 0.16417801 -0.07514706
000020 d4 c8 46 3e a6 03 00 3d 83 e4 31 3e fd 4d 05 be
       0.19412547 0.03125348 0.17372327 -0.13018031
000030 08 6d 30 be 99 aa be 3d b2 df 72 bd a8 4c 18 be
       -0.17229092 0.09309883 -0.059295364 -0.14872992
000040 17 2f 30 3e 33 f4 35 bd 24 35 36 be 78 04 35 3e
       0.17205463 -0.04442234 -0.17793709 0.17677486
000050 4f ed d0 3d 80 cf a5 3d d2 0e 92 bd e4 23 14 3e
       0.10201513 0.08096218 -0.07131733 0.14466816
000060 46 ca 4d 3e 90 dd 44 3e 9e cc 74 3d bf 38 f2 3d
       0.20096692 0.19225144 0.05976545 0.1182723
000070 4d 55 fa bd f0 af a2 3d df ca d8 3d 1f d9 03 be
       -0.12223301 0.07943714 0.105855696 -0.12875794
000080 6f 60 80 3d d3 57 37 bd c5 4f 1f 3e 3d 43 05 be
       0.06268393 -0.04476149 0.15557773 -0.1301393
000090 4b ea dc 3d 82 ec 91 3d de ae 86 bc e9 f9 f2 bd
       0.10786875 0.071251884 -0.016440805 -0.11864073
0000a0 c2 f0 f9 3b 6c 87 1e be 7e be a7 3d 30 e4 0b be
       0.0076275775 -0.15481347 0.081906304 -0.13661265
0000b0 07 10 63 bc b7 ab 1d bd a3 a8 03 3e 5a 9c b0 bd
       -0.013858802 -0.03849384 0.12857299 -0.08623572
0000c0 7e 1a 49 be bb bb 47 bd 0a 72 b8 bd 3c 6b 96 be
       -0.19639012 -0.048763018 -0.09006126 -0.29378688
0000d0 8e bb 7d be a8 1d 39 3e 57 d9 0d be 57 50 ed 3b
       -0.24778578 0.18077719 -0.1385244 0.0072422433
0000e0 22 fa a2 bd ad 5f 14 3e bc a7 c3 bd 83 c8 0a 3e
       -0.07957865 0.14489622 -0.09553477 0.13553052
0000f0 84 7d c0 3c 43 78 34 3e ce 7a 54 3d af 86 e9 3c
       0.02349735 0.17624001 0.05187493 0.028506605
000100 45 7d ff 3d 04 1f 30 be 51 cf 37 be 8d 89 e9 bd
       0.12475065 -0.17199332 -0.17950179 -0.11403189
000110 49 33 06 be 65 2f 8c bd f8 3f c3 bd f4 d9 03 3d
       -0.13105501 -0.06844977 -0.095336854 0.03219028
000120 e1 b8 3b 3e 1b 9a c3 b9 e4 1a 05 be fe 20 24 3e
       0.18332244 -0.00037308116 -0.12998539 0.1602821
000130 54 f2 34 3e 0a bf 91 3d 48 f9 b8 3d 3c 00 2a 3e
       0.17670566 0.07116516 0.090319216 0.16601652
000140 c2 ea 0f 3e 90 5c e2 bd db f6 4b 3c 32 af c6 bd
       0.14054397 -0.11052811 0.012448992 -0.097013846
000150 41 48 82 bc 4a 41 f8 3c 9c 6c cd 3d 44 28 e3 3c
       -0.015903594 0.03030457 0.10030481 0.027729161
000160 b9 fb 1e 3e b6 93 96 bd 9d 3d 4e be 8a 4f 38 3e
       0.15525712 -0.073523924 -0.20140691 0.17999092
000170 a5 e3 1d 3c 89 78 d2 bd 71 1c 95 bc ab cc b4 3d
       0.009636794 -0.102768965 -0.018202038 0.088281
000180 fc b5 7c bd f5 72 3c 3e 5a 18 1a be 9f f2 a7 bd
       -0.06169699 0.18403228 -0.15048352 -0.08200573
000190 6f e2 25 3e 1e 5d 85 3d 83 57 94 3c 89 09 43 3e
       0.16199659 0.06511901 0.018108135 0.19046606
0001a0 eb 33 cb bd e9 7a 0f 3e 22 5c 25 bd e3 c5 8d 3c
       -0.09922012 0.1401173 -0.040371068 0.017306274
0001b0 08 40 c0 3d 31 50 0a 3d 07 44 6c 3c b7 30 04 be
       0.09387213 0.033767883 0.014420516 -0.12909208
0001c0 f1 90 96 bd 82 77 e2 bd 99 cc ba 3d 20 4b 90 3d
       -0.07351864 -0.110579506 0.09121055 0.07045579
0001d0 2c 34 15 3e d7 2d 24 be c9 f8 b8 bd 94 79 a5 3d
       0.14570683 -0.16033112 -0.09031827 0.0807983
0001e0 9c 96 ef 3d 69 46 76 3c bc 58 65 3d a5 4c c0 bd
       0.11698648 0.0150314355 0.055992827 -0.09389619
0001f0 2c 7d 5a b9 98 8d 09 be dd 36 05 3e 56 28 31 3e
       -0.0002083673 -0.1343292 0.1300921 0.17300543
000200 62 73 93 bd d1 9d b3 3d b2 44 67 bd c8 c6 78 3c
       -0.07199742 0.087703355 -0.056461997 0.015184112
000210 6c 12 77 3e bd e0 8d bd cb 6b 1f 3e 80 8e 2c be
       0.24128121 -0.06927631 0.15568464 -0.16851234
000220 c2 c1 f2 bc f0 7e 06 be 43 d5 2d 3e 21 23 17 be
       -0.029633407 -0.1313436 0.16975884 -0.14759494
000230 ea 38 e6 3c fa 82 d0 bd 1f 68 9b 3b f5 86 06 be
       0.02810331 -0.10181232 0.004742637 -0.1313742
000240 06 79 c7 3d b7 0d 50 3e 06 04 70 3c ed 0f da bc
       0.0973988 0.20317732 0.014649397 -0.026618922
000250 60 01 b8 3c 4c 3a 66 bc f9 39 28 be b2 41 27 bd
       0.022461593 -0.014051985 -0.16428365 -0.040834136
000260 51 54 c4 bc 0e fc b6 bd fe 93 46 3e b8 4d e4 3d
       -0.023965986 -0.08934794 0.19392392 0.11147636
000270 30 57 76 3d 92 aa 0c 3e ee 86 e8 3d ba a7 d2 bd
       0.060141742 0.13736942 0.11353861 -0.102858976
000280 b4 52 34 3e 5a a2 f3 bd 43 ab cc bd 22 9c 47 3e
       0.17609674 -0.118962005 -0.09993603 0.19493154
000290 cb 87 e4 3d 28 ec 47 3e 34 a1 41 3c 70 d1 74 bd
       0.11158713 0.1952368 0.011818219 -0.059770048
0002a0 44 16 23 3e a9 f9 90 3c 97 84 83 bd 9c c6 74 3d
       0.15926462 0.017697172 -0.06421774 0.05975972
0002b0 22 5c 89 3e c3 78 06 3d 09 22 f6 bb de 90 24 bd
       0.26828104 0.03283001 -0.0075113815 -0.04017722
0002c0 99 77 ff bd 4f e3 bb 3d 6c 6b 3b 3d 21 5a 34 3d
       -0.12473983 0.09174215 0.045756742 0.044031266
0002d0 8a a9 7c bd 7b db 15 be b5 4c 51 3e 29 2e 7e 3e
       -0.061685123 -0.14634506 0.20439418 0.24822296
0002e0 da 2b ac 3d 08 43 06 3d ad 7f e3 bc 10 27 0c 3f
       0.084068015 0.03277877 -0.027770841 0.54747105
0002f0 3d 0b 9f 3c be de 09 bc 5e d8 3a 3e 41 4f 03 3e
       0.019414539 -0.008414922 0.182466 0.12823202
000300 54 08 92 bd 08 32 d1 3b cc 62 09 bd 0a 40 99 3d
       -0.07130495 0.006384138 -0.033541486 0.074829176
000310 dd f6 c7 3d 27 c5 d7 bd bf ad 16 3e 45 c2 67 3d
       0.09763882 -0.10535651 0.14714716 0.056581754
000320 09 46 22 be c1 28 29 be 03 12 7a 39 c2 66 9c bd
       -0.15847029 -0.16519453 0.00023848568 -0.07636787
000330 91 cd a1 3d fa f3 a6 bb 0d f4 4c 3e 40 94 37 be
       0.07900537 -0.0050950022 0.20014973 -0.17927647
000340 7d 40 56 be bc 53 f8 bd 7b fc 14 be 9f da 3c 3d
       -0.20923038 -0.12125346 -0.14549439 0.04610693
000350 60 ac 47 3e e8 d7 b1 39 54 15 d5 bd 15 d5 6c 3d
       0.1949935 0.00033920933 -0.10404459 0.0578204
000360 92 8a dc bd 51 7d 6a 3d 32 02 44 3e d2 a8 33 bd
       -0.10768618 0.057248417 0.19141462 -0.04386217
000370 85 23 d5 3d c5 cb fe bd b7 2f 48 3d b8 ff 91 3d
       0.104071654 -0.1244121 0.04887363 0.071288526
000380 15 da 44 be 0d 6a a1 bd 57 fc 09 3e ba fd 0d 3e
       -0.19223817 -0.07881556 0.13475166 0.1386632
000390 e2 1c 49 bd 39 0b d3 3d 59 dc e5 bd af a2 bc bd
       -0.04909981 0.10304875 -0.112236686 -0.09210717
0003a0 f6 20 8b bd ff 96 13 3e 49 f5 cc 3d b1 e8 ac bd
       -0.06793396 0.14413069 0.10007722 -0.0844282
0003b0 59 ab b2 bd 74 ed fd 3d 43 00 10 be bf 67 c9 3d
       -0.08724088 0.12398806 -0.140626 0.09834241
0003c0 1f 9a 13 3e b9 9c 1c 3e f5 e1 90 bc b4 1b 4d bd
       0.14414261 0.1529416 -0.01768587 -0.050075248
0003d0 a1 7c 31 bc 6b d6 bc 3e b2 3f e4 bd a2 fd 1b be
       -0.0108329365 0.36882338 -0.111449614 -0.15233472
0003e0 27 20 23 3d a2 65 76 be 75 15 8a be f7 2b 40 bd
       0.039825585 -0.24062207 -0.26969495 -0.04691693
0003f0 0e e0 0c be 4a f8 56 bd 59 20 31 3d ea 44 52 3e
       -0.13757345 -0.05248288 0.04324374 0.20534101

conv1.bias f4 [16]
000000 c8 ca fd 3c b3 2b 50 3e 4f 76 93 bc 0a d8 1b 3e
       0.030980483 0.2032917 -0.01800075 0.15219131
000010 d6 ba 50 be e6 b2 a6 bd 7d 14 db bd 42 2a 42 bd
       -0.20383772 -0.08139591 -0.10697267 -0.04740358
000020 7e 06 0d be cd 2c 21 3e a3 34 8e bd 7e 22 57 be
       -0.13772008 0.15739746 -0.069436334 -0.21009251
000030 d4 78 84 bd ff 51 03 3d 0b 1c 0f 3e 91 a0 0c 3e
       -0.06468359 0.03206062 0.13975541 0.13733126

conv2.weight f4 [32, 16, 3]
000000 9c 49 ca 3d af 22 9f 3d ce ae 7d bd 13 3d 18 bd
       0.09877321 0.07770287 -0.061934285 -0.03716762
000010 e8 78 02 3e 47 39 da bb 9a 51 a3 bd 7a 41 79 3d
       0.12741435 -0.00665966 -0.07974549 0.06085346
000020 32 a5 9f bd db b6 b0 bd 30 fa ba bd 74 01 fc bd
       -0.077951804 -0.08628627 -0.09129751 -0.12304965
000030 d9 18 1d bd 24 77 12 be 6d 16 7b 3b 4b 08 5b 3d
       -0.038353775 -0.14303261 0.0038312927 0.053474706
000040 67 f3 ce bd 4f f6 46 bc f3 25 ae bd a7 0e e9 bc
       -0.10105019 -0.0121436855 -0.08503332 -0.02844937
000050 5f 87 19 bd 5f 4d dd 3d 83 65 8c bd 1d 33 cc bd
       -0.037482616 0.10805773 -0.06855299 -0.099706866
000060 00 e6 fe bd 0b 0f 42 bd 2e b5 57 3c 8d 91 82 3c
       -0.12446213 -0.047377627 0.013165755 0.015938545
000070 b8 d1 90 3d 01 26 6c bd 23 bc f0 bd 3e 76 ee bd
       0.07071251 -0.05765343 -0.11754634 -0.11643647
000080 18 cf 50 be 83 99 58 3d c5 c1 00 bd d3 cc 4f be
       -0.203915 0.052880775 -0.031434793 -0.20292978
000090 40 cf 98 3d fa eb 33 bd 92 e6 ee 3d 57 b7 29 bb
       0.07461405 -0.043926217 0.116650715 -0.0025896633
0000a0 6f 65 65 3d 59 b3 ae 3d df 45 8f bd f0 c8 12 3e
       0.056004938 0.085303016 -0.06995749 0.14334464
0000b0 2b f8 9f bd 8e e1 a5 bc 38 26 f8 3d e6 1e 8d bc
       -0.07811006 -0.020249154 0.12116665 -0.017226648
0000c0 f0 3f 0d be da f3 8f 3d 83 21 28 3e 0e d0 d8 3d
       -0.13793921 0.07028933 0.16419034 0.10586558
0000d0 19 d0 48 3d a8 91 8e 3d f0 31 21 be 43 1a bc bd
       0.049026582 0.069613755 -0.15741706 -0.091846965
0000e0 a4 3d 33 bd be 52 8c 3d d3 95 0f be 02 e7 12 3c
       -0.043759957 0.06851719 -0.14021997 0.008966209
0000f0 03 37 cb bd 71 09 dc 3d 0a b3 3c bd 20 1c c3 bd
       -0.09922602 0.10743988 -0.046069182 -0.09526849
000100 56 c0 df 3d 62 6a 83 3d 0b 01 ac bd aa 15 8f 3c
       0.10925357 0.06416775 -0.083986364 0.017466385
000110 c7 49 9c bd 10 69 2f bd 68 b6 9b 3d b9 93 b2 3d
       -0.076312594 -0.042824805 0.076031506 0.08719582
000120 6a d2 32 bc 77 ee 51 bd ea eb e9 bd 82 72 da bd
       -0.010914424 -0.05125281 -0.1142195 -0.10666372
000130 89 18 a1 bd d9 4d 12 3e 73 6e 3f 3b 1f 46 09 be
       -0.07866008 0.14287509 0.002921012 -0.13405655
000140 da eb 63 3e b0 08 c6 bd e2 b0 34 bd 05 c8 ee bc
       0.22257939 -0.09669626 -0.044114 -0.029148111
000150 fb 6e b4 bc 2c 83 92 bd 8f d9 f6 3d 88 c4 c5 bc
       -0.022025576 -0.07153925 0.12053215 -0.024141565
000160 78 b9 29 3d 68 f3 c8 3d ea bb 39 bd 58 74 89 bb
       0.041436642 0.09812051 -0.045345224 -0.0041947775
000170 15 8a 4f bd a5 01 4c bd 25 cc d2 bd ac 13 e2 3d
       -0.050668795 -0.049806256 -0.10292844 0.11038908
000180 21 ee 99 bd 5e 65 a0 bc dc e6 a7 3c 2d d5 21 3d
       -0.075161226 -0.019579586 0.020495825 0.03950994
000190 8d 51 30 3d 89 9a 1f bd af 23 ea bd 7e bb bd bc
       0.043046523 -0.038965736 -0.11432587 -0.023160692
0001a0 33 47 fe bd 5c eb 30 bd 1c d6 b6 bd 46 6f d5 3d
       -0.12415924 -0.043193206 -0.08927557 0.10421614
0001b0 6f 5c 6a 3d 33 e5 72 3c d4 42 0b 3e 05 98 f5 3d
       0.057217058 0.014825153 0.13599712 0.11991886
0001c0 d6 d4 52 bd 94 2c f9 bc 11 ab 57 3c 18 eb e7 3b
       -0.051472507 -0.030416764 0.013163344 0.007077586
0001d0 89 31 0b 3d e8 5d de 3c 40 7a b7 bc 98 8d 2d bc
       0.033982787 0.027144387 -0.02239716 -0.010592841
0001e0 a2 4f 92 bc 6c 26 59 3d 3c 7a e0 bc ec b0 63 3c
       -0.017860238 0.053015158 -0.027402036 0.013897162
0001f0 bb f4 d4 bd e5 24 f9 bc 69 ee e7 bd 80 32 06 be
       -0.10398241 -0.0304131 -0.1132477 -0.13105202
000200 c5 6f 15 bd 6f 08 b2 bd a7 d0 b2 bd b7 77 96 3d
       -0.036483545 -0.08693015 -0.087312035 0.073470525
000210 c5 e4 40 3a 16 56 6f bd 0c 1e 94 3d 8b f2 cd 3c
       0.0007358308 -0.058431707 0.072322935 0.025140068
000220 d2 1a 6f 3d f1 73 8d bd 0a dc 61 bd d8 da 8c 3c
       0.058375187 -0.0690688 -0.055141486 0.017194197
000230 f6 c4 de 3d 30 01 12 3e 54 a6 47 bd e7 af ca 3d
       0.10877411 0.14258265 -0.048742607 0.09896832
000240 f0 11 c1 be 5d 4b 9d 3e 31 b9 05 bc 2c 94 e2 bd
       -0.37708998 0.3072156 -0.008161829 -0.11063418
000250 7a 87 c5 3c 19 d2 eb 3d 06 13 c0 3c 33 4b b5 be
       0.024112452 0.11514682 0.023446571 -0.35408935
000260 4c 23 99 bc 84 63 04 be 71 48 9c bd 5a d6 98 3d
       -0.018693589 -0.12928587 -0.076310046 0.07462759
000270 e1 e7 1a 3b 43 6f b7 bd 38 14 c3 bb 27 0c 1d be
       0.0023636746 -0.08956768 -0.005953338 -0.15336667
000280 bc bc bd bd 2e a1 95 bd d0 ec 06 be 4c 9b 0b bd
       -0.09264514 -0.07306133 -0.13176274 -0.03408365
000290 23 f0 f7 bd fe 04 2f be c3 1a 9d bd 81 e9 ad 3c
       -0.12106349 -0.17091748 -0.0767112 0.021229507
0002a0 e4 95 12 bc e1 7b 7d 3d 32 50 0f 3e 3a dc ea bd
       -0.0089468695 0.06188572 0.13995436 -0.11467786
0002b0 ec e7 c8 bd b1 4e 8e bc 08 65 0d 3d e9 a8 9c bc
       -0.098098606 -0.017371507 0.03452018 -0.019123511
0002c0 56 6c 03 be d9 c5 d9 bd 41 80 60 3e f6 4d 83 bc
       -0.12834296 -0.106334396 0.21923925 -0.016028386
0002d0 50 6c c6 3d 7e 67 ce bd 0a 89 0d 3e 94 d7 b5 3d
       0.09688628 -0.10078333 0.13821808 0.08879009
0002e0 ea ec 84 3d 59 8a 81 3c 3a e3 de 3d 43 77 33 bd
       0.064905 0.01581304 0.10883184 -0.04381491
0002f0 18 1f f9 3d d9 af d4 bd cc 71 b8 3d d5 25 45 3d
       0.12164134 -0.10385103 0.0900608 0.048131783
000300 80 c2 11 bd fa ef 62 bc e6 b6 2b 3b f1 97 05 be
       -0.03558588 -0.01385116 0.0026201545 -0.13046242
000310 e7 52 8b 3d 63 0d a2 3d 7d b5 fb 3c 19 fd 05 bd
       0.06802922 0.079127096 0.030726189 -0.032712076
000320 c2 26 bd 3c 80 66 36 3c ae 3b ea 3d ed 5e 21 3d
       0.02308977 0.011132836 0.11437164 0.03939717
000330 a1 a4 aa b9 03 6e 12 3e 68 c2 a8 bd e7 1a 07 3e
       -0.00032547585 0.14299779 -0.08240205 0.13193856
000340 5d 03 49 3d 78 9c ff bd 88 10 b5 3d 76 a9 d8 ba
       0.049075473 -0.12481016 0.08841044 -0.0016529995
000350 35 55 dc bc de 00 91 be 73 77 8f bd 6b 81 1d be
       -0.026896099 -0.28320974 -0.07005205 -0.153814
000360 9c 0b 9c 3c fd 22 9c bd b2 e8 20 bd 51 fe dd bc
       0.019048505 -0.07623861 -0.039284416 -0.027098807
000370 02 1d 86 3d b4 1b 03 3e ce 28 fb bd 3d fa 3b be
       0.065485016 0.12803537 -0.12263642 -0.18357177
000380 9f 5a 74 be 55 7c 3f be 05 e0 ed bd 33 cd 87 3a
       -0.23862694 -0.18699773 -0.11614994 0.0010360837
000390 46 30 74 3d c0 79 4e 3d 72 be 59 3d 70 be 8d bd
       0.05961635 0.05040908 0.05316014 -0.06921089
0003a0 ac fe 1f 3c 9f ef 04 3b 95 69 4a bd 07 fa 63 3a
       0.009765308 0.0020284427 -0.049417097 0.000869662
0003b0 b1 be 9a bd 0a 09 fb bc 76 4f e8 bd 18 99 c4 bd
       -0.07555903 -0.030643959 -0.11343281 -0.09599513
0003c0 79 eb 28 be cc 72 99 3b 30 31 b7 3d 37 39 f3 3d
       -0.16496076 0.0046828743 0.08944929 0.11876147
0003d0 b2 16 ac bd 36 20 53 bc 01 68 38 be e3 f7 c5 3c
       -0.08402766 -0.012886098 -0.18008424 0.024166053
0003e0 1f d3 86 3d 16 6b b8 3a 32 60 27 3d 10 e9 f4 bc
       0.06583237 0.001407 0.040863223 -0.02989629
0003f0 85 89 c2 3d 66 89 ad 3d a8 3c 78 bc c0 66 0a 3c
       0.09498886 0.08473472 -0.01515118 0.008447349

conv2.bias f4 [32]
000000 5f 8f e1 bd 88 c1 12 be 93 71 31 be 37 8e a6 3c
       -0.11013674 -0.14331639 -0.17328481 0.020331485
000010 c9 88 54 39 cc 08 7a be b7 a3 4c be f7 c5 36 3d
       0.00020268852 -0.24417418 -0.19984327 0.044622388
000020 ce 78 82 3d ee 8e 78 bc b2 31 f6 bd 0f 2a d4 3d
       0.06370698 -0.015170796 -0.120211974 0.103595845
000030 86 94 62 be 3e cb ef 3d e8 a5 28 be 51 95 19 3e
       -0.2212697 0.11708687 -0.16469538 0.14998366
000040 a1 dc b6 bd d1 01 1f be 6d 64 3b 3e ae 70 59 bd
       -0.089288004 -0.15528037 0.18300028 -0.053085975
000050 e2 ac 30 3e 5a d0 d3 bd b4 c3 00 bb ab fc ff 3c
       0.1725345 -0.10342474 -0.0019647898 0.031248411
000060 96 6e 21 3c ad fd 10 be bd e0 dc 3d 3d 5f c5 bc
       0.009853026 -0.1415927 0.10785053 -0.024093265
000070 f6 11 3f 3d a5 ce 35 be 17 89 21 3d 2b 5e 00 3e
       0.04664799 -0.1775461 0.03943738 0.12535922

transformer.layers.0.self_attn.in_proj_weight f4 [96, 32]
000000 a6 79 ac 3e c6 e4 e0 3e 77 c0 8e 3d 44 48 ee be
       0.3368656 0.4392454 0.069703035 -0.4653951
000010 58 ec 20 bd 23 4d 96 bd f0 48 bf 3d 2a b3 80 3e
       -0.039287895 -0.073389314 0.093400836 0.2513669
000020 a1 09 3a 3e 71 8d ed 3d 0e 29 61 3f bb d1 a2 3e
       0.18167736 0.115992434 0.8795327 0.31800637
000030 b8 4e 92 3e 26 ef 5a 3f f7 97 bc 3e 4e 49 09 3f
       0.28575683 0.8552116 0.3683469 0.5362748
000040 66 04 b8 3e a8 8d 48 3e a0 4e e9 bb e1 36 28 bd
       0.35940856 0.19585288 -0.0071199685 -0.04106796
000050 8f 95 89 3e a1 a0 b4 3e ca a6 88 3e 86 46 b1 3d
       0.26871917 0.352788 0.2668975 0.086560294
000060 e2 6c 7a 3e 72 a4 87 3e 32 2f 32 3f e6 1e 8e 3e
       0.24455598 0.2649265 0.69603264 0.2775795
000070 c1 42 a5 3c 23 4f 9a 3d 07 76 cd 3e 1b a8 cb 3e
       0.020173432 0.075346254 0.4012911 0.39776692
000080 89 1f 7f bd 4b 43 c6 be 31 25 b4 bd 4e ef 0b be
       -0.062285934 -0.38723215 -0.08796156 -0.13665506
000090 ba 70 c9 3c 0e 89 6c be 74 5c 2f be 33 ad 72 be
       0.024589885 -0.23099157 -0.17125112 -0.23698883
0000a0 ca 27 34 bc 5d 24 cd 3d 02 75 03 bf 3e c0 0e be
       -0.010995815 0.10016701 -0.51350415 -0.13940522
0000b0 00 78 c2 be a7 d8 37 bf 42 0c 80 3d 5b 25 6d be
       -0.37982178 -0.7181496 0.06252338 -0.23158781
0000c0 bc 26 58 be fe 04 8d 3c 44 f7 dc bd 64 94 85 3e
       -0.21108526 0.017214295 -0.1078935 0.26089776
0000d0 03 62 1b 3e f8 97 88 bd 56 57 84 be d1 f6 9b be
       0.15174107 -0.06669611 -0.25847882 -0.30461743
0000e0 9c 04 8d be 48 7d c3 be 07 29 2b be 89 16 69 be
       -0.2754258 -0.3818152 -0.1671487 -0.22762503
0000f0 a3 2b aa 3d 21 3d ad ba d7 d2 61 be 7b 46 f6 bd
       0.08309104 -0.001321707 -0.22053085 -0.12025162
000100 33 62 e1 bd 81 e8 b8 3e 78 4c f5 3d 37 8d 34 3e
       -0.11005058 0.36114886 0.11977476 0.17631994
000110 dc d4 85 bd d8 e4 2f 3e b4 6f fa bd 61 82 8a 3e
       -0.0653474 0.1717714 -0.12228337 0.27052596
000120 f0 ed b0 bd c2 92 83 bc 37 c1 85 3e 52 34 b9 bd
       -0.08639133 -0.01606119 0.26123974 -0.090431824
000130 f4 6a d0 3d 01 24 20 3e fc 86 b6 bd 40 af ed 3e
       0.1017665 0.15638734 -0.08912465 0.46422768
000140 06 0d cd 3d 26 7a d8 bc cc c1 61 3e b9 2b 0f be
       0.1001225 -0.026425432 0.22046584 -0.13981523
000150 79 77 36 3e be 6c d4 3b 2d e2 59 3d 30 a4 af 3d
       0.17819013 0.0064826896 0.053194214 0.08576238
000160 f4 04 45 bd 6c 7c 64 3e 46 66 fd 3e 63 34 a1 3e
       -0.048100427 0.22313088 0.4949209 0.3148528
000170 f4 31 65 3e 53 27 ac 3d ad 55 ae 3e 21 16 26 3e
       0.22382337 0.08405938 0.3404974 0.16219379
000180 21 d0 c4 be 6e a0 e5 be 5c 43 56 3e e4 da 65 3f
       -0.3844004 -0.4484896 0.20924133 0.89787126
000190 d7 2d 40 be a3 4d 24 3e d3 47 24 bd b1 2b 25 be
       -0.18767487 0.16045241 -0.04010756 -0.16129948
0001a0 92 8d 8d 3c a7 f0 0f be ab 55 ff be c1 23 cd bd
       0.01727942 -0.14056645 -0.49870047 -0.10016585
0001b0 02 2c 2a be d7 23 6b bf e0 1a 2e be 49 41 74 be
       -0.1661835 -0.9185156 -0.1700244 -0.2385303
0001c0 57 3e 7c be 7d b6 20 be ef 9c 37 3d 3a ba b0 3e
       -0.24633156 -0.15694614 0.044827398 0.3451708
0001d0 5f 45 74 be d9 f3 af be 4c 84 fb be dc e9 9c be
       -0.23854588 -0.34365728 -0.49124372 -0.3064717
0001e0 6a 91 04 3e bb 4b cd be 03 4e fa be 2d 47 a7 bd
       0.12946096 -0.4009684 -0.48887643 -0.081678726
0001f0 ae f0 56 3d 67 f8 c7 3d 11 3c df be 3c e6 c8 bd
       0.052475624 0.09764176 -0.43600515 -0.09809539
000200 5b c1 35 3d e1 12 9e bd d4 8c e3 bd 2d 32 9c bd
       0.04437385 -0.077184446 -0.11110845 -0.07626758
000210 03 33 d4 bd 50 31 76 3c f6 d9 0d 3e 8c 95 2b 3d
       -0.10361292 0.015026405 0.13852677 0.041890666
000220 22 0c b1 3d 84 0f 34 be 14 7f 91 3e b1 9b 2d be
       0.08644892 -0.17584044 0.28417265 -0.16953923
000230 d8 0b 2a bc 54 df 18 3e d1 ac 81 3d cc 0f cd 3d
       -0.0103788 0.14928943 0.0633179 0.10012779
000240 5e f8 27 3d c9 94 36 be d6 22 bb be 1e 96 bf 3d
       0.041008346 -0.17830195 -0.36550015 0.093548045
000250 6e 7f ae 3d 06 fa 91 3e 6b b2 3b be 2a 54 2f bd
       0.08520399 0.28511065 -0.1832978 -0.042804874
000260 25 ed 80 3e ef 2c da bc f1 1e 7a bd bb 6e b3 3e
       0.25180927 -0.026632754 -0.061064664 0.35045418
000270 a2 ad 97 be 68 db 2a bd fc 54 2e 3e 35 b2 fe 3d
       -0.2962466 -0.04171315 0.17024606 0.12436334
000280 ee e0 00 be 0f f7 58 be 3f 0a 09 3d a4 73 36 be
       -0.12585804 -0.21187995 0.033457037 -0.17817551
000290 7d 8f 96 bd 3a 64 04 be 60 a0 ea 3d df 0a 55 bd
       -0.07351587 -0.12928858 0.1145637 -0.05201232
0002a0 92 25 1f be 1a 2d 3d bd 6d 79 99 be 62 75 87 3e
       -0.15541676 -0.04618559 -0.29975453 0.26456743
0002b0 07 01 de 3c 1b a8 9d be d2 99 83 be 04 ce 35 be
       0.0271001 -0.30792317 -0.25703293 -0.1775437
0002c0 62 a0 0c be fe 60 53 3d 6f 62 1b 3e f0 97 a2 bd
       -0.13733056 0.05160617 0.15174268 -0.07939136
0002d0 86 76 ae 3d 6f eb d5 ba 48 a7 3c 3d b2 16 a3 be
       0.085187 -0.0016320775 0.04605797 -0.31853253
0002e0 5b 72 52 be 3e fa f6 3d 0f 70 e5 3b 28 6f 9a be
       -0.20551436 0.12059449 0.007001884 -0.3016293
0002f0 0e 14 6a bd 6d 10 bb be 3b d2 aa 3c a5 e6 46 be
       -0.057148032 -0.3653597 0.020852199 -0.19423921
000300 a4 18 73 be 04 15 81 be c1 ce 89 3c 8c 64 ba bd
       -0.23739868 -0.25211346 0.01682222 -0.09101209
000310 04 57 b2 be c8 d1 c6 3d ca 7b 4b be 6a 29 71 be
       -0.34832013 0.09707981 -0.1987144 -0.23550954
000320 d1 62 9d bd 49 e0 9c bd b7 07 1c be da e4 ff 3d
       -0.07684863 -0.076599665 -0.15237318 0.12494822
000330 44 7a 40 be 12 06 dc be 22 1d e9 bd 95 ef bc be
       -0.1879664 -0.4297338 -0.1138251 -0.36901537
000340 4d d8 d8 be aa c0 7a 3d e5 8d d2 bd 13 40 8e be
       -0.42352524 0.061218895 -0.102809705 -0.2778326
000350 80 cd c4 3d ce 84 2b be 78 bd b6 3d 76 fd ae bd
       0.096095085 -0.1674988 0.08922857 -0.085444376
000360 4a 7f 97 be c1 35 69 bd 76 ca 4e be 8c 56 a8 be
       -0.295893 -0.05693603 -0.2019442 -0.3287853
000370 cc b0 57 3e a8 1d 97 bd d2 d2 5c be 38 49 23 be
       0.21063536 -0.07378703 -0.21564797 -0.159459
000380 34 57 a6 bd 65 a3 30 be 7f 88 be 3d 7a ac a5 bd
       -0.081221014 -0.1724983 0.09303378 -0.08089538
000390 73 cc 72 be bf e5 6f be ba af 9d 3c 51 73 f1 be
       -0.23710804 -0.23427485 0.019248832 -0.47158292
0003a0 34 6f 4e bc c9 ea bd bd 2c d2 84 be bb 53 ad 3e
       -0.012599755 -0.09273297 -0.25941598 0.33852944
0003b0 a5 69 9e 3d 98 3e 11 bf be 1c 9c bd 29 a8 7e be
       0.07734994 -0.56736135 -0.0762267 -0.24868836
0003c0 01 20 89 be c5 97 ab bd 2c 07 03 3b 4a 81 c6 be
       -0.2678223 -0.08378557 0.0019993288 -0.38770515
0003d0 d7 67 2f 3c d6 1b 99 3d f6 b8 bd bd 2f 45 88 be
       0.01070591 0.074760124 -0.09263794 -0.26615283
0003e0 6f 3c 7f be d0 4c 8f 3e 64 12 b2 be 20 c4 e4 bd
       -0.24925397 0.2798829 -0.34779656 -0.111702204
0003f0 c1 77 56 3e bf f3 1b be 85 4e 5e 3c 14 c7 94 be
       0.2094412 -0.152297 0.013568525 -0.29058135

transformer.layers.0.self_attn.in_proj_bias f4 [96]
000000 8d 34 ab 3e 18 61 94 be 5b 1c 64 3e 73 2d 4d be
       0.3343853 -0.28980327 0.22276442 -0.20036869
000010 1d b5 bc 3c e5 7a 51 be 2f 0e 37 be 62 ef 77 be
       0.02303558 -0.20457037 -0.17876504 -0.24212411
000020 21 36 78 be f9 58 d7 be b6 22 c3 be a9 00 05 bf
       -0.24239399 -0.42060068 -0.3811242 -0.5195413
000030 6b 37 4d be 4f 8f 04 3e fb 2a 00 3d 0b 17 3f bc
       -0.20040672 0.12945293 0.03129099 -0.011663209
000040 8b 4e 82 3c f8 8f b1 3d ff a2 9c bd 97 4e d9 bd
       0.015906593 0.08670038 -0.076482765 -0.10610693
000050 25 34 2c be fe 38 08 3e b2 f0 f7 3d e7 5c 6b be
       -0.16816767 0.13302991 0.12106456 -0.22984658
000060 1d b6 74 be 86 09 15 3e ee b0 d9 3d af 11 cc 3c
       -0.23897596 0.14554414 0.1062945 0.024910776
000070 68 59 90 bd 43 2a 2b be e9 dd 84 3d 52 d4 a5 bd
       -0.07048303 -0.1671534 0.064876385 -0.080971375
000080 f6 8a 95 3e cc 4c f2 bd c3 b8 0c 3e 27 88 26 bf
       0.2920758 -0.11831054 0.13742356 -0.650515
000090 e2 bc 7d 3e e3 a1 cb be a8 03 8a be 48 c4 bd be
       0.24779084 -0.39771947 -0.26955914 -0.37063813
0000a0 44 9f cb bd 5c 2f f5 bd 30 21 02 be 0a 10 c2 be
       -0.09942487 -0.11971924 -0.12707973 -0.37902862
0000b0 88 a7 d4 3c f3 8c eb bd 71 af 25 3d 7f ea 07 be
       0.025958791 -0.11501493 0.040450517 -0.13273047
0000c0 b9 60 a8 3e 1e 33 45 3e c3 f9 91 be b4 99 c4 be
       0.32886294 0.19257781 -0.28510866 -0.38398516
0000d0 2a 8b 83 3d 94 3c 45 be 32 0e fb bd 85 85 97 3d
       0.06423028 -0.1926139 -0.12258567 0.07398514
0000e0 85 23 30 3e 2b 17 b4 bd 1b da 09 be 2b fe 3c 3e
       0.1720105 -0.087934814 -0.13462107 0.18456332
0000f0 6e 21 7c bd fd dc a7 be 32 96 d9 bc 00 03 63 3b
       -0.06155532 -0.32785788 -0.026560877 0.003463924
000100 80 27 48 3e e2 a7 82 3d 58 22 e8 bd 67 e4 0a 3d
       0.19546318 0.06379677 -0.113346756 0.033909228
000110 12 59 e3 bc 62 ef 57 3e 3d a2 8c 3d ee c3 87 3e
       -0.027752433 0.21087411 0.06866882 0.2651667
000120 ab 6a 94 be 4d 25 54 3d 1e 52 4d be 2e 41 6a 3e
       -0.2898763 0.051793385 -0.20050856 0.22876427
000130 56 cf 8e 3e e0 e0 1f 3f 7f 96 d5 be 0a 64 c2 3e
       0.2789256 0.62452507 -0.41716382 0.3796695
000140 ca 68 8a bd 49 ac 8a be 0b e4 ce 3c ed 54 99 be
       -0.06758268 -0.27084568 0.025255224 -0.29947606
000150 6b a3 b0 3e 4d 5b a3 3e 1e 82 5d be 8e 4c cc be
       0.34499678 0.31905594 -0.21631667 -0.39902157
000160 16 42 4b 3e 2a 84 66 be 50 86 6b 3e da 88 06 bc
       0.19849429 -0.22511354 0.23000455 -0.008211339
000170 a9 fb 31 3d 9d 7e d0 bd cf a6 95 3b 88 1c b1 3d
       0.043452892 -0.101803996 0.0045670043 0.0864802

transformer.layers.0.self_attn.out_proj.weight f4 [32, 32]
000000 cf 71 e9 3d 59 e8 a5 be 35 86 22 3f 15 86 ef bd
       0.113986604 -0.3240383 0.63486034 -0.11695496
000010 cf 59 ef 3d 73 6e 30 3e a6 3b 72 bd 4b 3b db 3e
       0.116870515 0.17229633 -0.059138916 0.42818674
000020 97 83 7d be 5e 32 94 be 9a 55 c1 bd 5a 09 6f 3d
       -0.24757229 -0.28944677 -0.09440155 0.058358528
000030 99 d4 8f bf 78 ba 44 be 9c f2 57 3f 6f 7c 0d 3d
       -1.1236755 -0.19211757 0.8435457 0.034542497
000040 a6 72 7d 3e 87 e6 60 3e 86 d3 4c 3e 74 1f 22 bc
       0.24750766 0.21962939 0.20002565 -0.009895194
000050 0c 2d 99 3e 8d 8c a8 3d 3a 42 a7 3d 2f d3 56 3e
       0.2991718 0.08229933 0.081669286 0.20978998
000060 e2 b8 ba 3d 79 3c 3a bd 6b 03 e6 bd 3b 61 b1 bc
       0.09117295 -0.045467827 -0.11231121 -0.021652808
000070 1c 63 e4 3e dd 86 87 be 66 64 ab bc bf cf 93 3c
       0.44606864 -0.2647008 -0.020921897 0.018043397
000080 7c 89 29 3f 6c 56 ac be 13 0b 3c 3e 75 a6 c9 3e
       0.6622541 -0.33659685 0.183636 0.3938481
000090 11 02 51 3e 4b bc a5 3e 22 57 9b 3e c9 1d fc bc
       0.20410945 0.3237022 0.30339915 -0.030775921
0000a0 c0 39 92 bd 6b 46 94 be 8f 2f 9a be 82 d8 46 3f
       -0.07139921 -0.28959975 -0.3011441 0.77674115
0000b0 f8 f7 ba be e1 41 44 3d 3d 83 2e 3f a2 f0 c1 3e
       -0.3651731 0.04791439 0.68169004 0.378789
0000c0 cf 1a 51 bd 22 9f 96 bd 3b 32 44 3e 44 7e 9f be
       -0.051050957 -0.07354571 0.19159786 -0.3115102
0000d0 c3 44 1d 3e 2c d2 0d bd c1 b1 cb 3e 4e 3a e9 bc
       0.15358262 -0.034624264 0.39784053 -0.028470185
0000e0 99 f6 d5 3e f3 8f 00 bf 78 3e d9 be e8 44 22 3e
       0.41789702 -0.5021965 -0.42430472 0.15846598
0000f0 40 b2 3d 3e 88 10 2e be 48 c9 aa 3e ba 94 0b 3d
       0.18525028 -0.16998494 0.3335669 0.034077384
000100 75 f9 70 bd f4 06 3b 3e 90 c4 37 be a9 9f f1 be
       -0.05883165 0.18264371 -0.17946076 -0.47192124
000110 2c 6c 47 3e 76 93 c3 bd 60 a5 7c 3d 1e f8 32 3e
       0.19474858 -0.0954961 0.06168115 0.17477462
000120 f8 ba 1c be fd d7 5c 3e 73 db 9e 3d c5 1e 88 be
       -0.15305698 0.21566768 0.077567 -0.26585975
000130 ad e1 8a ba a6 fb b8 bb bd a0 76 bd 14 6b 81 3c
       -0.0010595821 -0.005645233 -0.060211886 0.01579813
000140 af 2f 3a 3d 3d fd 82 bd 46 8f 5b 3c 03 89 35 3c
       0.04545563 -0.063959576 0.013400858 0.011080029
000150 8d 40 a2 bd 66 cc fa 3c 09 80 ef bd 3b 91 ae bd
       -0.07922468 0.030615043 -0.11694343 -0.08523794
000160 b9 7b 04 3e f4 a7 35 bc a1 d3 13 3e 03 9d 6a bd
       0.12937821 -0.011087406 0.14436199 -0.057278644
000170 0b 8c ea bd b5 eb 87 3d ef 06 fb be bd 11 bb bd
       -0.11452492 0.066367544 -0.49028727 -0.09134243
000180 47 f3 fd 3e 0b ad 28 be 2f 47 9f be cc 47 4e 3e
       0.49599668 -0.1647226 -0.31108996 0.20144576
000190 d5 ee 17 3f af 26 0d 3f bc e6 95 3e 95 75 db be
       0.59348804 0.5513715 0.292776 -0.42863145
0001a0 ef 0f be bc 43 3d f6 be 6b d8 55 be bd f6 46 3f
       -0.023200957 -0.48093614 -0.20883338 0.7772024
0001b0 27 97 77 be 89 8b db 3e 93 00 77 3e ec 21 72 3e
       -0.24178754 0.42879894 0.24121313 0.23645753
0001c0 e0 a7 24 be 9f 0a 29 be 9d db 8c be 50 4f 1b be
       -0.16079664 -0.16507958 -0.27511302 -0.15166974
0001d0 23 df 2f 3e 28 d9 49 3e 7c eb 9d 3e d9 8a eb be
       0.17174964 0.19711745 0.30843723 -0.4600437
0001e0 b4 d3 1a 3f 81 b6 83 be 55 0b e3 be 99 fd 99 3e
       0.60479283 -0.25725177 -0.44344583 0.30076292
0001f0 01 97 74 be bd ad a5 bc 52 ca 10 3e 28 4a 47 be
       -0.23885728 -0.020224446 0.14139679 -0.19461882
000200 58 ae 3a be 93 89 bc 3d 15 e8 cd bd 22 1e c0 3e
       -0.1823057 0.09205928 -0.10054032 0.3752299
000210 e9 0f 1d be 72 7f 30 be de 96 4f be 51 6b 13 bf
       -0.153381 -0.17236117 -0.20272395 -0.57585627
000220 a2 5e 22 3f 7c 58 23 3d ae 21 12 be db 03 e3 bd
       0.6342565 0.039879307 -0.1427066 -0.1108472
000230 61 0e b0 3e f7 44 36 3b 0a 10 57 be e5 65 6f bd
       0.3438597 0.0027812102 -0.21002212 -0.058446784
000240 c3 cc 35 be 46 fb 65 bd 03 16 78 be ae 83 59 3d
       -0.17753892 -0.056147836 -0.24227147 0.053104095
000250 1e 3b 68 be 38 83 7d ba 2e 07 00 3d f2 46 7b bd
       -0.22678801 -0.0009670737 0.031256847 -0.061346956
000260 78 3b d0 3d 00 5f 64 3e f8 a7 9e bc b6 fa 27 3d
       0.10167593 0.22301865 -0.019367203 0.04101058
000270 a4 34 c7 be a3 be b1 3d 38 ad e2 bd 09 dc 85 3e
       -0.3890735 0.08678939 -0.11068195 0.26144436
000280 6f a3 be be 7b 02 15 be 24 5f 39 3e c9 40 b6 3e
       -0.37234065 -0.14551727 0.181027 0.35596302
000290 6f 8f 8f 3c ca 2b 2b 3e c4 85 3b bc 58 62 d3 bd
       0.01752445 0.16715923 -0.011445466 -0.10321492
0002a0 8a a1 b4 3e 1c 6e c4 be 4e 07 bf 3e 27 ea cb 3d
       0.35279495 -0.38365257 0.3731026 0.099567704
0002b0 4a f4 c0 be b8 16 11 be f9 dd 96 3e 54 29 a8 3d
       -0.37686378 -0.14168823 0.29466227 0.08211008
0002c0 93 b6 65 3d 5c b5 4f 3d c3 d8 35 bd e1 a4 81 3c
       0.05608232 0.050710067 -0.044396173 0.01582569
0002d0 2b 63 11 bd 74 fc 54 be d9 76 ca 3d 97 66 92 bd
       -0.035494965 -0.20799428 0.0988595 -0.07148474
0002e0 6b df 1e bc e6 c3 0a bc 3d a2 22 bc 20 94 fd 3d
       -0.009696822 -0.008469557 -0.009926376 0.12381768
0002f0 bc 24 27 3e b8 29 09 bc 45 d6 0b 3e 6a 37 b3 3a
       0.16322607 -0.008371763 0.13655956 0.0013673131
000300 96 99 82 3d 5f cd 4f 3d d9 e8 01 bd e3 f0 da be
       0.063769504 0.050732967 -0.0317162 -0.42761907
000310 cd 27 46 3d 96 67 c0 be 46 46 39 3e d7 52 4c 3c
       0.0483778 -0.3757903 0.18093213 0.012470922
000320 c3 5f 80 3d f3 5a ba 3e 1e b7 2a be 16 82 b3 be
       0.06268265 0.36397514 -0.16671416 -0.35060185
000330 47 c9 7b bd 6a 58 1d be b6 26 5e 3e 51 20 36 3d
       -0.06147125 -0.15365759 0.21694455 0.044464413
000340 04 a5 b9 3c ff 87 c9 bc 69 c6 6d 3d e7 73 4f 3d
       0.022661693 -0.02460098 0.058050547 0.050647642
000350 af 9a 0d be 68 3f ea bb 4a 85 87 3d 01 fe 8b 3c
       -0.13828538 -0.007148672 0.0661722 0.017088892
000360 d6 d3 4e 3d 70 a3 15 3d 80 0a 35 bd c3 d4 22 be
       0.05049499 0.03653282 -0.044199467 -0.15901475
000370 b9 17 a5 be b3 8b a1 bc fe ed e7 be 36 9b 5f bd
       -0.3224466 -0.019719934 -0.4529876 -0.05459138
000380 7b 7e ff be 70 be 12 3f 4f f5 28 bf 66 a8 1f 3f
       -0.49901184 0.57321835 -0.6599931 0.6236633
000390 6c b4 9d 3e 11 c7 ca 3e ab d3 f8 be a2 e6 7c bd
       0.30801713 0.39605 -0.4859899 -0.061743386
0003a0 9a 23 17 bf 1a 8b a3 be 33 03 0e 3f 6e 24 96 3e
       -0.590387 -0.31942064 0.5547363 0.2932467
0003b0 f5 bc a8 3e 33 ca 40 3e 55 97 14 3e de 5c c9 3d
       0.32956663 0.18827133 0.14510854 0.09832166
0003c0 d4 d4 30 be 4a 9a 42 bc 91 94 e1 be f6 d0 40 be
       -0.17268687 -0.011877606 -0.4405866 -0.18829712
0003d0 92 4b 0c 3e d1 41 bc 3d 10 fb 71 be 29 c9 7c 3d
       0.13700703 0.09192241 -0.23630929 0.06171528
0003e0 40 ac 5f be 81 12 1c bd 77 98 13 bd 94 ed 14 3f
       -0.21843052 -0.038103584 -0.036034074 0.58175015
0003f0 03 ad 9a 3e 51 e0 a4 3e a4 f9 84 3d 00 ca 9b 3e
       0.30210122 0.3220239 0.06492928 0.3042755

transformer.layers.0.self_attn.out_proj.bias f4 [32]
000000 5b fe 41 3e 1b 29 a9 3e 7b 50 8a 3d 16 7e 2f 3f
       0.18944685 0.33039173 0.06753632 0.68551767
000010 54 6d 04 bf 85 8e 59 be 31 cb 16 3e 8d 83 86 be
       -0.5172932 -0.21245773 0.14725949 -0.2627224
000020 a4 3f c6 3d a5 82 8b 3e cb d0 b0 3e d5 68 a1 bc
       0.09680107 0.2724811 0.34534296 -0.019703308
000030 29 9c 24 3e 6f 39 3a 3d c1 66 ed 3d 56 50 e4 bc
       0.16075195 0.04546493 0.115918644 -0.027870338
000040 1a 8a c1 3d dd 7c 35 3f 8d 2e 8d 3e 5f 45 82 be
       0.09450169 0.7089365 0.27574578 -0.2544355
000050 ec 2b 1d 3d 28 b8 c2 be b4 8b 1f 3e 4b 01 85 be
       0.038371965 -0.38031125 0.15580636 -0.2597755
000060 68 1a 24 3e 33 4b 0d be 18 12 91 bb 61 ed 3e be
       0.16025698 -0.13798217 -0.004427206 -0.1864524
000070 16 8f 1b 3e 22 18 fb 3d 83 79 13 3e 97 97 f2 3c
       0.15191302 0.12260462 0.14401822 0.0296133

transformer.layers.0.linear1.weight f4 [2048, 32]
000000 5d e2 23 3e 83 ea db 3c dc 57 5b 3d 44 00 be 39
       0.1600432 0.026845222 0.053550586 0.00036239822
000010 9f ac 03 3e 6a 2b ab 3e f7 7b d7 3c 84 15 99 be
       0.12858818 0.3343156 0.026304228 -0.29899228
000020 b2 f1 aa be cb b1 99 bc 48 c2 4c be 7d 8d 13 3e
       -0.33387524 -0.018761536 -0.19995987 0.14409442
000030 7d d1 9c be 5c ac 37 3d 96 b8 3f bd a1 07 68 bd
       -0.30628577 0.04484211 -0.046806894 -0.0566479
000040 8f c2 10 bd 5d b8 23 be ab 63 94 3d 9e 06 a9 3e
       -0.035341796 -0.15988298 0.07245573 0.3301286
000050 e1 8f 7f 3d 97 c4 57 3e 85 1b 86 bd d9 eb a6 3e
       0.062393073 0.21071087 -0.06548218 0.32601812
000060 44 16 1d be 57 92 ba 3d d4 d0 a5 bd d6 e9 8c be
       -0.15340525 0.09109943 -0.080964714 -0.27522153
000070 f2 4c 1b 3e 6b 1f e4 bc 34 cc 89 3e 52 79 67 be
       0.15166071 -0.027847013 0.26913607 -0.22604874
000080 39 6b fc bd 6e e9 a8 3c e1 b3 58 bd ab 11 04 3e
       -0.123251386 0.02061912 -0.05290592 0.12897365
000090 8d 95 bb 3e cc 16 fc bd 16 e1 41 bd 2f 71 e0 3d
       0.36637536 -0.12309036 -0.0473338 0.10959088
0000a0 7c 58 15 3d 72 fc a3 3d 18 5c 18 3d 23 f8 4e 3d
       0.03646134 0.080071345 0.037197202 0.05052961
0000b0 2a 21 13 be 4f 23 cf 3e 73 b2 70 3d 0a 79 a6 3d
       -0.1436812 0.40456626 0.058763932 0.08128555
0000c0 27 30 70 be 2a e5 c0 bd 14 02 1b bd 45 26 57 3c
       -0.23455869 -0.094187096 -0.03784378 0.013131683
0000d0 3e 50 4e 3d 1f da 8a 3c d7 b0 c2 3e f3 91 ce 3d
       0.050369494 0.016949711 0.38025543 0.10086431
0000e0 bd 7a c6 bd b5 e1 28 3e ee 9c 0d be 85 d7 2c be
       -0.09691379 0.1649235 -0.13829395 -0.16879089
0000f0 1e 91 3e bd c9 56 1e 3e 60 4e 81 bd 78 d1 ba bc
       -0.046525113 0.15462793 -0.06313777 -0.02280496
000100 63 31 e4 3c 0f ba 1d be a6 18 8e 3d c1 a3 b4 3d
       0.02785558 -0.15403007 0.06938295 0.08820296
000110 a9 16 4d 3d ac 4f 62 bd c1 10 ee 3d 7b 15 4b be
       0.05007044 -0.055251762 0.11624289 -0.19832413
000120 00 42 86 bd d0 7b 8c bd 4f 4d 4d 3d dd 36 07 3e
       -0.06555557 -0.06859553 0.050122555 0.13204522
000130 5c de 62 be a2 e9 35 bd ea 20 73 be e4 fc ac bd
       -0.22155136 -0.044412263 -0.23743024 -0.084466726
000140 e3 ab 82 3d cf 04 d8 bd d6 73 b5 bd f8 ce 35 3c
       0.06380441 -0.10547792 -0.088599846 0.0110967085
000150 40 9a f1 3c 4b e7 81 bc 96 43 56 bd 42 08 22 bd
       0.029492497 -0.01585736 -0.05231055 -0.039558657
000160 07 b1 63 be 93 b1 af 3d 5e 44 47 be bd 3d 34 3d
       -0.222355 0.085787915 -0.19459674 0.04400419
000170 ae ac a5 3c a0 b4 30 bd e6 d2 23 be e5 1b e2 3d
       0.020223942 -0.043141007 -0.1599842 0.11040477
000180 a6 57 30 3e d3 c8 4d 3d 2f af 15 3e fc 22 16 bd
       0.17220935 0.05024035 0.14617608 -0.036654457
000190 ed 09 70 3d bf 7c 00 be c1 ed dc bd ac 48 bd bd
       0.058603216 -0.12547587 -0.107875355 -0.09242377
0001a0 9f 5c c5 bd 03 60 87 3d 90 ca 55 ba 0b 2c 0c 3c
       -0.09636807 0.0661011 -0.00081554893 0.008555423
0001b0 f8 2f d7 bd 9c b5 ed 3c 38 d4 71 be 81 c6 48 be
       -0.10507196 0.029017262 -0.23616111 -0.19606973
0001c0 8e dc 31 be 69 8f 20 be be 57 65 bd a9 2e 7c 39
       -0.17369291 -0.15679707 -0.05599188 0.00024049975
0001d0 b0 24 eb 3c 93 d2 e0 3d 6d 96 25 3e cd 72 ab 3d
       0.028704017 0.10977664 0.16170664 0.08371506
0001e0 0a 1b 3d be c4 76 bf 3d 75 3c 63 bc ac e5 6c b9
       -0.18467346 0.093488246 -0.013869395 -0.00022592273
0001f0 3f 86 2b 3d 1a c0 6b 3c b3 2c 5b be 7e 62 22 be
       0.041876074 0.014389062 -0.2140377 -0.15857884
000200 80 b9 5f 3e 86 f3 1e be 9f ed fd 3d 52 23 85 be
       0.21848106 -0.15522584 0.12398838 -0.2600351
000210 d8 b2 47 be 97 22 76 3d 22 0c 45 bc 87 5c 8f bc
       -0.19501817 0.06009158 -0.0120268185 -0.017500175
000220 1d 02 09 be 2d 53 82 3e 7f 49 ae be e3 53 8d 3d
       -0.13379712 0.25454083 -0.34040448 0.06900766
000230 24 17 c3 bd 77 60 8a 3d f7 3d b5 3b 78 ef c2 3d
       -0.09525898 0.067566805 0.0055310684 0.09518331
000240 7c a4 96 be 0e a1 36 be 2d 8d b4 3c 86 50 74 bd
       -0.29422367 -0.17834875 0.022039974 -0.059647106
000250 6b 40 89 3c 8c 25 2c be c8 2f d4 3e d4 cd a4 be
       0.01675435 -0.16811198 0.41442704 -0.32188284
000260 10 08 87 bd fe 1a 2f 3d 6c 40 27 be b6 f9 9a bd
       -0.06593335 0.04275035 -0.16333169 -0.0756716
000270 08 a0 1a bc fb 68 02 3e cb d8 e2 bd 64 58 2b 3d
       -0.0094375685 0.1273536 -0.11076506 0.041832343
000280 3e 11 37 3e 9b f2 3a ba 04 2e de 3d 12 71 b7 3b
       0.17877671 -0.0007131488 0.108486205 0.005598196
000290 ed ba ce 3d 90 3f 6a 3c 64 bb e9 3d 1e 52 db 3d
       0.10094247 0.014297381 0.11412695 0.10709022
0002a0 dc 25 7b bb 11 58 c7 3c 1c 19 1a 3d c7 8b f4 3c
       -0.0038322126 0.024333986 0.037621602 0.029851807
0002b0 f5 48 5f 3d 53 5e db bd 2c 59 88 bd 76 c8 d7 bd
       0.054512937 -0.1071135 -0.06657633 -0.10536282
0002c0 5a 13 cb bd e0 a1 3b 3b e9 82 84 bd fe e1 58 3e
       -0.099158004 0.002863042 -0.06470282 0.21179959
0002d0 80 9e 2d bc 60 73 e3 3c e2 81 1b 3e 38 b6 3a 3c
       -0.010596871 0.027764976 0.15186265 0.011395983
0002e0 c0 e7 22 be 07 13 ab 3d 7e c3 a6 bd e0 5a 6f bd
       -0.15908718 0.083532386 -0.08142756 -0.058436275
0002f0 14 7d c0 bc 05 27 9b bd 92 10 4c be aa dc 3d be
       -0.023497142 -0.07575802 -0.19928196 -0.18541208
000300 da ff a6 bc ac ad 8b 3d 4d 14 85 3e 17 4e ae 3d
       -0.020385671 0.06820235 0.2599205 0.08510988
000310 66 54 60 bd 60 66 24 3e 1c 97 6f bd 8a a9 49 be
       -0.05476799 0.16054678 -0.05849372 -0.1969358
000320 15 cf 5a be 82 14 16 bb c7 90 69 be 24 7f d0 3c
       -0.21368058 -0.0022900407 -0.22809134 0.02545125
000330 d6 4a 84 bd 5c a5 3a bd 0f 03 6f be d1 ac 57 be
       -0.06459586 -0.045567855 -0.2334101 -0.21062018
000340 01 e1 fe bd f2 5b 20 be 2a dc 26 3e 03 0a 1d 3e
       -0.1244526 -0.15660074 0.16294923 0.1533585
000350 85 38 f1 bc 56 9c de bd 3e f7 35 3e a4 63 c6 3d
       -0.029445896 -0.108696625 0.17770097 0.09686974
000360 1c 45 35 be 3d 6e bc bc 02 e3 8d 3d f4 47 67 be
       -0.17702144 -0.023001784 0.06928064 -0.22586042
000370 9b d2 c0 ba 18 07 d7 bd 7b 9c 34 bd f0 38 02 be
       -0.0014711203 -0.104994 -0.044094544 -0.12717032
000380 42 3f 34 bd a8 b3 39 3d eb c7 41 bd c0 fd 73 be
       -0.04400564 0.04533735 -0.047309797 -0.23827267
000390 44 61 31 3d 53 3e c0 3d a3 6a 42 3e 28 f6 83 be
       0.04330565 0.093868874 0.18985991 -0.2577374
0003a0 10 1a 99 bd 93 fd 31 3e b2 91 c8 bc 3a 0f 82 3e
       -0.07475674 0.17381887 -0.024483535 0.25402242
0003b0 2c 26 71 bd a2 36 fc 3d 24 15 b2 3c 8a a9 d3 bc
       -0.058874294 0.12315108 0.021738596 -0.025837678
0003c0 c0 a2 8f 3c af 0d 53 be 27 d9 44 bd 27 57 d3 3d
       0.01753366 -0.20610689 -0.048058655 0.10319357
0003d0 ea 8a 48 bd 23 a8 e8 bc fd 8d 20 bd e0 a5 e7 3b
       -0.048960604 -0.028400486 -0.03919791 0.0070693344
0003e0 cd 39 71 be 86 68 2d bc cf 78 af bb d0 1d 0d be
       -0.23557205 -0.010584002 -0.0053549777 -0.13780904
0003f0 1d 04 4d 3d e0 4e 57 be fe 01 5e be f7 3e 06 3d
       0.05005275 -0.21026182 -0.21680447 0.03277489

transformer.layers.0.linear1.bias f4 [2048]
000000 30 bd ad bd ad e6 be bd 61 9e d6 3d f3 cd 33 3d
       -0.0848335 -0.09321342 0.10479427 0.04389758
000010 af be c5 bd 16 3f 60 be 60 40 65 3d b3 82 6e be
       -0.09655511 -0.21899065 0.055969596 -0.23292045
000020 11 68 5d be 9d 68 e1 bd c4 0c 4f bd 1a d1 1d bd
       -0.2162173 -0.110062815 -0.050549284 -0.038529493
000030 e7 11 65 be 74 b3 dd 3b a0 e2 94 be 39 5d 30 bd
       -0.2237011 0.0067657772 -0.2907915 -0.043057654
000040 e0 16 43 be 5a 0a 7a be e7 bb 84 bb a8 8d cb bd
       -0.19051695 -0.24418011 -0.00405072 -0.09939128
000050 54 3a a4 3b bc e9 7f be ec 0a 94 be 90 4d cc bc
       0.005011836 -0.24991506 -0.28914583 -0.024939328
000060 52 e0 5f be eb 49 e7 bc 2b 29 89 bd 6e 69 41 3b
       -0.21862915 -0.028233489 -0.06697305 0.0029512304
000070 0e e2 7f 3b cf 5f 34 be 17 93 6e be ff 1a 49 3c
       0.0039044651 -0.17614673 -0.23298298 0.012274503
000080 8c c5 fb bd 1e 69 93 be d8 11 8b be 9a af 66 be
       -0.122935385 -0.28791136 -0.2716205 -0.22527924
000090 59 d5 86 be d5 b1 81 bd 01 46 03 be f1 4c c6 3c
       -0.26334646 -0.06332747 -0.12819673 0.02420661
0000a0 79 e3 0d be 87 2d 2f be 16 e0 aa bc 77 22 d6 3d
       -0.13856305 -0.17107211 -0.020858806 0.104557924
0000b0 ec 52 6d 3d 13 6d 00 be 79 20 27 be fb 77 ad bd
       0.05794041 -0.12541609 -0.16320981 -0.0847015
0000c0 77 b5 69 be 3d 46 1a be 94 3a ec bd b1 b0 2b be
       -0.2282313 -0.15065856 -0.115346104 -0.16766621
0000d0 1c 42 43 be 53 d4 9a bd ea a6 18 be b9 46 4b be
       -0.19068187 -0.07560029 -0.14907423 -0.19851197
0000e0 14 3d 3a bc bc 9c 25 be 0f f6 67 be 47 5d 00 bd
       -0.011367101 -0.1617307 -0.22652458 -0.031338956
0000f0 a1 31 2a be 1b 8b e3 3c bc 1f 3e be 96 14 19 be
       -0.16620494 0.027776292 -0.18566793 -0.14949259
000100 a6 e7 24 3d 55 11 9e 3a d1 b5 75 be ce e2 e7 bd
       0.04025998 0.0012059609 -0.23995139 -0.113225564
000110 72 63 8d 3d 84 76 52 be 0d e2 80 be 67 cb 8a 3c
       0.06903733 -0.20553023 -0.25172463 0.016942693
000120 1a ba 77 be fb 96 40 be 7e 00 b5 bd 9c 15 5e be
       -0.24192086 -0.18807594 -0.088379845 -0.21687931
000130 ae 50 9b bd 4c 13 0a 3d e4 7a 88 3d 59 08 e8 3c
       -0.07583748 0.03370981 0.066640645 0.028324293
000140 4e ef 02 3d c0 ad 3d be 28 f6 c3 bd d2 b3 21 3d
       0.0319665 -0.18523312 -0.09568435 0.03947813
000150 ee 6e 88 bc 93 c7 54 be 07 d5 20 bd d6 13 12 be
       -0.016654458 -0.20779257 -0.03926566 -0.1426538
000160 fc da 1a be b9 6e 40 be 8a a7 65 be 0e 4a 94 be
       -0.15122598 -0.18792237 -0.22427192 -0.2896275
000170 b5 d7 d6 bd a0 c6 59 bd 21 45 c0 bd f5 9a fd bd
       -0.104903616 -0.05316794 -0.09388185 -0.12383071
000180 bf 60 08 bd b6 79 de bd da 48 39 be bf 48 1b bd
       -0.03329539 -0.10863058 -0.18094197 -0.037911173
000190 54 65 1e be 83 5c 43 bc 2f 19 6f be 7c 4e 4b be
       -0.15468341 -0.011923912 -0.2334945 -0.19854158
0001a0 b6 fb 98 3c 95 9b 50 3c b4 15 88 3d 83 fb 58 be
       0.018674713 0.012732406 0.066447645 -0.21189694
0001b0 12 df f7 3c b9 0d 2a be 96 98 73 bd 47 33 b3 bd
       0.030257735 -0.16606797 -0.05947169 -0.08750015
0001c0 0d 31 af 3d d8 91 d9 bd 60 45 16 3e d4 b3 13 bd
       0.085542776 -0.106235206 0.14674902 -0.03606017
0001d0 43 af 9b 3c 93 c9 9f bd 21 12 95 be 31 71 1f bd
       0.01900447 -0.07802119 -0.29115394 -0.038926307
0001e0 87 e9 98 3d 04 87 15 be 0f 08 52 be 83 aa 7c be
       0.07466417 -0.14602286 -0.20510887 -0.2467442
0001f0 95 3a 95 3c ff fb 09 bc 50 32 67 be 30 82 1c 3d
       0.01821641 -0.008421897 -0.22577786 0.038210094
000200 6d fd dd bd c4 d5 4c be 3b 97 05 be db 8b 9d bd
       -0.10839353 -0.2000342 -0.13045971 -0.07692691
000210 00 e4 ac 3b 9a bc 6f be 37 08 36 be d2 10 1e bd
       0.005276203 -0.2341179 -0.17776571 -0.03859026
000220 b2 fc 1a be 6b 69 1d be 36 d3 4c bd 88 fc e8 3c
       -0.15135458 -0.15372245 -0.050006114 0.028440729
000230 c3 f4 39 be 6c 40 32 bd 9c c3 49 be 0b 6b 87 be
       -0.18159775 -0.04351847 -0.19703525 -0.26448855
000240 d2 ea ab bb 10 c9 ed bd f9 4c 23 be ad f3 d4 3d
       -0.0052464986 -0.11610615 -0.15947331 0.1039804
000250 d0 0e 44 bc 28 b2 08 3d 57 5e 3c 3c ab bb 84 3c
       -0.011966422 0.033373028 0.011497102 0.016202768
000260 dc 38 7d be a2 97 87 bd b4 92 e9 3c 86 29 67 be
       -0.24728721 -0.066207185 0.028512336 -0.22574434
000270 58 3d ce bd 74 8c 71 be 06 00 3d be 01 6c 41 be
       -0.10070294 -0.23588735 -0.1845704 -0.18888856
000280 a5 b1 33 be a2 f3 19 be 89 1d 67 be 0d 26 c2 bd
       -0.17548235 -0.15034345 -0.2256986 -0.09479914
000290 d8 d5 64 bd 20 fd 5e be c2 2f a9 3d 00 bf bf bd
       -0.055868 -0.21776247 0.08261062 -0.09362602
0002a0 10 f9 ed bd 5f fb 59 3d cb 46 3b bd 5c c9 29 3d
       -0.116197705 0.05321824 -0.04572181 0.041451797
0002b0 5e ba 56 bd 19 7a ed bd 9e 53 b0 bd 15 ad 7d be
       -0.052423827 -0.11595554 -0.08609699 -0.24773057
0002c0 57 4f 29 be 86 a9 44 be 6e e9 77 bd 4a 4c 82 be
       -0.16534172 -0.19205293 -0.06052535 -0.2544883
0002d0 63 34 35 be b9 41 73 be 7d f1 eb 3c 40 be 9a bd
       -0.17695765 -0.2375554 0.028801674 -0.075558186
0002e0 75 25 6c 3c 2d 71 92 be 8e 19 ab bc ea d3 ad bd
       0.014413227 -0.2860197 -0.020886209 -0.08487685
0002f0 fd 44 2b be 90 17 2b be 03 90 1e be 77 42 8d be
       -0.16725536 -0.16708207 -0.15484624 -0.2758977
000300 3b 57 c8 3d a7 ee eb bd e8 33 dd 3d 9f a4 00 be
       0.09782263 -0.11520129 0.10800916 -0.12562798
000310 de ab 57 be 45 6d 09 be d6 fd 44 be 42 e7 61 be
       -0.21061656 -0.1342059 -0.19237456 -0.22060874
000320 0c 8d fa bd 93 bd 87 be 28 bc b2 bd 94 7c 80 3d
       -0.12233934 -0.2651182 -0.08727294 0.062737614
000330 8a f7 31 be f8 6c d6 3b f1 3a 76 be 95 89 48 be
       -0.17379585 0.006543752 -0.24045922 -0.19583733
000340 20 77 29 be 93 16 35 3d ed 7e b3 bc 74 2c c2 bd
       -0.16549349 0.04421098 -0.021911109 -0.09481135
000350 bd 0f c9 bd e8 07 5e be 1c 64 0c 3c c5 9f f9 3c
       -0.09817455 -0.21682703 0.00856879 0.030471692
000360 6d f0 d2 bc 08 ae ea bd 45 96 46 be d7 0f 89 be
       -0.02574941 -0.11458975 -0.19393261 -0.26769897
000370 e9 95 79 be df ee e4 bd a2 24 2e bd 97 9d d0 bd
       -0.24373592 -0.111783735 -0.042515405 -0.10186308
000380 eb 57 a9 3d f2 53 8a bd 06 9d 37 be 8e e4 8e be
       0.08268722 -0.067542925 -0.17930993 -0.27908748
000390 ad 84 3a be 38 f9 e2 3c e3 e4 07 3d 8c 56 b7 3d
       -0.18214674 0.027706727 0.033177268 0.089520544
0003a0 98 55 2c be 85 c5 d4 3d f2 7b 20 3c 52 be 5a bd
       -0.16829526 0.10389236 0.009795176 -0.05340416
0003b0 eb 88 17 be f5 e8 9d 3d 14 37 fc bc b9 6f 2c 3d
       -0.14798324 0.07710449 -0.030787982 0.042098735
0003c0 2a fa 54 be 2b 6c 33 be 87 fb 0f 3d 50 dc 1c bc
       -0.20798555 -0.17521732 0.035151985 -0.009574011
0003d0 b2 22 1e 3e fe 31 6e 3d b5 00 b6 bd c7 d4 98 bd
       0.15442923 0.058153145 -0.088868536 -0.07462459
0003e0 23 ba ea bd 5a 55 e8 bd fb 6f 04 bd 81 95 f6 3c
       -0.11461284 -0.113444045 -0.032333355 0.030100586
0003f0 99 f5 51 be 95 1d 40 be 1f c3 d7 bd 7d d6 55 3c
       -0.20503844 -0.18761285 -0.10535263 0.013051626
