models/model_epoch_6.pth (torch, 581156 bytes, 18 tensors)

conv1.weight f4 [16, 8, 3]
0.09734181 -0.14427345 0.002618216 0.20796739 0.045507237 -0.04962437 0.16417801 -0.07514706
0.19412547 0.03125348 0.17372327 -0.13018031 -0.17229092 0.09309883 -0.059295364 -0.14872992
0.17205463 -0.04442234 -0.17793709 0.17677486 0.10201513 0.08096218 -0.07131733 0.14466816
0.20096692 0.19225144 0.05976545 0.1182723 -0.12223301 0.07943714 0.105855696 -0.12875794
0.06268393 -0.04476149 0.15557773 -0.1301393 0.10786875 0.071251884 -0.016440805 -0.11864073
0.0076275775 -0.15481347 0.081906304 -0.13661265 -0.013858802 -0.03849384 0.12857299 -0.08623572
-0.1717814 -0.018232862 -0.055547677 -0.28242433 -0.21177112 0.23370318 -0.12541175 0.036498614
-0.03004423 0.19083092 -0.05029738 0.17083146 0.0596753 0.21221745 0.08180921 -0.001994585
0.09180903 -0.19246209 -0.21562394 -0.07678538 -0.10692236 -0.035228048 -0.063353494 0.059771426
0.18332244 -0.00037308116 -0.12998539 0.1602821 0.17670566 0.07116516 0.090319216 0.16601652
0.14054397 -0.11052811 0.012448992 -0.097013846 -0.015903594 0.03030457 0.10030481 0.027729161
0.15525712 -0.073523924 -0.20140691 0.17999092 0.009636794 -0.102768965 -0.018202038 0.088281
-0.06169699 0.18403228 -0.15048352 -0.08200573 0.16199659 0.06511901 0.018108135 0.19046606
-0.09922012 0.1401173 -0.040371068 0.017306274 0.09387213 0.033767883 0.014420516 -0.12909208
-0.07351864 -0.110579506 0.09121055 0.07045579 0.14570683 -0.16033112 -0.09031827 0.0807983
0.11698648 0.0150314355 0.055992827 -0.09389619 -0.0002083673 -0.1343292 0.1300921 0.17300543
-0.07199742 0.087703355 -0.056461997 0.015184112 0.24128121 -0.06927631 0.15568464 -0.16851234
-0.029633407 -0.1313436 0.16975884 -0.14759494 0.02810331 -0.10181232 0.004742637 -0.1313742
0.0973988 0.20317732 0.014649397 -0.026618922 0.022461593 -0.014051985 -0.16428365 -0.040834136
-0.023965986 -0.08934794 0.19392392 0.11147636 0.060141742 0.13736942 0.11353861 -0.102858976
0.17609674 -0.118962005 -0.09993603 0.19493154 0.11158713 0.1952368 0.011818219 -0.059770048
0.15926462 0.017697172 -0.06421774 0.05975972 0.26828104 0.03283001 -0.0075113815 -0.04017722
-0.12473983 0.09174215 0.045756742 0.044031266 -0.061685123 -0.14634506 0.20439418 0.24822296
0.084068015 0.03277877 -0.027770841 0.54747105 0.019414539 -0.008414922 0.182466 0.12823202
-0.07130495 0.006384138 -0.033541486 0.074829176 0.09763882 -0.10535651 0.14714716 0.056581754
-0.15847029 -0.16519453 0.00023848568 -0.07636787 0.07900537 -0.0050950022 0.20014973 -0.17927647
-0.20923038 -0.12125346 -0.14549439 0.04610693 0.1949935 0.00033920933 -0.10404459 0.0578204
-0.10768618 0.057248417 0.19141462 -0.04386217 0.104071654 -0.1244121 0.04887363 0.071288526
-0.19223817 -0.07881556 0.13475166 0.1386632 -0.04909981 0.10304875 -0.112236686 -0.09210717
-0.06793396 0.14413069 0.10007722 -0.0844282 -0.08724088 0.12398806 -0.140626 0.09834241
0.18459548 0.18944924 -0.01768587 -0.0020297454 0.029593142 0.36882338 -0.06562395 -0.10547805
0.039825585 -0.22991642 -0.25892222 -0.04691693 -0.111042805 -0.025943987 0.04324374 0.1973524
00000000: 255b c73d 6bbc 13be 6096 2b3b 67f5 543e
00000010: cc65 3a3d ec42 4bbd 481e 283e b4e6 99bd
00000020: d4c8 463e a603 003d 83e4 313e fd4d 05be
00000030: 086d 30be 99aa be3d b2df 72bd a84c 18be
00000040: 172f 303e 33f4 35bd 2435 36be 7804 353e
00000050: 4fed d03d 80cf a53d d20e 92bd e423 143e
00000060: 46ca 4d3e 90dd 443e 9ecc 743d bf38 f23d
00000070: 4d55 fabd f0af a23d dfca d83d 1fd9 03be
00000080: 6f60 803d d357 37bd c54f 1f3e 3d43 05be
00000090: 4bea dc3d 82ec 913d deae 86bc e9f9 f2bd
000000a0: c2f0 f93b 6c87 1ebe 7ebe a73d 30e4 0bbe
000000b0: 0710 63bc b7ab 1dbd a3a8 033e 5a9c b0bd
000000c0: 77e7 2fbe 155d 95bc f685 63bd ec99 90be
000000d0: 87da 58be e34f 6f3e f06b 00be 927f 153d
000000e0: 511f f6bc 2e69 433e a004 4ebd 71ee 2e3e
000000f0: 166e 743d 884f 593e 968b a73d 95b7 02bb
00000100: 5f06 bc3d c814 45be 86cc 5cbe a741 9dbd
00000110: 1cfa dabd 494b 10bd 7abf 81bd e2d2 743d
00000120: e1b8 3b3e 1b9a c3b9 e41a 05be fe20 243e
00000130: 54f2 343e 0abf 913d 48f9 b83d 3c00 2a3e
00000140: c2ea 0f3e 905c e2bd dbf6 4b3c 32af c6bd
00000150: 4148 82bc 4a41 f83c 9c6c cd3d 4428 e33c
00000160: b9fb 1e3e b693 96bd 9d3d 4ebe 8a4f 383e
00000170: a5e3 1d3c 8978 d2bd 711c 95bc abcc b43d
00000180: fcb5 7cbd f572 3c3e 5a18 1abe 9ff2 a7bd
00000190: 6fe2 253e 1e5d 853d 8357 943c 8909 433e
000001a0: eb33 cbbd e97a 0f3e 225c 25bd e3c5 8d3c
000001b0: 0840 c03d 3150 0a3d 0744 6c3c b730 04be
000001c0: f190 96bd 8277 e2bd 99cc ba3d 204b 903d
000001d0: 2c34 153e d72d 24be c9f8 b8bd 9479 a53d
000001e0: 9c96 ef3d 6946 763c bc58 653d a54c c0bd
000001f0: 2c7d 5ab9 988d 09be dd36 053e 5628 313e
00000200: 6273 93bd d19d b33d b244 67bd c8c6 783c
00000210: 6c12 773e bde0 8dbd cb6b 1f3e 808e 2cbe
00000220: c2c1 f2bc f07e 06be 43d5 2d3e 2123 17be
00000230: ea38 e63c fa82 d0bd 1f68 9b3b f586 06be
00000240: 0679 c73d b70d 503e 0604 703c ed0f dabc
00000250: 6001 b83c 4c3a 66bc f939 28be b241 27bd
00000260: 5154 c4bc 0efc b6bd fe93 463e b84d e43d
00000270: 3057 763d 92aa 0c3e ee86 e83d baa7 d2bd
00000280: b452 343e 5aa2 f3bd 43ab ccbd 229c 473e
00000290: cb87 e43d 28ec 473e 34a1 413c 70d1 74bd
000002a0: 4416 233e a9f9 903c 9784 83bd 9cc6 743d
000002b0: 225c 893e c378 063d 0922 f6bb de90 24bd
000002c0: 9977 ffbd 4fe3 bb3d 6c6b 3b3d 215a 343d
000002d0: 8aa9 7cbd 7bdb 15be b54c 513e 292e 7e3e
000002e0: da2b ac3d 0843 063d ad7f e3bc 1027 0c3f
000002f0: 3d0b 9f3c bede 09bc 5ed8 3a3e 414f 033e
00000300: 5408 92bd 0832 d13b cc62 09bd 0a40 993d
00000310: ddf6 c73d 27c5 d7bd bfad 163e 45c2 673d
00000320: 0946 22be c128 29be 0312 7a39 c266 9cbd
00000330: 91cd a13d faf3 a6bb 0df4 4c3e 4094 37be
00000340: 7d40 56be bc53 f8bd 7bfc 14be 9fda 3c3d
00000350: 60ac 473e e8d7 b139 5415 d5bd 15d5 6c3d
00000360: 928a dcbd 517d 6a3d 3202 443e d2a8 33bd
00000370: 8523 d53d c5cb febd b72f 483d b8ff 913d
00000380: 15da 44be 0d6a a1bd 57fc 093e bafd 0d3e
00000390: e21c 49bd 390b d33d 59dc e5bd afa2 bcbd
000003a0: f620 8bbd ff96 133e 49f5 cc3d b1e8 acbd
000003b0: 59ab b2bd 74ed fd3d 4300 10be bf67 c93d
000003c0: 9906 3d3e fbfe 413e f5e1 90bc 7a05 05bb
000003d0: 516d f23c 6bd6 bc3e d965 86bd e004 d8bd
000003e0: 2720 233d 366f 6bbe 7491 84be f72b 40bd
000003f0: 696a e3bd 7c88 d4bc 5920 313d bf16 4a3e

conv1.bias f4 [16]
0.030980483 0.2032917 -0.050046254 0.15219131 -0.20383772 -0.08139591 -0.10697267 -0.04740358
-0.13772008 0.15739746 -0.10409258 -0.21009251 -0.06468359 0.03206062 0.13975541 0.13733126
00000000: c8ca fd3c b32b 503e 4dfd 4cbd 0ad8 1b3e
00000010: d6ba 50be e6b2 a6bd 7d14 dbbd 422a 42bd
00000020: 7e06 0dbe cd2c 213e 7e2e d5bd 7e22 57be
00000030: d478 84bd ff51 033d 0b1c 0f3e 91a0 0c3e

conv2.weight f4 [32, 16, 3]
0.09877321 0.07770287 -0.061934285 -0.03716762 0.12741435 -0.00665966 -0.07698321 0.05861751
-0.10813299 -0.08628627 -0.09129751 -0.12304965 -0.038353775 -0.14303261 0.0038312927 0.053474706
-0.10105019 -0.0121436855 -0.08503332 -0.02844937 -0.037482616 0.10805773 -0.06855299 -0.099706866
-0.12446213 -0.047377627 0.013165755 0.015938545 0.07071251 -0.05765343 -0.11754634 -0.15915313
-0.203915 0.052880775 -0.031434793 -0.20292978 0.07461405 -0.043926217 0.116650715 -0.0025896633
0.056004938 0.085303016 -0.06995749 0.14334464 -0.07811006 -0.020249154 0.12116665 -0.017226648
-0.13793921 0.07028933 0.16419034 0.10586558 0.049026582 0.069613755 -0.15737122 -0.096283406
-0.05145189 0.06851719 -0.14021997 0.008966209 -0.09922602 0.10743988 -0.046069182 -0.09526849
0.10925357 0.06416775 -0.083986364 0.017466385 -0.076312594 -0.042824805 0.076031506 0.08719582
-0.010914424 -0.05125281 -0.1142195 -0.10666372 -0.07866008 0.14287509 0.002921012 -0.13405655
0.21912877 -0.09669626 -0.044114 -0.029148111 -0.022025576 -0.07153925 0.12053215 -0.024141565
0.041436642 0.09812051 -0.045345224 -0.0041947775 -0.050668795 -0.049806256 -0.10292844 0.11038908
-0.075161226 -0.019579586 0.020495825 0.03950994 0.043046523 -0.038965736 -0.11432587 -0.023160692
-0.12415924 -0.043193206 -0.08927557 0.10421614 0.057217058 0.014825153 0.13599712 0.11991886
-0.051472507 -0.030416764 0.013163344 0.007077586 0.033982787 0.027144387 -0.02239716 -0.010592841
-0.017860238 0.053015158 -0.027402036 0.013897162 -0.10398241 -0.0304131 -0.1132477 -0.13105202
-0.036483545 -0.08693015 -0.087312035 0.073470525 0.0007358308 -0.058431707 0.072322935 0.025140068
0.058375187 -0.0690688 -0.055141486 0.017194197 0.10877411 0.14258265 -0.048742607 0.09896832
-0.37708998 0.3072156 -0.008161829 -0.11063418 0.024112452 0.11514682 -0.0077963695 -0.3541046
-0.024714042 -0.12928587 -0.076310046 0.07462759 0.0023636746 -0.08956768 -0.005953338 -0.15336667
-0.09264514 -0.07306133 -0.13176274 -0.03408365 -0.12106349 -0.17091748 -0.0767112 0.021229507
-0.0089468695 0.06188572 0.13995436 -0.11467786 -0.098098606 -0.017371507 0.03452018 -0.019123511
-0.12834296 -0.106334396 0.21923925 -0.016028386 0.09688628 -0.10078333 0.13821808 0.08879009
0.064905 0.01581304 0.10883184 -0.04381491 0.12164134 -0.10385103 0.0900608 0.048131783
-0.03558588 -0.01385116 0.0026201545 -0.13046242 0.06802922 0.079127096 -0.019405596 -0.0596715
-0.012307745 0.011132836 0.11437164 0.03939717 -0.00032547585 0.14299779 -0.08240205 0.13193856
0.049075473 -0.12481016 0.08841044 -0.0016529995 -0.026896099 -0.28320974 -0.07005205 -0.153814
0.019048505 -0.07623861 -0.039284416 -0.027098807 0.065485016 0.12803537 -0.12263642 -0.18357177
-0.26106364 -0.18699773 -0.11614994 0.0010360837 0.05961635 0.05040908 0.05316014 -0.06921089
0.009765308 0.0020284427 -0.049417097 0.000869662 -0.07555903 -0.030643959 -0.11343281 -0.09599513
-0.16496076 0.0046828743 0.08944929 0.11876147 -0.08402766 -0.012886098 -0.13537575 0.088864304
0.039052155 0.001407 0.040863223 -0.02989629 0.09498886 0.08473472 -0.01515118 0.008447349
00000000: 9c49 ca3d af22 9f3d ceae 7dbd 133d 18bd
00000010: e878 023e 4739 dabb 60a9 9dbd ea18 703d
00000020: d474 ddbd dbb6 b0bd 30fa babd 7401 fcbd
00000030: d918 1dbd 2477 12be 6d16 7b3b 4b08 5b3d
00000040: 67f3 cebd 4ff6 46bc f325 aebd a70e e9bc
00000050: 5f87 19bd 5f4d dd3d 8365 8cbd 1d33 ccbd
00000060: 00e6 febd 0b0f 42bd 2eb5 573c 8d91 823c
00000070: b8d1 903d 0126 6cbd 23bc f0bd 0af9 22be
00000080: 18cf 50be 8399 583d c5c1 00bd d3cc 4fbe
00000090: 40cf 983d faeb 33bd 92e6 ee3d 57b7 29bb
000000a0: 6f65 653d 59b3 ae3d df45 8fbd f0c8 123e
000000b0: 2bf8 9fbd 8ee1 a5bc 3826 f83d e61e 8dbc
000000c0: f03f 0dbe daf3 8f3d 8321 283e 0ed0 d83d
000000d0: 19d0 483d a891 8e3d ec25 21be 3c30 c5bd
000000e0: 38bf 52bd be52 8c3d d395 0fbe 02e7 123c
000000f0: 0337 cbbd 7109 dc3d 0ab3 3cbd 201c c3bd
00000100: 56c0 df3d 626a 833d 0b01 acbd aa15 8f3c
00000110: c749 9cbd 1069 2fbd 68b6 9b3d b993 b23d
00000120: 6ad2 32bc 77ee 51bd eaeb e9bd 8272 dabd
00000130: 8918 a1bd d94d 123e 736e 3f3b 1f46 09be
00000140: 4b63 603e b008 c6bd e2b0 34bd 05c8 eebc
00000150: fb6e b4bc 2c83 92bd 8fd9 f63d 88c4 c5bc
00000160: 78b9 293d 68f3 c83d eabb 39bd 5874 89bb
00000170: 158a 4fbd a501 4cbd 25cc d2bd ac13 e23d
00000180: 21ee 99bd 5e65 a0bc dce6 a73c 2dd5 213d
00000190: 8d51 303d 899a 1fbd af23 eabd 7ebb bdbc
000001a0: 3347 febd 5ceb 30bd 1cd6 b6bd 466f d53d
000001b0: 6f5c 6a3d 33e5 723c d442 0b3e 0598 f53d
000001c0: d6d4 52bd 942c f9bc 11ab 573c 18eb e73b
000001d0: 8931 0b3d e85d de3c 407a b7bc 988d 2dbc
000001e0: a24f 92bc 6c26 593d 3c7a e0bc ecb0 633c
000001f0: bbf4 d4bd e524 f9bc 69ee e7bd 8032 06be
00000200: c56f 15bd 6f08 b2bd a7d0 b2bd b777 963d
00000210: c5e4 403a 1656 6fbd 0c1e 943d 8bf2 cd3c
00000220: d21a 6f3d f173 8dbd 0adc 61bd d8da 8c3c
00000230: f6c4 de3d 3001 123e 54a6 47bd e7af ca3d
00000240: f011 c1be 5d4b 9d3e 31b9 05bc 2c94 e2bd
00000250: 7a87 c53c 19d2 eb3d b078 ffbb 334d b5be
00000260: 1a75 cabc 8463 04be 7148 9cbd 5ad6 983d
00000270: e1e7 1a3b 436f b7bd 3814 c3bb 270c 1dbe
00000280: bcbc bdbd 2ea1 95bd d0ec 06be 4c9b 0bbd
00000290: 23f0 f7bd fe04 2fbe c31a 9dbd 81e9 ad3c
000002a0: e495 12bc e17b 7d3d 3250 0f3e 3adc eabd
000002b0: ece7 c8bd b14e 8ebc 0865 0d3d e9a8 9cbc
000002c0: 566c 03be d9c5 d9bd 4180 603e f64d 83bc
000002d0: 506c c63d 7e67 cebd 0a89 0d3e 94d7 b53d
000002e0: eaec 843d 598a 813c 3ae3 de3d 4377 33bd
000002f0: 181f f93d d9af d4bd cc71 b83d d525 453d
00000300: 80c2 11bd faef 62bc e6b6 2b3b f197 05be
00000310: e752 8b3d 630d a23d 7cf8 9ebc 1a6a 74bd
00000320: 6da6 49bc 8066 363c ae3b ea3d ed5e 213d
00000330: a1a4 aab9 036e 123e 68c2 a8bd e71a 073e
00000340: 5d03 493d 789c ffbd 8810 b53d 76a9 d8ba
00000350: 3555 dcbc de00 91be 7377 8fbd 6b81 1dbe
00000360: 9c0b 9c3c fd22 9cbd b2e8 20bd 51fe ddbc
00000370: 021d 863d b41b 033e ce28 fbbd 3dfa 3bbe
00000380: 22aa 85be 557c 3fbe 05e0 edbd 33cd 873a
00000390: 4630 743d c079 4e3d 72be 593d 70be 8dbd
000003a0: acfe 1f3c 9fef 043b 9569 4abd 07fa 633a
000003b0: b1be 9abd 0a09 fbbc 764f e8bd 1899 c4bd
000003c0: 79eb 28be cc72 993b 3031 b73d 3739 f33d
000003d0: b216 acbd 3620 53bc f19f 0abe 7dfe b53d
000003e0: 27f5 1f3d 166b b83a 3260 273d 10e9 f4bc
000003f0: 8589 c23d 6689 ad3d a83c 78bc c066 0a3c

conv2.bias f4 [32]
-0.1223455 -0.14956684 -0.17328481 -0.025267404 -0.038130026 -0.1589951 -0.19984327 -0.020824403
-0.008198486 -0.045820702 -0.13882013 0.098702155 -0.25701365 0.07893577 -0.21924362 0.098196045
-0.119221285 -0.1851577 0.19466873 -0.053085975 0.17334156 -0.0050419793 0.034276724 0.030756846
-0.0116268005 -0.14884101 0.090369284 -0.032869864 0.055311408 -0.1775461 -0.027004587 0.012496553
00000000: 4790 fabd 0d28 19be 9371 31be 96fd cebc
00000010: 3b2e 1cbd 9dcf 22be b7a3 4cbe f097 aabc
00000020: f152 06bc 7dae 3bbd dd26 0ebe 5b24 ca3d
00000030: 4b97 83be 14a9 a13d 6681 60be 021b c93d
00000040: 4a2a f4bd fb99 3dbe 3d57 473e ae70 59bd
00000050: 7380 313e 3037 a5bb c065 0c3d c8f5 fb3c
00000060: 567e 3ebc c769 18be 8813 b93d 8da2 06bd
00000070: 378e 623d a5ce 35be b938 ddbc 58be 4c3c

transformer.layers.0.self_attn.in_proj_weight f4 [96, 32]
0.32595468 0.4370523 0.069703035 -0.46497428 0.0038339107 -0.042444818 0.093400836 0.19888894
0.164166 0.15267229 0.8912602 0.45377153 0.28595167 0.9613802 0.36612362 0.6491466
0.5157776 0.09461225 0.09025177 -0.04106796 0.22308573 0.4931436 0.4062048 0.29661983
0.24455598 0.37832502 0.854759 0.30251855 0.28951252 0.075346254 0.38884106 0.3793189
-0.053687487 -0.3850118 -0.08796156 -0.13739218 -0.01816054 -0.28163218 -0.17125112 -0.18698521
0.0039796256 0.06860642 -0.5257512 -0.27914718 -0.3799976 -0.83025724 0.06588532 -0.3493829
-0.37900165 0.11569395 -0.20987308 0.26089776 0.18631977 -0.19240655 -0.40363625 -0.5185479
-0.2754258 -0.5047778 -0.33262342 -0.25177243 -0.19184858 -0.001321707 -0.21131024 -0.10818727
-0.12075438 0.35913217 0.11977476 0.17705253 -0.006971312 0.23621207 -0.12228337 0.21910574
-0.10498675 0.018661313 0.2716382 0.070170574 0.101947255 0.2785938 -0.0900646 0.5878898
0.26135525 -0.1226712 0.34051794 -0.13981523 0.1547265 0.13373792 0.19622609 0.31196564
-0.048100427 0.35223317 0.6851989 0.3409676 0.5227412 0.08405938 0.33586448 0.15160052
-0.37803727 -0.44648117 0.20924133 0.89712626 -0.2203416 0.116303205 -0.04010756 -0.11068085
0.028918292 -0.16972816 -0.5081835 -0.2352712 -0.16632742 -1.0291771 -0.16740578 -0.35356987
-0.41489005 -0.05702327 -0.05989177 0.3451708 -0.1992445 -0.46713072 -0.64011776 -0.51730555
0.12946096 -0.5226312 -0.6415917 -0.10915803 -0.2183595 0.09764176 -0.423564 -0.088754945
-0.036595117 -0.017971601 -0.11110845 -0.02811944 -0.027099982 0.068596676 0.13852677 0.12575135
0.11865715 -0.08863119 0.27147835 -0.1630389 0.023054145 0.2035003 0.063156314 0.14033376
0.11555911 -0.11716814 -0.39789394 0.093548045 0.22423647 0.5501703 -0.17812471 0.0138131995
0.25180927 -0.050067015 0.22351067 0.48096237 -0.33377296 -0.04171315 0.1717916 0.23323248
-0.19043747 -0.16847889 0.033457037 -0.15293066 -0.04471293 -0.09700733 0.1145637 0.10434744
-0.12343082 0.025531141 -0.310552 0.28203872 0.03581967 -0.2871565 -0.26669273 -0.17022283
-0.092923604 0.064213805 0.16309343 -0.07939136 0.20608091 0.2920286 -0.00039234763 -0.32102183
-0.20551436 0.07987065 0.24131802 -0.17475268 -0.09358374 -0.3653597 0.01955396 -0.04757561
-0.30333367 -0.20910442 0.01682222 -0.09977684 -0.3335232 0.115840286 -0.1987144 -0.10560703
-0.10934334 -0.001502136 -0.16277982 0.13576898 -0.1778568 -0.4186312 -0.12386106 -0.36284104
-0.39017767 0.07483103 -0.096970074 -0.2778326 0.20409214 0.10804067 0.040932305 -0.09795075
-0.295893 -0.096616864 0.018266622 -0.1999783 0.17793745 -0.07378703 -0.21885969 0.044681303
-0.12899612 -0.12902232 0.09303378 -0.08115022 -0.22101744 -0.19031563 0.019248832 -0.32843983
-0.045042843 -0.019438675 -0.27027857 0.34333366 0.087018386 -0.5666597 -0.085098244 -0.23713645
-0.20699292 -0.08825061 0.041900642 -0.38770515 0.117402256 0.3788304 -0.14245647 -0.28680024
-0.24925397 0.24251509 -0.11083956 0.01730841 0.18470949 -0.152297 0.005460739 -0.04417913
00000000: 88e3 a63e 52c5 df3e 77c0 8e3d 1c11 eebe
00000010: 5942 7b3b 9eda 2dbd f048 bf3d 8ba9 4b3e
00000020: 221b 283e 2056 1c3e a129 643f be54 e83e
00000030: 4268 923e 031d 763f 8e74 bb3e 792e 263f
00000040: 000a 043f 11c4 c13d ecd5 b83d e136 28bd
00000050: 9670 643e 517d fc3e 13fa cf3e 8ede 973e
00000060: e26c 7a3e d1b3 c13e 7cd1 5a3f b6e3 9a3e
00000070: fc3a 943e 234f 9a3d 2d16 c73e 1636 c23e
00000080: 69e7 5bbd 4420 c5be 3125 b4bd 89b0 0cbe
00000090: 6ac5 94bc 1832 90be 745c 2fbe 0d79 3fbe
000000a0: 8567 823b 8681 8c3d a197 06bf 61ec 8ebe
000000b0: 0c8f c2be bd8b 54bf e2ee 863d 51e2 b2be
000000c0: 810c c2be f3f0 ec3d f8e8 56be 6494 853e
000000d0: 9cca 3e3e 3906 45be 69a9 cebe 8ebf 04bf
000000e0: 9c04 8dbe 1e39 01bf 9e4d aabe 51e8 80be
000000f0: f473 44be 213d adba b661 58be 4a91 ddbd
00000100: 134e f7bd 2ce0 b73e 784c f53d 424d 353e
00000110: 9b6f e4bb 94e1 713e b46f fabd 415d 603e
00000120: 4b03 d7bd 9cdf 983c 2a14 8b3e 97b5 8f3d
00000130: b9c9 d03d d9a3 8e3e ca73 b8bd f27f 163f
00000140: 5bd0 853e 0a3b fbbd 5e58 ae3e b92b 0fbe
00000150: a070 1e3e 98f2 083e 7eef 483e f6b9 9f3e
00000160: f404 45bd e857 b43e 3269 2f3f 4e93 ae3e
00000170: 5ed2 053f 5327 ac3d 6ef6 ab3e 2b3d 1b3e
00000180: 1a8e c1be 2e99 e4be 5c43 563e 11aa 653f
00000190: 3aa1 61be 6030 ee3d d347 24bd a4ac e2bd
000001a0: 0ee6 ec3c 38cd 2dbe 5018 02bf efea 70be
000001b0: bc51 2abe 13bc 83bf 6c6c 2bbe 1c07 b5be
000001c0: 786c d4be 3b91 69bd 1351 75bd 3aba b03e
000001d0: c006 4cbe c22b efbe c2de 23bf 236e 04bf
000001e0: 6a91 043e 29cb 05bf 5b3f 24bf 3f8e dfbd
000001f0: a299 5fbe 67f8 c73d 61dd d8be 27c5 b5bd
00000200: c3e4 15bd 2e39 93bc d48c e3bd bd5a e6bc
00000210: c800 debc 6a7c 8c3d f6d9 0d3e f6c4 003e
00000220: 8502 f33d 4584 b5bd 36ff 8a3e abf3 26be
00000230: 0cdc bc3c 6262 503e 1958 813d a7b3 0f3e
00000240: 41aa ec3d daf5 efbd c1b8 cbbe 1e96 bf3d
00000250: 3f9e 653e f6d7 0c3f 5366 36be c250 623c
00000260: 25ed 803e 1213 4dbd fbdf 643e b340 f63e
00000270: 4ae4 aabe 68db 2abd 23ea 2f3e 7fd4 6e3e
00000280: 0a02 43be bb85 2cbe 3f0a 093d db99 1cbe
00000290: e824 37bd c7ab c6bd 60a0 ea3d 1cb4 d53d
000002a0: 4cc9 fcbd af26 d13c ac00 9fbe 6167 903e
000002b0: a5b7 123d 2d06 93be f38b 88be e54e 2ebe
000002c0: bb4e bebd 8782 833d f701 273e f097 a2bd
000002d0: e006 533e c684 953e 02b4 cdb9 f95c a4be
000002e0: 5b72 52be 3993 a33d 121c 773e 5ef2 32be
000002f0: d5a8 bfbd 6d10 bbbe a02f a03c a5de 42bd
00000300: 8d4e 9bbe 781f 56be c1ce 893c cd57 ccbd
00000310: 8ec3 aabe ac3d ed3d ca7b 4bbe 8048 d8bd
00000320: 67ef dfbd 52e3 c4ba c1af 26be 0607 0b3e
00000330: 1820 36be d456 d6be deaa fdbd 4dc6 b9be
00000340: 5ec5 c7be 0341 993d 3f98 c6bd 1340 8ebe
00000350: 88fd 503e 6d44 dd3d a2a8 273d 679a c8bd
00000360: 4a7f 97be 10df c5bd e2a3 953c 1dc7 4cbe
00000370: 3c35 363e a81d 97bd c11c 60be be03 373d
00000380: 8f17 04be 6d1e 04be 7f88 be3d 1632 a6bd
00000390: 6552 62be 1ae2 42be baaf 9d3c 4429 a8be
000003a0: d87e 38bd db3d 9fbc f461 8abe 6ec9 af3e
000003b0: b236 b23d 9c10 11bf fd47 aebd e6d3 72be
000003c0: f4f5 53be bcbc b4bd 02a0 2b3d 4a81 c6be
000003d0: 9870 f03d 0ff6 c13e 1ce0 11be 7bd7 92be
000003e0: 6f3c 7fbe e055 783e daff e2bd 5eca 8d3c
000003f0: 7c24 3d3e bff3 1bbe 00f0 b23b 2df5 34bd

transformer.layers.0.self_attn.in_proj_bias f4 [96]
0.61393243 -0.57043433 0.5373342 -0.47643137 -0.031430703 -0.32250777 -0.33050203 -0.4177942
-0.24478367 -0.5182207 -0.20213741 -0.5743713 -0.0770893 0.20516726 0.16356201 0.15099658
-0.06047823 0.16508652 0.07371295 -0.14361718 -0.058408998 0.17086157 0.07550836 -0.21518078
0.00414155 -0.08317286 -0.021811495 0.216638 0.08009824 -0.025817124 -0.15524611 0.1633307
0.49598396 -0.33798152 0.37679407 -0.8608895 0.2759452 -0.3388067 -0.19196106 -0.28374052
-0.030411191 -0.07904156 -0.048965644 -0.30993944 0.120511085 -0.2939883 -0.088089354 -0.06679134
0.3462825 0.23551661 -0.2778025 -0.40357447 0.056428514 -0.13773476 -0.16557673 0.0897658
0.081445985 0.0086927805 -0.05084603 0.31583336 0.056415264 -0.28495774 0.14070356 0.09240973
0.29245818 -0.010612273 -0.0023582412 -0.020608205 -0.31442544 0.4287533 -0.067392215 0.3546484
-0.40074706 -0.30135444 -0.41200078 0.4745593 0.19056888 0.6559387 -0.44848147 -0.039206102
-0.48116434 -0.5458823 0.7118737 -0.24151544 0.024592865 0.76528126 0.39613143 -0.83582395
0.69098526 -0.4516427 0.3016742 -0.32297236 0.2842077 -0.6060508 0.4125993 0.37216508
00000000: ad2a 1d3f fc07 12bf bc8e 093f d0ee f3be
00000010: 7bbd 00bd bd1f a5be 9037 a9be 1fe9 d5be
00000020: 92a8 7abe 1daa 04bf 1cfd 4ebe ff09 13bf
00000030: ffe0 9dbd 5e17 523e cd7c 273e d99e 1a3e
00000040: 05b8 77bd 710c 293e d1f6 963d 6210 13be
00000050: 463e 6fbd 56f6 2e3e 21a4 9a3d 5a58 5cbe
00000060: d7b5 873b 8856 aabd 05ae b2bc 5ad6 5d3e
00000070: 8c0a a43d 6f7e d3bc d6f8 1ebe 2a40 273e
00000080: 9cf1 fd3e ea0b adbe 27eb c03e 4163 5cbf
00000090: b048 8d3e 1278 adbe 7191 44be 7046 91be
000000a0: e420 f9bc 8be0 a1bd 3390 48bd 62b0 9ebe
000000b0: 84ce f63d a285 96be 3168 b4bd e6c9 88bd
000000c0: f14b b13e 442b 713e 213c 8ebe 50a1 cebe
000000d0: 9621 673d 570a 0dbe f28c 29be 22d7 b73d
000000e0: 27cd a63d 2a6c 0e3c ed43 50bd e9b4 a13e
000000f0: b113 673d fbe5 91be 9814 103e 5041 bd3d
00000100: 14bd 953e 19df 2dbc b98c 1abb 8ad2 a8bc
00000110: 5ffc a0be 8d85 db3e ee04 8abd 7a94 b53e
00000120: b82e cdbe 214b 9abe c4f1 d2be 70f9 f23e
00000130: 7d24 433e 99eb 273f 5d9f e5be 9496 20bd
00000140: 2c5b f6be f1be 0bbf 5b3d 363f d34f 77be
00000150: fa76 c93c 79e9 433f bdd1 ca3e 8ff8 55bf
00000160: 69e4 303f b63d e7be 0a75 9a3e a25c a5be
00000170: ac83 913e 2526 1bbf 3740 d33e 6c8c be3e

transformer.layers.0.self_attn.out_proj.weight f4 [32, 32]
0.24573623 -0.5875723 1.1175954 -0.42783064 0.15291783 0.08075859 -0.13099067 0.22301698
-0.22327381 -0.22512338 -0.09197967 -0.098585956 -0.77609277 -0.04724125 0.6588687 0.061076805
0.17866215 0.0416351 0.14389968 -0.07486866 0.10624504 0.21898349 0.13392334 0.050244957
0.14539097 -0.10930345 0.038221024 0.068753086 0.3857169 -0.23688017 0.16427009 0.33349353
0.8536598 -0.40365463 0.3516841 0.13621882 0.0700222 0.22050545 0.2669885 -0.36603
-0.17526318 -0.12294163 -0.46958646 0.47696537 -0.2962206 0.10301005 0.5425338 0.18377477
-0.42150858 -0.19342598 0.6554809 -0.10272749 -0.26853234 0.10868288 0.59025675 -0.17324217
0.70979214 -0.46918744 -0.32353285 -0.12258186 0.20151511 -0.26885217 0.43953502 0.054660525
-0.24251717 0.16003034 0.07134493 -0.23969924 0.34524292 -0.10160722 0.08324312 0.38197303
0.02926633 0.08700591 0.27213293 -0.05701186 -0.06554992 0.0036350696 -0.13481455 -0.013037259
-0.0059858277 -0.2832945 -0.28397992 -0.10979001 -0.055013333 -0.18636736 -0.07315886 -0.052026324
0.18957637 -0.1987253 0.1602728 -0.28887078 -0.19260685 0.3223429 -0.4957142 -0.059004948
0.5435074 -0.026132114 -0.53556347 0.17765155 0.4742765 0.6189458 0.2796035 -0.6324848
-0.045958083 -0.3572629 -0.38198563 0.63678175 -0.17691123 0.5424177 0.3000566 0.24413945
-0.22467904 -0.1510222 -0.09445516 -0.010421564 0.07446236 0.2646118 0.37903932 -0.44078332
0.81160617 -0.20594975 -0.42995837 0.13494858 -0.34064463 -0.12995856 0.171674 -0.24392034
-0.13870747 0.26914775 -0.5342824 0.36993435 -0.3201668 -0.12934497 -0.23005654 -0.69110054
0.6223659 -0.04741813 -0.30940387 -0.10078678 0.31882903 -0.08795681 -0.1674929 -0.042180467
-0.18909249 0.123157896 0.15534005 0.14085966 -0.20092429 0.20482083 0.035014424 -0.14562714
0.12912859 0.24309476 -0.013414595 -0.025397772 -0.39444578 -0.10522026 -0.12908454 0.19903427
-0.33471602 -0.034377802 0.17359547 0.24451375 0.077872984 0.18032719 0.06514144 0.010402685
0.30827552 -0.34111038 0.465967 0.06324111 -0.25013626 -0.008249943 0.28003812 0.17922588
0.2257308 0.04862063 -0.27710643 -0.14645611 0.089594446 -0.2398537 -0.069055885 0.09014939
-0.028079724 -0.019810973 0.10443035 0.35904104 0.13379253 0.019805703 0.06919056 -0.05879473
-0.012407192 -0.072232 0.12010479 -0.33594036 0.081989646 -0.4841855 0.19742687 0.18634021
0.18935922 0.15894933 -0.03858259 -0.16001895 -0.09964149 -0.22523078 0.20894714 0.070302434
0.13607475 -0.045738384 -0.24895665 -0.037439857 -0.0223805 -0.2183204 -0.02840638 0.13784592
-0.09696497 0.0003751369 -0.16586618 -0.13044022 -0.22950001 0.059900705 -0.3824127 -0.0006056819
-0.6897375 0.65353787 -0.8596427 0.9875529 0.56490743 0.43640974 -0.2703943 0.5254879
-0.664822 -0.18382013 0.70257264 0.3902748 0.11521973 0.043482743 0.20873632 0.046483546
-0.081586145 0.06097011 -0.4867443 -0.26793087 0.29707602 0.08861134 -0.24965304 0.033231653
-0.4141108 -0.03951061 -0.23947448 0.38359615 0.16068175 0.61483055 -0.17631796 0.12082496
00000000: 47a2 7b3e 236b 16bf 5e0d 8f3f 9e0c dbbe
00000010: 7e96 1c3e c264 a53d 6b22 06be 905e 643e
00000020: e4a1 64be be86 66be d65f bcbd 6fe7 c9bd
00000030: 04ae 46bf 0a80 41bd 9eab 283f ac2b 7a3d
00000040: 36f3 363e 9189 2a3d 705a 133e bd54 99bd
00000050: 0097 d93d 353d 603e 3323 093e a8cd 4d3d
00000060: 5fe1 143e 7dda dfbd a68d 1c3d 6bce 8c3d
00000070: af7c c53e b790 72be 6b36 283e aabf aa3e
00000080: 7389 5a3f d2ab cebe f00f b43e f27c 0b3e
00000090: cd67 8f3d 2ecc 613e b7b2 883e 4968 bbbe
000000a0: 3178 33be d2c8 fbbd a36d f0be ce34 f43e
000000b0: 3aaa 97be eff6 d23d 7fe3 0a3f 742f 3c3e
000000c0: f9cf d7be 7611 46be 99cd 273f ca62 d2bd
000000d0: 127d 89be 2195 de3d 111b 173f 6566 31be
000000e0: f0b4 353f 5639 f0be 19a6 a5be 330c fbbd
000000f0: fa59 4e3e fea6 89be bc0a e13e b7e3 5f3d
00000100: 6c56 78be fede 233e 4a1d 923d b873 75be
00000110: aec3 b03e 7217 d0bd 5e7b aa3d f891 c33e
00000120: f1bf ef3c 2830 b23d 0255 8b3e 4585 69bd
00000130: 093f 86bd 593a 6e3b d30c 0abe 3a9a 55bc
00000140: c324 c4bb fa0b 91be d165 91be 96d9 e0bd
00000150: a955 61bd 16d7 3ebe 50d4 95bd 8e19 55bd
00000160: 4f20 423e a57e 4bbe 8e1e 243e dfe6 93be
00000170: bb3a 45be 210a a53e 40ce fdbe 2caf 71bd
00000180: 4d23 0b3f 0413 d6bc b01a 09bf 4aea 353e
00000190: 5fd4 f23e 3b73 1e3f 3128 8f3e 86ea 21bf
000001a0: 8b3e 3cbd 2aeb b6be 9f93 c3be 2104 233f
000001b0: 3828 35be e3db 0a3f 05a1 993e b1ff 793e
000001c0: 4312 66be 90a5 1abe b571 c1bd 35bf 2abc
000001d0: b97f 983d 337b 873e 7111 c23e 5aae e1be
000001e0: 6cc5 4f3f 7ee4 52be 8123 dcbe f62f 0a3e
000001f0: f968 aebe db13 05be 4fcb 2f3e 41c6 79be
00000200: 5509 0ebe bccd 893e bbc6 08bf 0968 bd3e
00000210: e7ec a3be 0273 04be f193 6bbe f7eb 30bf
00000220: 5f53 1f3f 8339 42bd 2f6a 9ebe 4d69 cebd
00000230: 8f3d a33e b322 b4bd 4283 2bbe 6dc5 2cbd
00000240: 76a1 41be 353a fc3d 7611 1f3e 843d 103e
00000250: 19bf 4dbe 8dbc 513e 496b 0f3d 481f 15be
00000260: 493a 043e d5ed 783e e4c8 5bbc fd0e d0bc
00000270: ccf4 c9be b87d d7bd bd2e 04be a4cf 4b3e
00000280: e65f abbe bdcf 0cbd 03c3 313e d061 7a3e
00000290: df7b 9f3d b1a7 383e e068 853d 0670 2a3c
000002a0: 4ad6 9d3e 05a6 aebe 3a93 ee3e 8e84 813d
000002b0: dc11 80be c52a 07bc 2861 8f3e fd86 373e
000002c0: fa25 673e 6d26 473d e5e0 8dbe 97f8 15be
000002d0: 4b7d b73d 359c 75be 2c6d 8dbd 3ea0 b83d
000002e0: 7307 e6bc 9f4a a2bc 94df d53d 3ad4 b73e
000002f0: e900 093e 923f a23c c8b3 8d3d bed2 70bd
00000300: 8947 4bbc 5fee 93bd 80f9 f53d 6000 acbe
00000310: 30ea a73d 29e7 f7be 452a 4a3e f8cf 3e3e
00000320: 62e7 413e 9dc3 223e c708 1ebd 02dc 23be
00000330: d610 ccbd e6a2 66be 3df6 553e b9fa 8f3d
00000340: 2e57 0b3e 2c58 3bbd 7eee 7ebe 895a 19bd
00000350: 4f57 b7bc 628f 5fbe 7fb4 e8bc 7b27 0d3e
00000360: 9295 c6bd 06ae c439 d3d8 29be 1f92 05be
00000370: 0d02 6bbe 715a 753d 99cb c3be a0c6 1eba
00000380: a392 30bf 424e 273f 8b11 5cbf 44d0 7c3f
00000390: c69d 103f 1971 df3e 1f71 8abe 6086 063f
000003a0: c631 2abf 583b 3cbe cddb 333f 19d2 c73e
000003b0: 52f8 eb3d f61a 323d f9be 553e 8865 3e3d
000003c0: a316 a7bd cbbb 793d 8d36 f9be 3c2e 89be
000003d0: 591a 983e dd79 b53d 0ca5 7fbe ea1d 083d
000003e0: 5506 d4be e1d5 21bd cc38 75be b766 c43e
000003f0: c289 243e 8965 1d3f b28c 34be 1473 f73d

transformer.layers.0.self_attn.out_proj.bias f4 [32]
0.40944082 0.9656383 -0.2947886 1.1205744 -0.22563544 -0.47042635 -0.11026582 -0.89617586
0.684287 -0.015230567 0.67122185 0.13867444 0.6051975 0.51467466 0.62062395 0.40655255
0.50861627 1.1959107 0.22041886 -0.45153922 -0.3643948 -0.12981577 0.24266732 -0.8501717
0.6078419 -0.14318562 0.4215059 0.19531402 0.081877306 0.48776752 0.38364935 -0.14247341
00000000: 3aa2 d13e 1234 773f 88ee 96be fb6e 8f3f
00000010: fa0c 67be b9db f0be 0cd3 e1bd c86b 65bf
00000020: 6f2d 2f3f a189 79bc 32d5 2b3f ac00 0e3e
00000030: 39ee 1a3f b8c1 033f 36e1 1e3f a827 d03e
00000040: ad34 023f 9a13 993f 7bb5 613e 2630 e7be
00000050: f591 babe 6dee 04be c87d 783e daa4 59bf
00000060: 879b 1b3f 409f 12be 9fcf d73e 6600 483e
00000070: 4aaf a73d aabc f93e b06d c43e 8de4 11be

transformer.layers.0.linear1.weight f4 [2048, 32]
0.177295 0.011557713 0.07963599 -0.02849876 0.11667327 0.38194507 0.070000716 -0.3234676
-0.35883898 -0.0038797178 -0.22960192 0.17517878 -0.32697088 0.06975939 -0.07265155 -0.081114754
-0.13065927 -0.17440751 0.10115897 0.33509478 0.09149476 0.2251918 -0.040210567 0.31147784
-0.18696484 0.11085507 -0.10930416 -0.30626243 0.16301775 -0.055160355 0.2507178 -0.24600738
-0.12985425 0.036651768 0.030371178 0.1332836 0.42803422 -0.13082436 0.0019692979 0.14425579
0.059247192 0.043169875 0.07978084 0.0545694 -0.052789558 0.4135442 0.053306904 0.104158476
-0.1714824 -0.085751966 0.01556254 -0.018295364 0.13706231 0.087664455 0.31813443 0.038540993
-0.070564665 0.15738001 -0.1233046 -0.16459914 0.00846716 0.148882 0.001813318 0.034961995
0.02785558 -0.15403007 0.06938295 0.08820296 0.05007044 -0.055251762 0.11624289 -0.19832413
-0.06555557 -0.06859553 0.050122555 0.13204522 -0.22155136 -0.044412263 -0.23743024 -0.084466726
0.06380441 -0.10547792 -0.088599846 0.0110967085 0.029492497 -0.01585736 -0.05231055 -0.039558657
-0.222355 0.085787915 -0.19459674 0.04400419 0.020223942 -0.043141007 -0.1599842 0.11040477
0.17220935 0.05024035 0.14617608 -0.036654457 0.058603216 -0.12547587 -0.107875355 -0.09242377
-0.09636807 0.0661011 -0.00081554893 0.008555423 -0.10507196 0.029017262 -0.23616111 -0.19606973
-0.17369291 -0.15679707 -0.05599188 0.00024049975 0.028704017 0.10977664 0.16170664 0.08371506
-0.18467346 0.093488246 -0.013869395 -0.00022592273 0.041876074 0.014389062 -0.2140377 -0.15857884
0.2996368 -0.249428 0.12712736 -0.2797981 -0.20030549 0.073413484 -0.0037830153 -0.036744505
-0.13976659 0.30991936 -0.38022605 0.057672184 -0.14056645 0.027385036 -0.01002874 0.06484797
-0.3119138 -0.18913451 0.061036173 -0.050280076 0.00072214927 -0.148787 0.35438597 -0.32850066
-0.10009802 0.05211841 -0.18548484 -0.095381275 0.0069640353 0.10278632 -0.13560356 0.031465914
0.17877671 -0.0007131488 0.108486205 0.005598196 0.10094247 0.014297381 0.11412695 0.10709022
-0.0038322126 0.024333986 0.037621602 0.029851807 0.054512937 -0.1071135 -0.06657633 -0.10536282
-0.099158004 0.002863042 -0.06470282 0.21179959 -0.010596871 0.027764976 0.15186265 0.011395983
-0.15908718 0.083532386 -0.08142756 -0.058436275 -0.023497142 -0.07575802 -0.19928196 -0.18541208
-0.054948363 0.11796459 0.24786672 0.10069584 -0.061987624 0.21230833 -0.057184454 -0.21089356
-0.099819496 0.021429399 -0.19604357 -0.01365614 0.012489387 -0.09691905 -0.22155827 -0.19860964
-0.061362788 -0.13437577 0.16372998 0.13294435 -0.051952228 -0.123178095 0.21408649 0.15505953
-0.1338041 -0.046039145 0.06630527 -0.22080807 0.032509293 -0.10210365 -0.08328445 -0.12098106
-0.04400564 0.04533735 -0.047309797 -0.23827267 0.04330565 0.093868874 0.18985991 -0.2577374
-0.07475674 0.17381887 -0.024483535 0.25402242 -0.058874294 0.12315108 0.021738596 -0.025837678
0.01753366 -0.20610689 -0.048058655 0.10319357 -0.048960604 -0.028400486 -0.03919791 0.0070693344
-0.23557205 -0.010584002 -0.0053549777 -0.13780904 0.05005275 -0.21026182 -0.21680447 0.03277489
00000000: d28c 353e 905c 3d3c 3218 a33d 3b76 e9bc
00000010: 65f2 ee3d 4e8e c33e 895c 8f3d 8c9d a5be
00000020: beb9 b7be dd42 7ebb c41c 6bbe 1162 333e
00000030: ba68 a7be 03de 8e3d 56ca 94bd 7e1f a6bd
00000040: 8bcb 05be e297 32be 6f2c cf3d 8b91 ab3e
00000050: 9b61 bb3d ae98 663e d6b3 24bd 067a 9f3e
00000060: b673 3fbe fc07 e33d dcda dfbd 6ece 9cbe
00000070: 20ee 263e d3ef 61bd 155e 803e 5ce9 7bbe
00000080: 83f8 04be 2a20 163d facc f83c 7f7b 083e
00000090: 4d27 db3e d2f6 05be 560f 013b cab7 133e
000000a0: 2fad 723d e5d2 303d 2364 a33d 2a84 5f3d
000000b0: dd39 58bd 11bc d33e 5758 5a3d 0a51 d53d
000000c0: 1599 2fbe ba9e afbd 06fa 7e3c 29e0 95bc
000000d0: 105a 0c3e 6c89 b33d 84e2 a23e 29dd 1d3d
000000e0: 3584 90bd 3a28 213e 1f87 fcbd ad8c 28be
000000f0: d8b9 0a3c 8674 183e dbac ed3a 4f34 0f3d
00000100: 6331 e43c 0fba 1dbe a618 8e3d c1a3 b43d
00000110: a916 4d3d ac4f 62bd c110 ee3d 7b15 4bbe
00000120: 0042 86bd d07b 8cbd 4f4d 4d3d dd36 073e
00000130: 5cde 62be a2e9 35bd ea20 73be e4fc acbd
00000140: e3ab 823d cf04 d8bd d673 b5bd f8ce 353c
00000150: 409a f13c 4be7 81bc 9643 56bd 4208 22bd
00000160: 07b1 63be 93b1 af3d 5e44 47be bd3d 343d
00000170: aeac a53c a0b4 30bd e6d2 23be e51b e23d
00000180: a657 303e d3c8 4d3d 2faf 153e fc22 16bd
00000190: ed09 703d bf7c 00be c1ed dcbd ac48 bdbd
000001a0: 9f5c c5bd 0360 873d 90ca 55ba 0b2c 0c3c
000001b0: f82f d7bd 9cb5 ed3c 38d4 71be 81c6 48be
000001c0: 8edc 31be 698f 20be be57 65bd a92e 7c39
000001d0: b024 eb3c 93d2 e03d 6d96 253e cd72 ab3d
000001e0: 0a1b 3dbe c476 bf3d 753c 63bc ace5 6cb9
000001f0: 3f86 2b3d 1ac0 6b3c b32c 5bbe 7e62 22be
00000200: ff69 993e 0e6a 7fbe ad2d 023e b241 8fbe
00000210: e21c 4dbe cf59 963d 77ec 77bb 6881 16bd
00000220: f91e 0fbe c0ad 9e3e fdac c2be ab39 6c3d
00000230: a7f0 0fbe 9556 e03c 964f 24bc 03cf 843d
00000240: 2ab3 9fbe 7aac 41be 1101 7a3d 7bf2 4dbd
00000250: 9e4e 3d3a 9f5b 18be 1472 b53e 3d31 a8be
00000260: 3100 cdbd 1d7a 553d bdef 3dbe 4257 c3bd
00000270: 9032 e43b a281 d23d a9db 0abe 67e2 003d
00000280: 3e11 373e 9bf2 3aba 042e de3d 1271 b73b
00000290: edba ce3d 903f 6a3c 64bb e93d 1e52 db3d
000002a0: dc25 7bbb 1158 c73c 1c19 1a3d c78b f43c
000002b0: f548 5f3d 535e dbbd 2c59 88bd 76c8 d7bd
000002c0: 5a13 cbbd e0a1 3b3b e982 84bd fee1 583e
000002d0: 809e 2dbc 6073 e33c e281 1b3e 38b6 3a3c
000002e0: c0e7 22be 0713 ab3d 7ec3 a6bd e05a 6fbd
000002f0: 147d c0bc 0527 9bbd 9210 4cbe aadc 3dbe
00000300: 8911 61bd 6b97 f13d c6d0 7d3e 9f39 ce3d
00000310: bce6 7dbd 5b67 593e 3f3a 6abd 7bf4 57be
00000320: 2a6e ccbd b58c af3c a5bf 48be 01be 5fbc
00000330: 49a0 4c3c 7f7d c6bd 2ce0 62be 5360 4bbe
00000340: 8c57 7bbd cd99 09be d5a8 273e 9022 083e
00000350: dccb 54bd cc44 fcbd 7d39 5b3e edc7 1e3e
00000360: f103 09be 8b93 3cbd 0fcb 873d 831b 62be
00000370: 7728 053d b81b d1bd 0a91 aabd ebc4 f7bd
00000380: 423f 34bd a8b3 393d ebc7 41bd c0fd 73be
00000390: 4461 313d 533e c03d a36a 423e 28f6 83be
000003a0: 101a 99bd 93fd 313e b291 c8bc 3a0f 823e
000003b0: 2c26 71bd a236 fc3d 2415 b23c 8aa9 d3bc
000003c0: c0a2 8f3c af0d 53be 27d9 44bd 2757 d33d
000003d0: ea8a 48bd 23a8 e8bc fd8d 20bd e0a5 e73b
000003e0: cd39 71be 8668 2dbc cf78 afbb d01d 0dbe
000003f0: 1d04 4d3d e04e 57be fe01 5ebe f73e 063d

transformer.layers.0.linear1.bias f4 [2048]
-0.113829955 -0.07701987 0.10479427 0.04389758 -0.11913852 -0.21899065 0.07001004 -0.23292045
-0.2162173 -0.13219595 -0.08231508 -0.038529493 -0.2521257 -0.0070770276 -0.2907915 -0.03000824
-0.19051695 -0.25865382 0.021925196 -0.13115706 -0.002092728 -0.24991506 -0.28914583 -0.024939328
-0.21862915 -0.028233489 -0.06697305 -0.014229073 -0.027827488 -0.13623585 -0.23298298 0.09790424
-0.122935385 -0.30996004 -0.2716205 -0.22527924 -0.26334646 -0.088851035 -0.12819673 0.02420661
-0.13856305 -0.16807511 -0.04826715 0.104557924 -0.037746597 -0.15718193 -0.16320981 -0.0847015
-0.22309962 -0.15065856 -0.14642864 -0.16766621 -0.18515538 -0.12255357 -0.14907423 -0.23815468
-0.045313932 -0.1617307 -0.22509028 -0.031338956 -0.16620494 0.044265393 -0.21743378 -0.14949259
0.011835696 0.0012059609 -0.23995139 -0.13679916 0.06903733 -0.20553023 -0.28349033 0.016942693
-0.24192086 -0.17846328 -0.0687072 -0.24864516 -0.07583748 0.014524837 0.066640645 0.028324293
0.0319665 -0.18422234 -0.12745015 0.03947813 -0.01699224 -0.20779257 -0.03926566 -0.1426538
-0.16867574 -0.18792237 -0.22427192 -0.2860763 -0.15616849 -0.07800108 -0.09388185 -0.12383071
-0.058432125 -0.15322559 -0.17692065 -0.050917998 -0.15468341 -0.011923912 -0.2513378 -0.19854158
0.018674713 0.012732406 0.066447645 -0.24366279 0.030257735 -0.16771436 -0.05947169 -0.08750015
0.085542776 -0.1369031 0.1421812 -0.03606017 0.006173271 -0.07802119 -0.29115394 -0.038926307
0.04312292 -0.14602286 -0.20510887 -0.2467442 0.01821641 -0.0237454 -0.22577786 0.062262576
-0.10839353 -0.2000342 -0.14244935 -0.057502992 0.005276203 -0.17274493 -0.17776571 -0.03859026
-0.15135458 -0.15372245 -0.0158372 0.025460023 -0.18159775 -0.04351847 -0.19703525 -0.26448855
-0.0052464986 -0.11610615 -0.17112541 0.1039804 -0.024104849 0.033373028 0.011497102 -0.010944191
-0.28178573 -0.066207185 0.028512336 -0.25514528 -0.10070294 -0.23588735 -0.1845704 -0.18888856
-0.17548235 -0.15034345 -0.2256986 -0.12656012 -0.055868 -0.21776247 0.058821633 -0.09362602
-0.046728414 -0.005033705 -0.09454664 0.041451797 -0.08411572 -0.14772114 -0.08609699 -0.24773057
-0.16534172 -0.19205293 -0.06052535 -0.2544883 -0.21027415 -0.2375554 0.028801674 -0.075558186
0.014413227 -0.2860197 -0.06318018 -0.08487685 -0.16725536 -0.16708207 -0.15484624 -0.29581907
0.06605684 -0.11520129 0.10800916 -0.12562798 -0.21061656 -0.1342059 -0.19237456 -0.22060874
-0.13775396 -0.2651182 -0.09606812 0.062737614 -0.19616063 0.006543752 -0.2688047 -0.25525525
-0.1731346 0.089952014 -0.029431472 -0.09481135 -0.09817455 -0.21682703 -0.0146010285 -0.0012940171
-0.057515148 -0.11458975 -0.19393261 -0.26769897 -0.24373592 -0.15512882 -0.042515405 -0.10186308
0.07559153 -0.067542925 -0.17633663 -0.27908748 -0.18214674 0.027706727 0.033177268 0.07100543
-0.20794559 0.08191614 0.009795176 -0.05340416 -0.17458892 0.07710449 -0.033498727 0.010332905
-0.20798555 -0.17404748 0.0033862947 -0.009574011 0.12104847 0.058153145 -0.09340422 -0.07462459
-0.11461284 -0.1060576 -0.064097814 0.030100586 -0.20503844 -0.18761285 -0.11600254 0.013051626
00000000: ae1f e9bd 98bc 9dbd 619e d63d f3cd 333d
00000010: e5fe f3bd 163f 60be 6d61 8f3d b382 6ebe
00000020: 1168 5dbe 605e 07be cf94 a8bd 1ad1 1dbd
00000030: 9f16 81be 69e6 e7bb a0e2 94be d7d3 f5bc
00000040: e016 43be 466e 84be 789c b33c 094e 06be
00000050: 2626 09bb bce9 7fbe ec0a 94be 904d ccbc
00000060: 52e0 5fbe eb49 e7bc 2b29 89bd 0f21 69bc
00000070: 79f6 e3bc 6981 0bbe 1793 6ebe 0582 c83d
00000080: 8cc5 fbbd 15b3 9ebe d811 8bbe 9aaf 66be
00000090: 59d5 86be 88f7 b5bd 0146 03be f14c c63c
000000a0: 79e3 0dbe e21b 2cbe c6b3 45bd 7722 d63d
000000b0: 2d9c 1abd 4df4 20be 7920 27be fb77 adbd
000000c0: 3a74 64be 3d46 1abe 64f1 15be b1b0 2bbe
000000d0: 5f99 3dbe 5efd fabd eaa6 18be d2de 73be
000000e0: 1a9b 39bd bc9c 25be 117e 66be 475d 00bd
000000f0: a131 2abe a14f 353d f6a6 5ebe 9614 19be
00000100: 82ea 413c 5511 9e3a d1b5 75be 1415 0cbe
00000110: 7263 8d3d 8476 52be a525 91be 67cb 8a3c
00000120: 1aba 77be 14bf 36be 5cb6 8cbd d69c 7ebe
00000130: ae50 9bbd 95f9 6d3c e47a 883d 5908 e83c
00000140: 4eef 023d c8a4 3cbe 4b82 02be d2b3 213d
00000150: 4f33 8bbc 93c7 54be 07d5 20bd d613 12be
00000160: 55b9 2cbe b96e 40be 8aa7 65be 9878 92be
00000170: a2ea 1fbe 08bf 9fbd 2145 c0bd f59a fdbd
00000180: 8656 6fbd 2be7 1cbe b02a 35be 648f 50bd
00000190: 5465 1ebe 835c 43bc 59af 80be 7c4e 4bbe
000001a0: b6fb 983c 959b 503c b415 883d bd82 79be
000001b0: 12df f73c 50bd 2bbe 9698 73bd 4733 b3bd
000001c0: 0d31 af3d 5430 0cbe f397 113e d4b3 13bd
000001d0: 2749 ca3b 93c9 9fbd 2112 95be 3171 1fbd
000001e0: a9a1 303d 0487 15be 0f08 52be 83aa 7cbe
000001f0: 953a 953c b785 c2bc 5032 67be 0b07 7f3d
00000200: 6dfd ddbd c4d5 4cbe 3ede 11be 4288 6bbd
00000210: 00e4 ac3b 0ce4 30be 3708 36be d210 1ebd
00000220: b2fc 1abe 6b69 1dbe 04bd 81bc 8a91 d03c
00000230: c3f4 39be 6c40 32bd 9cc3 49be 0b6b 87be
00000240: d2ea abbb 10c9 edbd 803b 2fbe adf3 d43d
00000250: 8877 c5bc 28b2 083d 575e 3c3c 444f 33bc
00000260: 3846 90be a297 87bd b492 e93c 67a2 82be
00000270: 583d cebd 748c 71be 0600 3dbe 016c 41be
00000280: a5b1 33be a2f3 19be 891d 67be fa98 01be
00000290: d8d5 64bd 20fd 5ebe f4ee 703d 00bf bfbd
000002a0: 4b66 3fbd c7f1 a4bb aba1 c1bd 5cc9 293d
000002b0: dd44 acbd 3644 17be 9e53 b0bd 15ad 7dbe
000002c0: 574f 29be 86a9 44be 6ee9 77bd 4a4c 82be
000002d0: 1b52 57be b941 73be 7df1 eb3c 40be 9abd
000002e0: 7525 6c3c 2d71 92be 9c64 81bd ead3 adbd
000002f0: fd44 2bbe 9017 2bbe 0390 1ebe 9975 97be
00000300: cf48 873d a7ee ebbd e833 dd3d 9fa4 00be
00000310: deab 57be 456d 09be d6fd 44be 42e7 61be
00000320: 600f 0dbe 93bd 87be 5dbf c4bd 947c 803d
00000330: 55de 48be f86c d63b c5a0 89be d1b0 82be
00000340: 324a 31be c338 b83d 451a f1bc 742c c2bd
00000350: bd0f c9bd e807 5ebe 2739 6fbc 029c a9ba
00000360: 0195 6bbd 08ae eabd 4596 46be d70f 89be
00000370: e995 79be 17da 1ebe a224 2ebd 979d d0bd
00000380: bbcf 9a3d f253 8abd 9791 34be 8ee4 8ebe
00000390: ad84 3abe 38f9 e23c e3e4 073d 4b6b 913d
000003a0: b0ef 54be a6c3 a73d f27b 203c 52be 5abd
000003b0: 70c7 32be f5e8 9d3d f635 09bd 584b 293c
000003c0: 2afa 54be 8139 32be 99ec 5d3b 50dc 1cbc
000003d0: 43e8 f73d fe31 6e3d b64a bfbd c7d4 98bd
000003e0: 23ba eabd ba34 d9bd b745 83bd 8195 f63c
000003f0: 99f5 51be 951d 40be bd92 edbd 7dd6 553c

transformer.layers.0.linear2.weight f4 [32, 2048]
-0.12550743 0.09524004 0.021000907 0.0034129012 -0.103925645 0.015214581 0.01318023 0.064881384
-0.022865754 -0.16607796 0.024616094 -0.04573621 0.08698141 0.1498593 0.0012805745 0.08163012
-0.047571298 -0.113102876 -0.032330424 -0.00851066 -0.35480875 -0.034690976 -0.06623263 0.0035402493
0.09299975 -0.028716588 -0.042798236 -0.009815633 -0.034426153 0.09259724 -0.02190721 0.042185456
0.0142697375 -0.011256881 0.006183126 0.0046689045 -0.031918675 0.073219284 -0.002703122 -0.014555302
0.089646704 0.2959591 -0.10346324 -0.0071547474 0.021672932 -0.035003293 -0.05496785 -0.019880809
-0.088258184 0.052147053 -0.004359801 -0.012897445 -0.015431912 0.12987761 0.033240393 0.05599944
-0.0020747122 -0.031496424 -0.0054739737 0.04202755 0.043803144 0.08361415 0.11592607 -0.034501497
0.053355873 -0.00073448586 0.039788697 0.25137958 -0.002146783 -0.025009314 -0.022969453 0.02977867
0.027376775 -0.010815483 -0.005746555 0.038091786 -0.007538007 -0.007777272 -0.058676355 0.05583611
-0.010641664 -0.03701387 -0.033944506 0.04909085 -0.033229563 0.021329682 -0.05673815 0.09441784
0.0063091726 0.02720049 0.0018266854 -0.23986493 0.06561901 0.031019595 -0.013262911 -0.038458694
0.100756496 -0.14664897 0.08903656 0.085533634 -0.054355547 -0.05634703 -0.034004174 0.018256199
0.0017259084 -0.043771826 0.059108187 0.0134210605 0.018308332 -0.12988292 -0.0196693 -0.019573871
0.014599892 -0.018487636 -0.16523603 0.08614876 -0.023009695 0.023709808 -0.08308985 -0.0123039475
-0.027701639 -0.028020423 -0.07534885 -0.040675383 0.025656605 0.02200323 -0.0008029603 -0.07283704
-0.03493708 -0.0008484539 -0.049134027 -0.6327694 0.046870925 -0.17414086 -0.033873595 -0.0017383206
0.035388682 0.03839244 0.005326053 -0.044638436 -0.036787614 -0.0032695383 -0.0030967542 -0.055581782
0.0062739933 0.061084174 0.0065075117 -0.00392557 -0.009780879 0.011880957 0.053049594 0.007902639
-0.058535498 -0.002359476 0.03612551 -0.047737718 -0.006335707 -0.0045775487 -0.05008645 0.011682326
0.022117518 0.02984648 0.034480963 -0.0034772218 0.09433525 0.0014296832 0.038766466 0.0039975024
-0.14138328 -0.5198008 -0.021591654 0.0074180677 -0.11040058 0.009060514 -0.029177021 -0.0073022274
-0.057759605 -0.0020418537 -0.027709922 0.003605211 0.07646278 -0.05906132 -0.036800757 0.011761775
0.070632674 0.014895985 0.36541006 0.06554114 0.021138486 -0.031177346 0.022409445 -0.31331
-0.01566562 -0.019013125 -0.011210664 -0.033224896 -0.046327565 0.0086580515 0.0009597326 0.05683069
-0.020638118 -0.030528672 -0.010646083 0.051611234 -0.06116303 0.10330922 -0.016560854 0.13257985
0.056873348 -0.06662684 0.06725632 -0.0015178546 0.008552061 -0.03597607 -0.029365098 0.05123891
0.062030457 0.013346351 -0.0044073476 -0.06769398 0.047995105 -0.37050927 -0.0033551864 0.002229116
-0.05135865 0.08184014 0.064829394 -0.007481205 -0.034778196 -0.006238724 0.015231629 -0.010465003
0.026534118 -0.11468527 -0.01721668 0.07251086 -0.068740934 0.0025266905 -0.121651135 -0.033771697
-0.02869358 -0.011021047 0.09496435 0.042840667 0.024435224 -0.01881093 0.08369964 0.020615127
-0.010758226 -0.024268808 0.036955986 -0.054627936 -0.03180465 -0.008458063 -0.06936767 -0.05259127
00000000: 0585 00be 360d c33d 180a ac3c fbaa 5f3b
00000010: f8d6 d4bd 9446 793c e4f1 573c 88e0 843d
00000020: f650 bbbc 5710 2abe b1a7 c93c e455 3bbd
00000030: 4f23 b23d b774 193e f3d8 a73a b12d a73d
00000040: 1fda 42bd 7ba2 e7bd e86c 04bd 4c70 0bbc
00000050: 7ea9 b5be 2018 0ebd f9a4 87bd 8703 683b
00000060: a776 be3d 0d3f ebbc 344d 2fbd c0d1 20bc
00000070: 7002 0dbd 9fa3 bd3d c076 b3bc a8ca 2c3d
00000080: 9ecb 693c c86e 38bc d29b ca3b 9cfd 983b
00000090: 28bd 02bd fef3 953d dd26 31bb 5d79 6ebc
000000a0: b198 b73d f387 973e 89e4 d3bd 5f72 eabb
000000b0: 6f8b b13c 9d5f 0fbd f825 61bd 14dd a2bc
000000c0: b5c0 b4bd 2698 553d a9dc 8ebb ce4f 53bc
000000d0: 21d6 7cbc a3fe 043e 1427 083d ab5f 653d
000000e0: e5f7 07bb 6502 01bd 055f b3bb 1525 2c3d
000000f0: ed6a 333d e53d ab3d a66a ed3d 7151 0dbd
00000100: b08b 5a3d 838a 40ba 79f9 223d d3b4 803e
00000110: 0bb1 0cbb 55e0 ccbc 6f2a bcbc 66f2 f33c
00000120: 4245 e03c 6c33 31bc 994d bcbb 2206 1c3d
00000130: 6301 f7bb 7cd8 febb 9e56 70bd 68b4 643d
00000140: 605a 2ebc db9b 17bd 6509 0bbd 7d13 493d
00000150: b91b 08bd 96bb ae3c 4366 68bd 245e c13d
00000160: 2dbd ce3b 90d3 de3c 646d ef3a 279f 75be
00000170: 4263 863d ce1c fe3c ae4c 59bc dd86 1dbd
00000180: 6c59 ce3d 262b 16be cd58 b63d 422c af3d
00000190: eca3 5ebd 25cc 66bd f647 0bbd 068e 953c
000001a0: e037 e23a 164a 33bd 6d1b 723d 02e4 5b3c
000001b0: 5bfb 953c 0700 05be 8321 a1bc 6259 a0bc
000001c0: 6334 6f3c 6273 97bc a233 29be c36e b03d
000001d0: d47e bcbc 123b c23c 032b aabd 7f96 49bc
000001e0: 8cee e2bc 168b e5bc 7f50 9abd 3b9b 26bd
000001f0: cd2d d23c 1e40 b43c c17d 52ba 962b 95bd
00000200: 2f1a 0fbd c76a 5eba c340 49bd 2dfd 21bf
00000210: bafb 3f3d fb51 32be 0abf 0abd 5cd8 e3ba
00000220: b9f3 103d 6441 1d3d 2c86 ae3b cbd6 36bd
00000230: 9cae 16bd c045 56bb eaf2 4abb b9a9 63bd
00000240: 1296 cd3b 6633 7a3d f73c d53b 11a2 80bb
00000250: fb3f 20bc 58a8 423c 884a 593d 127a 013c
00000260: ebc2 6fbd 70a1 1abb 58f8 133d a088 43bd
00000270: c39b cfbb 43ff 95bb 7327 4dbd 3a67 3f3c
00000280: cc2f b53c 9b80 f43c e93b 0d3d 1ae2 63bb
00000290: d732 c13d 3564 bb3a 96c9 1e3d 7bfd 823b
000002a0: c7c6 10be aa11 05bf fbe0 b0bc 4313 f33b
000002b0: b319 e2bd 8d72 143c a604 efbc 8647 efbb
000002c0: 5695 6cbd 9fd0 05bb ebff e2bc 6745 6c3b
000002d0: 8598 9c3d 48ea 71bd 64bc 16bd 76b4 403c
000002e0: dda7 903d 4a0e 743c 0717 bb3e 6f3a 863d
000002f0: 9e2a ad3c a267 ffbc 0394 b73c 2b6a a0be
00000300: 3055 80bc 6ac1 9bbc efac 37bc d416 08bd
00000310: f9c1 3dbd 80da 0d3c 9196 7b3a 4cc7 683d
00000320: 4511 a9bc 4417 fabc e96c 2ebc 4d66 533d
00000330: 1686 7abd c993 d33d a1aa 87bc 03c3 073e
00000340: 07f4 683d a773 88bd aebd 893d c0f2 c6ba
00000350: f21d 0c3c a55b 13bd 138f f0bc e4df 513d
00000360: a613 7e3d a7aa 5a3c 836b 90bb 24a3 8abd
00000370: 8496 443d 64b3 bdbe b0e2 5bbb 5c16 123b
00000380: 735d 52bd ce9b a73d 46c5 843d e524 f5bb
00000390: 9573 0ebd 366e ccbb 158e 793c 6775 2bbc
000003a0: 145e d93c 1ce0 eabd ff09 8dbc 9380 943d
000003b0: 0cc8 8cbd d596 253b 3b24 f9bd 3154 0abd
000003c0: cc0e ebbc 9f91 34bc ab7c c23d b279 2f3d
000003d0: 612c c83c 6119 9abc b86a ab3d 0ee1 a83c
000003e0: 4543 30bc 61cf c6bc 295f 173d 8bc1 5fbd
000003f0: 9845 02bd b093 0abc a310 8ebd f269 57bd

transformer.layers.0.linear2.bias f4 [32]
0.12695254 -0.17835602 -0.2677924 -0.089494064 0.08003837 -0.0049516372 -0.06796367 -0.030518424
-0.13566375 0.11252762 -0.13191572 -0.43380192 -0.13647312 0.23782317 0.6100333 0.041241027
-0.07843401 0.5450009 0.012336732 0.08863363 -0.33809626 -0.13615729 0.06718653 0.103079304
-0.12743182 -0.23784564 0.04229982 -0.039662886 -0.046769965 0.097662255 -0.20567629 -0.1054747
00000000: d9ff 013e f6a2 36be 161c 89be aa48 b7bd
00000010: 28eb a33d 5841 a2bb 8930 8bbd c601 fabc
00000020: 70eb 0abe e174 e63d ea14 07be 491b debe
00000030: 9cbf 0bbe eb87 733e 242b 1c3f 5aec 283d
00000040: 03a2 a0bd 2e85 0b3f 0120 4a3c 8c85 b53d
00000050: f41a adbe d16c 0bbe 1799 893d 3e1b d33d
00000060: 7d7d 02be cf8d 73be 9342 2d3d 8d75 22bd
00000070: dd91 3fbd 2603 c83d ce9c 52be 1f03 d8bd

transformer.layers.0.norm1.weight f4 [32]
1.383779 -0.5146888 1.2823396 -0.07250875 0.7553216 1.0405259 1.1444443 -0.23347047
-0.34815085 1.1858325 -0.41204008 1.2598143 -0.5409095 0.7045074 0.48100218 -0.11057612
0.461146 0.83678216 1.0964022 1.0237082 1.3382099 1.779651 1.0088027 1.5531551
-0.20515965 1.3144685 0.5529212 0.08603256 1.0506401 0.2296775 -0.56167316 -0.46038482
00000000: ac1f b13f a5c2 03bf b423 a43f 787f 94bd
00000010: c25c 413f f42f 853f 277d 923f e212 6fbe
00000020: d440 b2be 5cc9 973f ebf6 d2be 9841 a13f
00000030: 0c79 0abf 995a 343f eb45 f63e bc75 e2bd
00000040: 541b ec3e 5b37 563f e856 8c3f df08 833f
00000050: 764a ab3f 9bcb e33f 7220 813f c9cd c63f
00000060: 5f15 52be 8140 a83f 3e8c 0d3f d731 b03d
00000070: 607b 863f 9430 6b3e d0c9 0fbf 8fb7 ebbe
