models/model_epoch_3.pth (torch, 581156 bytes, 18 tensors)

conv1.weight f4 [16, 8, 3]
0.09734181 -0.14427345 0.002618216 0.20796739 0.045507237 -0.04962437 0.16417801 -0.07514706
0.19412547 0.03125348 0.17372327 -0.13018031 -0.17229092 0.09309883 -0.059295364 -0.14872992
0.17205463 -0.04442234 -0.17793709 0.17677486 0.10201513 0.08096218 -0.07131733 0.14466816
0.20096692 0.19225144 0.05976545 0.1182723 -0.12223301 0.07943714 0.105855696 -0.12875794
0.06268393 -0.04476149 0.15557773 -0.1301393 0.10786875 0.071251884 -0.016440805 -0.11864073
0.0076275775 -0.15481347 0.081906304 -0.13661265 -0.013858802 -0.03849384 0.12857299 -0.08623572
-0.14834958 -0.021841912 -0.110493645 -0.18542276 -0.1943291 0.18023993 -0.042924758 0.062417727
-0.09040522 0.15101577 -0.0968796 0.1058925 0.035067003 0.1775202 0.008712048 0.013204003
0.12820746 -0.16196884 -0.19413178 -0.058563177 -0.026595015 -0.047784418 -0.08308559 -0.006803314
0.18332244 -0.00037308116 -0.12998539 0.1602821 0.17670566 0.07116516 0.090319216 0.16601652
0.14054397 -0.11052811 0.012448992 -0.097013846 -0.015903594 0.03030457 0.10030481 0.027729161
0.15525712 -0.073523924 -0.20140691 0.17999092 0.009636794 -0.102768965 -0.018202038 0.088281
-0.06169699 0.18403228 -0.15048352 -0.08200573 0.16199659 0.06511901 0.018108135 0.19046606
-0.09922012 0.1401173 -0.040371068 0.017306274 0.09387213 0.033767883 0.014420516 -0.12909208
-0.07351864 -0.110579506 0.09121055 0.07045579 0.14570683 -0.16033112 -0.09031827 0.0807983
0.11698648 0.0150314355 0.055992827 -0.09389619 -0.0002083673 -0.1343292 0.1300921 0.17300543
-0.07199742 0.087703355 -0.056461997 0.015184112 0.24128121 -0.06927631 0.15568464 -0.16851234
-0.029633407 -0.1313436 0.16975884 -0.14759494 0.02810331 -0.10181232 0.004742637 -0.1313742
0.0973988 0.20317732 0.014649397 -0.026618922 0.022461593 -0.014051985 -0.16428365 -0.040834136
-0.023965986 -0.08934794 0.19392392 0.11147636 0.060141742 0.13736942 0.11353861 -0.102858976
0.17609674 -0.118962005 -0.09993603 0.19493154 0.11158713 0.1952368 0.011818219 -0.059770048
0.12919542 -0.06852825 -0.14524269 0.020823257 0.18460517 -0.02275966 -0.045708172 -0.124736086
-0.19027099 0.14377788 0.057108186 -0.017739978 -0.05237093 -0.18722972 0.12977695 0.206309
0.099550545 0.0921337 -0.10067469 0.37547868 -0.011028894 -0.017591134 0.11969476 0.043431666
-0.07130495 0.006384138 -0.033541486 0.074829176 0.09763882 -0.10535651 0.14714716 0.056581754
-0.15847029 -0.16519453 0.00023848568 -0.07636787 0.07900537 -0.0050950022 0.20014973 -0.17927647
-0.20923038 -0.12125346 -0.14549439 0.04610693 0.1949935 0.00033920933 -0.10404459 0.0578204
-0.10768618 0.057248417 0.19141462 -0.04386217 0.104071654 -0.1244121 0.04887363 0.071288526
-0.19223817 -0.07881556 0.13475166 0.1386632 -0.04909981 0.10304875 -0.112236686 -0.09210717
-0.06793396 0.14413069 0.10007722 -0.0844282 -0.08724088 0.12398806 -0.140626 0.09834241
0.12124845 0.12826742 -0.08920332 -0.054224372 -0.021605007 0.27150288 -0.13013563 -0.17556891
-0.04866878 -0.18394256 -0.21182224 -0.08482125 -0.12753321 -0.038314346 -0.0039740833 0.13230047
00000000: 255b c73d 6bbc 13be 6096 2b3b 67f5 543e
00000010: cc65 3a3d ec42 4bbd 481e 283e b4e6 99bd
00000020: d4c8 463e a603 003d 83e4 313e fd4d 05be
00000030: 086d 30be 99aa be3d b2df 72bd a84c 18be
00000040: 172f 303e 33f4 35bd 2435 36be 7804 353e
00000050: 4fed d03d 80cf a53d d20e 92bd e423 143e
00000060: 46ca 4d3e 90dd 443e 9ecc 743d bf38 f23d
00000070: 4d55 fabd f0af a23d dfca d83d 1fd9 03be
00000080: 6f60 803d d357 37bd c54f 1f3e 3d43 05be
00000090: 4bea dc3d 82ec 913d deae 86bc e9f9 f2bd
000000a0: c2f0 f93b 6c87 1ebe 7ebe a73d 30e4 0bbe
000000b0: 0710 63bc b7ab 1dbd a3a8 033e 5a9c b0bd
000000c0: f4e8 17be cfed b2bc 7e4a e2bd 77df 3dbe
000000d0: 35fe 46be d190 383e dfd1 2fbd bba9 7f3d
000000e0: 5f26 b9bd e1a3 1a3e d068 c6bd 2bde d83d
000000f0: 6ba2 0f3d dbc7 353e fabc 0e3c 9a55 583c
00000100: d148 033e 29db 25be 7bca 46be f1df 6fbd
00000110: cadd d9bc 98b9 43bd c728 aabd 56ee debb
00000120: e1b8 3b3e 1b9a c3b9 e41a 05be fe20 243e
00000130: 54f2 343e 0abf 913d 48f9 b83d 3c00 2a3e
00000140: c2ea 0f3e 905c e2bd dbf6 4b3c 32af c6bd
00000150: 4148 82bc 4a41 f83c 9c6c cd3d 4428 e33c
00000160: b9fb 1e3e b693 96bd 9d3d 4ebe 8a4f 383e
00000170: a5e3 1d3c 8978 d2bd 711c 95bc abcc b43d
00000180: fcb5 7cbd f572 3c3e 5a18 1abe 9ff2 a7bd
00000190: 6fe2 253e 1e5d 853d 8357 943c 8909 433e
000001a0: eb33 cbbd e97a 0f3e 225c 25bd e3c5 8d3c
000001b0: 0840 c03d 3150 0a3d 0744 6c3c b730 04be
000001c0: f190 96bd 8277 e2bd 99cc ba3d 204b 903d
000001d0: 2c34 153e d72d 24be c9f8 b8bd 9479 a53d
000001e0: 9c96 ef3d 6946 763c bc58 653d a54c c0bd
000001f0: 2c7d 5ab9 988d 09be dd36 053e 5628 313e
00000200: 6273 93bd d19d b33d b244 67bd c8c6 783c
00000210: 6c12 773e bde0 8dbd cb6b 1f3e 808e 2cbe
00000220: c2c1 f2bc f07e 06be 43d5 2d3e 2123 17be
00000230: ea38 e63c fa82 d0bd 1f68 9b3b f586 06be
00000240: 0679 c73d b70d 503e 0604 703c ed0f dabc
00000250: 6001 b83c 4c3a 66bc f939 28be b241 27bd
00000260: 5154 c4bc 0efc b6bd fe93 463e b84d e43d
00000270: 3057 763d 92aa 0c3e ee86 e83d baa7 d2bd
00000280: b452 343e 5aa2 f3bd 43ab ccbd 229c 473e
00000290: cb87 e43d 28ec 473e 34a1 413c 70d1 74bd
000002a0: ce4b 043e 8a58 8cbd 80ba 14be 8995 aa3c
000002b0: 2309 3d3e 7772 babc 7e38 3bbd a275 ffbd
000002c0: 66d6 42be 823a 133e 46ea 693d 6e53 91bc
000002d0: e682 56bd 26b9 3fbe 40e4 043e ab42 533e
000002e0: 28e1 cb3d 98b0 bc3d 882e cebd be3e c03e
000002f0: 89b2 34bc 481b 90bc 8722 f53d 67e5 313d
00000300: 5408 92bd 0832 d13b cc62 09bd 0a40 993d
00000310: ddf6 c73d 27c5 d7bd bfad 163e 45c2 673d
00000320: 0946 22be c128 29be 0312 7a39 c266 9cbd
00000330: 91cd a13d faf3 a6bb 0df4 4c3e 4094 37be
00000340: 7d40 56be bc53 f8bd 7bfc 14be 9fda 3c3d
00000350: 60ac 473e e8d7 b139 5415 d5bd 15d5 6c3d
00000360: 928a dcbd 517d 6a3d 3202 443e d2a8 33bd
00000370: 8523 d53d c5cb febd b72f 483d b8ff 913d
00000380: 15da 44be 0d6a a1bd 57fc 093e bafd 0d3e
00000390: e21c 49bd 390b d33d 59dc e5bd afa2 bcbd
000003a0: f620 8bbd ff96 133e 49f5 cc3d b1e8 acbd
000003b0: 59ab b2bd 74ed fd3d 4300 10be bf67 c93d
000003c0: 1b51 f83d 8958 033e 3bb0 b6bd 601a 5ebd
000003d0: fcfc b0bc 6d02 8b3e 4642 05be 56c8 33be
000003e0: ea58 47bd 705b 3cbe eee7 58be c3b6 adbd
000003f0: 1198 02be 81ef 1cbd 0739 82bb c679 073e

conv1.bias f4 [16]
0.030980483 0.2032917 -0.028556006 0.15219131 -0.20383772 -0.08139591 -0.10697267 0.013752597
-0.13772008 0.15739746 -0.054833878 -0.15513773 -0.06468359 0.03206062 0.13975541 0.13733126
00000000: c8ca fd3c b32b 503e 49ee e9bc 0ad8 1b3e
00000010: d6ba 50be e6b2 a6bd 7d14 dbbd 9352 613c
00000020: 7e06 0dbe cd2c 213e 7d99 60bd 6ddc 1ebe
00000030: d478 84bd ff51 033d 0b1c 0f3e 91a0 0c3e

conv2.weight f4 [32, 16, 3]
0.09877321 0.07770287 -0.061934285 -0.03716762 0.12741435 -0.00665966 0.00020401453 0.10303807
-0.07146841 -0.08628627 -0.09129751 -0.12304965 -0.038353775 -0.14303261 0.0038312927 0.053474706
-0.10105019 -0.0121436855 -0.08503332 -0.02844937 -0.037482616 0.10999966 -0.025360955 -0.037839837
-0.12446213 -0.047377627 0.013165755 0.015938545 0.07071251 -0.05765343 -0.06993311 -0.11560711
-0.20474832 0.044752657 -0.06908785 -0.20292027 0.07461405 -0.043926217 0.116650715 -0.0025896633
0.056004938 0.085303016 -0.06995749 0.14334464 -0.07811006 -0.020249154 0.12116665 -0.017226648
-0.13793921 0.07028933 0.16419034 0.10586558 0.049026582 0.069613755 -0.14190614 -0.11160509
-0.015900271 0.06851719 -0.14021997 0.008966209 -0.09922602 0.10743988 -0.046069182 -0.09526849
0.10925357 0.06416775 -0.083986364 0.017466385 -0.076312594 -0.09167053 0.05727469 0.14020896
-0.010914424 -0.05125281 -0.1142195 -0.10666372 -0.07866008 0.14287509 0.041001767 -0.07935094
0.17475182 -0.08899894 -0.054160327 -0.03601022 -0.022025576 -0.07153925 0.12053215 -0.024141565
0.041436642 0.09812051 -0.045345224 -0.0041947775 -0.050668795 -0.049806256 -0.10292844 0.11038908
-0.075161226 -0.019579586 0.020495825 0.03950994 0.043046523 -0.038965736 -0.11432587 -0.023160692
-0.12415924 -0.043193206 -0.08927557 0.10421614 0.057217058 0.014825153 0.13599712 0.11991886
-0.051472507 -0.030416764 0.013163344 0.007077586 0.033982787 0.027144387 -0.02239716 -0.010592841
-0.017860238 0.053015158 -0.027402036 0.013897162 -0.10398241 -0.0304131 -0.1132477 -0.13105202
-0.036483545 -0.08693015 -0.087312035 0.073470525 0.0007358308 -0.058431707 0.072322935 0.025140068
0.058375187 -0.0690688 -0.055141486 0.017194197 0.10877411 0.14258265 -0.048742607 0.09896832
-0.37708998 0.3072156 -0.008161829 -0.11063418 0.024112452 0.11514682 0.16433667 -0.23314567
0.10071157 -0.12928587 -0.076310046 0.07462759 0.0023636746 -0.08956768 -0.005953338 -0.15336667
-0.09264514 -0.07306133 -0.13176274 -0.03408365 -0.12106349 -0.07880224 -0.11822923 0.0067110914
-0.0089468695 0.06188572 0.13995436 -0.11467786 -0.098098606 -0.017371507 0.08849712 -0.07337725
-0.08874411 -0.06509722 0.1523351 0.05705614 0.09688628 -0.10078333 0.13821808 0.08879009
0.064905 0.01581304 0.10883184 -0.04381491 0.12164134 -0.10385103 0.0900608 0.048131783
-0.03558588 -0.01385116 0.0026201545 -0.13046242 0.06802922 0.079127096 0.094339035 0.0098719355
0.050826468 0.011132836 0.11437164 0.03939717 -0.00032547585 0.14299779 -0.08240205 0.13193856
0.049075473 -0.12481016 0.08841044 -0.0016529995 -0.026896099 -0.17578523 -0.027450623 -0.050787035
0.019048505 -0.07623861 -0.039284416 -0.027098807 0.065485016 0.12803537 -0.03130771 -0.12865752
-0.023098443 -0.1589996 -0.09459377 0.03515468 0.05961635 0.05040908 0.05316014 -0.06921089
0.009765308 0.0020284427 -0.049417097 0.000869662 -0.07555903 -0.030643959 -0.11343281 -0.09599513
-0.16496076 0.0046828743 0.08944929 0.11876147 -0.08402766 -0.012886098 -0.11022083 0.06557652
0.07866164 0.001407 0.040863223 -0.02989629 0.09498886 0.08473472 -0.01515118 0.008447349
00000000: 9c49 ca3d af22 9f3d ceae 7dbd 133d 18bd
00000010: e878 023e 4739 dabb bcec 5539 a005 d33d
00000020: 085e 92bd dbb6 b0bd 30fa babd 7401 fcbd
00000030: d918 1dbd 2477 12be 6d16 7b3b 4b08 5b3d
00000040: 67f3 cebd 4ff6 46bc f325 aebd a70e e9bc
00000050: 5f87 19bd 8047 e13d c7c1 cfbc f2fd 1abd
00000060: 00e6 febd 0b0f 42bd 2eb5 573c 8d91 823c
00000070: b8d1 903d 0126 6cbd 1739 8fbd 6cc3 ecbd
00000080: 8ba9 51be 904e 373d ee7d 8dbd 55ca 4fbe
00000090: 40cf 983d faeb 33bd 92e6 ee3d 57b7 29bb
000000a0: 6f65 653d 59b3 ae3d df45 8fbd f0c8 123e
000000b0: 2bf8 9fbd 8ee1 a5bc 3826 f83d e61e 8dbc
000000c0: f03f 0dbe daf3 8f3d 8321 283e 0ed0 d83d
000000d0: 19d0 483d a891 8e3d d84f 11be 3691 e4bd
000000e0: 4941 82bc be52 8c3d d395 0fbe 02e7 123c
000000f0: 0337 cbbd 7109 dc3d 0ab3 3cbd 201c c3bd
00000100: 56c0 df3d 626a 833d 0b01 acbd aa15 8f3c
00000110: c749 9cbd c2bd bbbd de98 6a3d f092 0f3e
00000120: 6ad2 32bc 77ee 51bd eaeb e9bd 8272 dabd
00000130: 8918 a1bd d94d 123e 78f1 273d bf82 a2bd
00000140: 24f2 323e 1445 b6bd 38d7 5dbd 747f 13bd
00000150: fb6e b4bc 2c83 92bd 8fd9 f63d 88c4 c5bc
00000160: 78b9 293d 68f3 c83d eabb 39bd 5874 89bb
00000170: 158a 4fbd a501 4cbd 25cc d2bd ac13 e23d
00000180: 21ee 99bd 5e65 a0bc dce6 a73c 2dd5 213d
00000190: 8d51 303d 899a 1fbd af23 eabd 7ebb bdbc
000001a0: 3347 febd 5ceb 30bd 1cd6 b6bd 466f d53d
000001b0: 6f5c 6a3d 33e5 723c d442 0b3e 0598 f53d
000001c0: d6d4 52bd 942c f9bc 11ab 573c 18eb e73b
000001d0: 8931 0b3d e85d de3c 407a b7bc 988d 2dbc
000001e0: a24f 92bc 6c26 593d 3c7a e0bc ecb0 633c
000001f0: bbf4 d4bd e524 f9bc 69ee e7bd 8032 06be
00000200: c56f 15bd 6f08 b2bd a7d0 b2bd b777 963d
00000210: c5e4 403a 1656 6fbd 0c1e 943d 8bf2 cd3c
00000220: d21a 6f3d f173 8dbd 0adc 61bd d8da 8c3c
00000230: f6c4 de3d 3001 123e 54a6 47bd e7af ca3d
00000240: f011 c1be 5d4b 9d3e 31b9 05bc 2c94 e2bd
00000250: 7a87 c53c 19d2 eb3d df47 283e bdbd 6ebe
00000260: de41 ce3d 8463 04be 7148 9cbd 5ad6 983d
00000270: e1e7 1a3b 436f b7bd 3814 c3bb 270c 1dbe
00000280: bcbc bdbd 2ea1 95bd d0ec 06be 4c9b 0bbd
00000290: 23f0 f7bd 1263 a1bd 2b22 f2bd b7e8 db3b
000002a0: e495 12bc e17b 7d3d 3250 0f3e 3adc eabd
000002b0: ece7 c8bd b14e 8ebc fa3d b53d d046 96bd
000002c0: 79bf b5bd b151 85bd bcfd 1b3e b3b3 693d
000002d0: 506c c63d 7e67 cebd 0a89 0d3e 94d7 b53d
000002e0: eaec 843d 598a 813c 3ae3 de3d 4377 33bd
000002f0: 181f f93d d9af d4bd cc71 b83d d525 453d
00000300: 80c2 11bd faef 62bc e6b6 2b3b f197 05be
00000310: e752 8b3d 630d a23d d334 c13d e6bd 213c
00000320: 6a2f 503d 8066 363c ae3b ea3d ed5e 213d
00000330: a1a4 aab9 036e 123e 68c2 a8bd e71a 073e
00000340: 5d03 493d 789c ffbd 8810 b53d 76a9 d8ba
00000350: 3555 dcbc 0b01 34be 21e0 e0bc 1106 50bd
00000360: 9c0b 9c3c fd22 9cbd b2e8 20bd 51fe ddbc
00000370: 021d 863d b41b 033e 833c 00bd ccbe 03be
00000380: f238 bdbc cbd0 22be 61ba c1bd 5bfe 0f3d
00000390: 4630 743d c079 4e3d 72be 593d 70be 8dbd
000003a0: acfe 1f3c 9fef 043b 9569 4abd 07fa 633a
000003b0: b1be 9abd 0a09 fbbc 764f e8bd 1899 c4bd
000003c0: 79eb 28be cc72 993b 3031 b73d 3739 f33d
000003d0: b216 acbd 3620 53bc 75bb e1bd fc4c 863d
000003e0: 5b19 a13d 166b b83a 3260 273d 10e9 f4bc
000003f0: 8589 c23d 6689 ad3d a83c 78bc c066 0a3c

conv2.bias f4 [32]
-0.0365913 -0.15358678 -0.17328481 0.11524445 0.011519059 -0.14472355 -0.17362313 0.0006417042
0.08559731 -0.09502732 -0.06707824 0.01949491 -0.10844013 0.12546374 -0.100062855 -0.027118303
-0.111013785 -0.18356423 0.090418346 0.023776632 0.043572787 -0.059270233 -0.17314894 0.08804519
0.080178596 -0.036861643 0.056197476 0.018303983 -0.026232183 -0.15116663 0.057864327 0.120944135
00000000: c2e0 15bd da45 1dbe 9371 31be 4805 ec3d
00000010: 6fba 3c3c 6932 14be 43ca 31be 0a38 283a
00000020: a44d af3d af9d c2bd 5160 89bd cab3 9f3c
00000030: dc15 debd 9179 003e c1ed ccbd 3427 debc
00000040: 325b e3bd 43f8 3bbe 412d b93d 36c7 c23c
00000050: 6179 323d 58c5 72bd f54d 31be 0951 b43d
00000060: ad34 a43d 3cfc 16bd 532f 663d 3cf2 953c
00000070: e0e4 d6bc 6dcb 1abe 2503 6d3d 8fb1 f73d

transformer.layers.0.self_attn.in_proj_weight f4 [96, 32]
0.28612405 0.21790773 0.069703035 -0.48305836 -0.047634587 -0.11218077 0.060614835 0.1591818
0.16649266 0.09740938 0.7453703 0.21252514 0.17439593 0.8111183 0.352581 0.40736184
0.20345335 0.20775618 -0.07311241 0.056735758 0.17040737 0.24972911 0.08616637 0.061878562
0.2009573 0.23389836 0.39866504 0.14286405 -0.03918382 0.021769272 0.37989876 0.2857459
0.015243367 -0.20714578 -0.08796156 -0.12620787 0.05589283 -0.19208194 -0.14015584 -0.13625889
-0.0008321574 0.12847719 -0.40274584 -0.03799105 -0.28459188 -0.6520872 0.11246583 -0.112340756
-0.051033214 0.00816306 -0.03897459 0.16222957 0.23344953 0.038035396 -0.1046859 -0.25537395
-0.22927277 -0.34001797 0.10240528 -0.12664738 0.14781146 0.044574704 -0.19728468 -0.02192657
-0.17677619 0.17688131 0.11977476 0.15211518 -0.09303945 0.13214616 -0.15411827 0.17325892
-0.10253041 -0.036303446 0.14636797 -0.19030568 -0.025165662 0.09422424 -0.12906374 0.35220245
-0.05428274 -0.028380144 0.15094627 -0.041221123 0.07384719 -0.098366365 -0.09988543 0.04283928
-0.0929778 0.19660471 0.23560344 0.16520059 0.15958406 0.03246116 0.31899196 0.06794271
-0.31693277 -0.26110312 0.20924133 0.9039572 -0.16955048 0.19963136 -0.008180146 -0.06662921
0.028167099 -0.10922076 -0.3921029 -0.000116300704 -0.07801141 -0.86373156 -0.14298758 -0.12222359
-0.091543354 -0.17333844 0.114166684 0.24652214 -0.15506795 -0.23955098 -0.3345678 -0.26948154
0.1775578 -0.35797876 -0.2243126 0.009911577 0.11555468 0.14647748 -0.42270136 -0.0046241167
0.069666795 -0.10168268 -0.11110845 0.037309386 -0.01112893 0.0014008406 0.12392865 0.11630954
0.08746137 -0.15564711 0.26286015 0.06958896 0.11313606 0.20247233 0.062272247 0.19182223
0.027223054 0.01930616 -0.07872927 0.11640302 0.09464289 0.17784803 0.051775943 0.004057173
0.27428845 0.028482633 0.04237689 0.31907058 -0.060462788 -0.038159173 0.24676925 0.22484092
-0.14423929 -0.14129983 0.033457037 -0.32298428 -0.09090531 -0.13166086 0.12388476 0.0033201682
-0.15710682 -0.054977007 -0.269908 0.07863959 -0.12156419 -0.25529376 -0.23002186 -0.15145929
-0.02576894 -0.045756407 0.21333787 -0.101106286 0.117283255 0.11115283 -0.1628029 -0.26744723
-0.21197736 0.08129474 -0.010815525 -0.27602503 -0.19909233 -0.36622488 0.022141222 -0.22229823
-0.2471443 -0.16683574 0.01682222 -0.22624266 -0.36213022 0.1420439 -0.18423644 -0.16370723
-0.078030296 -0.06572655 -0.122427575 -0.02237754 -0.33470434 -0.37178132 -0.081834555 -0.33232018
-0.28148887 -0.032681238 -0.044555392 -0.30077338 0.1968369 -0.055525847 -0.06854098 -0.02894401
-0.31015456 -0.091105685 -0.21900035 -0.29812273 0.069887795 -0.07651843 -0.21152754 -0.18887454
-0.08947657 -0.08838576 0.09303378 -0.2191529 -0.23998891 -0.17943223 0.03425826 -0.40239713
-0.013664595 -0.07503766 -0.22767608 0.2096124 -0.06721963 -0.5047867 -0.032166876 -0.19999808
-0.12138117 -0.16121356 0.07838495 -0.4089428 0.12540923 0.18764548 -0.23512994 -0.19907443
-0.26057044 0.24658476 -0.32868594 -0.07867521 0.078976646 -0.15329975 0.03224374 -0.31596535
00000000: da7e 923e 3423 5f3e 77c0 8e3d 6d53 f7be
00000010: 7c1c 43bd 08bf e5bd 4347 783d 8e00 233e
00000020: 0d7d 2a3e 927e c73d 97d0 3e3f 31a0 593e
00000030: d994 323e 73a5 4f3f 7f85 b43e bb91 d03e
00000040: 1356 503e 09be 543e f6bb 95bd c163 683d
00000050: 457f 2e3e fdb8 7f3e fe77 b03d 6074 7d3d
00000060: c0c7 4d3e 0d83 6f3e d31d cc3e f44a 123e
00000070: 377f 20bd 7955 b23c 1782 c23e 494d 923e
00000080: 51bf 793c 061e 54be 3125 b4bd a33c 01be
00000090: e1ef 643d 21b1 44be 0385 0fbe 7387 0bbe
000000a0: 2325 5aba 868f 033e b434 cebe 819c 1bbd
000000b0: 07b6 91be 30ef 26bf 7c54 e63d e912 e6bd
000000c0: 3408 51bd 5bbe 053c d2a3 1fbd 821f 263e
000000d0: 650d 6f3e 01cb 1b3d 9065 d6bd 60c0 82be
000000e0: 7bc6 6abe d616 aebe dcb9 d13d daaf 01be
000000f0: e35b 173e f793 363d ff04 4abe 5a9f b3bc
00000100: d104 35be 6020 353e 784c f53d 15c4 1b3e
00000110: 788b bebd 5351 073e 2ed1 1dbe c96a 313e
00000120: 77fb d1bd ecb2 14bd 7ce1 153e 7edf 42be
00000130: 3828 cebc a3f8 c03d 4929 04be e153 b43e
00000140: 9457 5ebd 7a7d e8bc a991 1a3e 7bd7 28bd
00000150: 323d 973d 4e74 c9bd bb90 ccbd 3e78 2f3d
00000160: 256b bebd bf52 493e 0742 713e 582a 293e
00000170: 016a 233e fef5 043d ea52 a33e 8c25 8b3d
00000180: 0345 a2be 4faf 85be 5c43 563e bd69 673f
00000190: a49e 2dbe 2a6c 4c3e 0506 06bc e574 88bd
000001a0: b0be e63c 22af dfbd b6c1 c8be 77e6 f3b8
000001b0: 72c4 9fbd 831d 5dbf 566b 12be 5d50 fabd
000001c0: 157b bbbd a27f 31be 39d0 e93d 4d70 7c3e
000001d0: 22ca 1ebe da4c 75be 784c abbe 7cf9 89be
000001e0: b6d1 353e fe48 b7be 34b2 65be 2b64 223c
000001f0: efa7 ec3d 31fe 153e 506c d8be e785 97bb
00000200: 77ad 8e3d 023f d0bd d48c e3bd bad1 183d
00000210: 1e56 36bc 699c b73a 4ece fd3d b233 ee3d
00000220: f21e b33d f561 1fbe 9b95 863e a884 8e3d
00000230: e1b3 e73d e854 4f3e 2f11 7f3d 0c6d 443e
00000240: e202 df3c f427 9e3c d03c a1bd b564 ee3d
00000250: 22d4 c13d cb1d 363e 0313 543d 09f2 843b
00000260: 896f 8c3e 6954 e93c 6493 2d3d 385d a33e
00000270: d4a7 77bd cb4c 1cbd 14b1 7c3e b33c 663e
00000280: 77b3 13be e7b0 10be 3f0a 093d 325e a5be
00000290: 902c babd 1bd2 06be 4bb7 fd3d 2e97 593b
000002a0: 9ce0 20be 922f 61bd 6231 8abe cb0d a13d
000002b0: a5f6 f8bd ddb5 82be da8a 6bbe 2518 1bbe
000002c0: 6219 d3bc 126b 3bbd 3e75 5a3e d010 cfbd
000002d0: 3432 f03d 18a4 e33d ceb5 26be d8ee 88be
000002e0: 9810 59be db7d a63d 9a33 31bc 2753 8dbe
000002f0: dcde 4bbe d481 bbbe 8261 b53c 26a2 63be
00000300: 6513 7dbe fdd6 2abe c1ce 893c 28ac 67be
00000310: 2269 b9be f573 113e 7aa8 3cbe dea2 27be
00000320: 59ce 9fbd a49b 86bd 4fbb fabd 1a51 b7bc
00000330: 5e5e abbe 1f5a bebe e098 a7bd df25 aabe
00000340: 4f1f 90be c3dc 05bd b77f 36bd f8fe 99be
00000350: 9d8f 493e 126f 63bd 375f 8cbd fd1b edbc
00000360: 94cc 9ebe 9e95 babd a141 60be 8ba3 98be
00000370: 5521 8f3d b2b5 9cbd ad9a 58be 5468 41be
00000380: 7e3f b7bd 9803 b5bd 7f88 be3d 9e69 60be
00000390: a7bf 75be 15bd 37be 6452 0c3d ff06 cebe
000003a0: 77e1 5fbc 58ad 99bd eb23 69be a2a4 563e
000003b0: 72aa 89bd b339 01bf 6ac1 03bd 4ccc 4cbe
000003c0: b196 f8bd 2b15 25be 4a88 a03d f360 d1be
000003d0: 476b 003e 2326 403e e7c5 70be 2bda 4bbe
000003e0: 7d69 85be b780 7c3e 8649 a8be 7820 a1bd
000003f0: 82be a13d 9cfa 1cbe 0312 043d 36c6 a1be

transformer.layers.0.self_attn.in_proj_bias f4 [96]
0.2632041 -0.22681081 0.15678726 -0.14681149 0.11782412 -0.20049207 -0.15762122 -0.1894424
-0.22784756 -0.34846166 -0.21843179 -0.3684278 -0.11516356 -0.010548327 0.009543526 0.025971528
0.16716936 0.17039697 -0.1442604 -0.18811116 -0.13223733 0.12638295 0.08615356 -0.055824477
-0.104424655 0.050373986 -0.07766483 0.18029878 -0.12695178 -0.14891212 0.054542422 -0.057347495
0.2034741 -0.057551578 0.05633153 -0.58598334 0.26934937 -0.37816876 -0.2537247 -0.34569013
0.011240863 -0.08285003 0.021587804 -0.2833661 0.014997613 -0.046378713 0.024009226 -0.05801526
0.21520285 0.10236704 -0.37160498 -0.34402534 0.11771752 -0.09280045 -0.08837973 0.10608031
-0.01499117 -0.06019639 -0.16076358 0.34724727 -0.099085346 -0.36756247 0.028247356 -0.02088269
0.01875732 0.10373425 -0.10955733 0.044807777 -0.028307525 0.15661158 -0.014754034 0.12399491
-0.13214876 -0.0045956913 -0.056964125 0.19339761 0.17655525 0.22370426 -0.1927561 0.073904365
-0.08097486 -0.17138053 -0.10521889 -0.14155799 0.06392726 0.096391074 -0.1252586 -0.10141945
0.025717964 -0.033296593 0.12825905 -0.0039185626 -0.042719595 0.05032007 -0.0018983985 0.093909636
00000000: b0c2 863e 1841 68be d78c 203e c055 16be
00000010: c64d f13d cb4d 4dbe 7567 21be 30fd 41be
00000020: df50 69be 9169 b2be 95ac 5fbe 92a2 bcbe
00000030: dfda ebbd e4d2 2cbc 735c 1c3c 3ec2 d43c
00000040: 722e 2b3e 8b7c 2e3e 00b9 13be 36a0 40be
00000050: 3969 07be 886a 013e 4771 b03d 35a8 64bd
00000060: 98dc d5bd f454 4e3d bd0e 9fbd 3ea0 383e
00000070: a6ff 01be 6b7c 18be e067 5f3d 35e5 6abd
00000080: 845b 503e 34bb 6bbd e4bb 663d 0103 16bf
00000090: 29e8 893e 569f c1be 34e8 81be 4cfe b0be
000000a0: 992b 383c 47ad a9bd e8d8 b03c 5d15 91be
000000b0: 8cb8 753c 9bf7 3dbd ffae c43c 69a1 6dbd
000000c0: 235e 5c3e d0a5 d13d 0243 bebe 1724 b0be
000000d0: e215 f13d 2a0e bebd 6f00 b5bd a240 d93d
000000e0: 869d 75bc 7d90 76bd 359f 24be 65ca b13e
000000f0: 42ed cabd 2631 bcbe 0067 e73c 2d12 abbc
00000100: f3a8 993c 9f72 d43d 985f e0bd 5c88 373d
00000110: 2fe5 e7bc c95e 203e e7ba 71bc 0bf1 fd3d
00000120: 0152 07be 7497 96bb 3753 69bd 060a 463e
00000130: e6ca 343e bb12 653e db61 45be 2c5b 973d
00000140: 26d6 a5bd 617e 2fbe 007d d7bd 94f4 10be
00000150: 4cec 823d af68 c53d ca43 00be 00b5 cfbd
00000160: 7bae d23c 0262 08bd 5756 033e 4967 80bb
00000170: befa 2ebd 6b1c 4e3d afd3 f8ba b253 c03d

transformer.layers.0.self_attn.out_proj.weight f4 [32, 32]
0.1189879 -0.17804848 0.3187406 -0.15769467 0.2105337 0.11917481 0.14820617 0.5206125
-0.18014951 -0.24791181 0.0048360014 0.121213235 -0.43003923 -0.021511685 0.20714742 0.064476974
0.31374604 0.33423898 0.5023216 0.06957222 0.19973105 0.17971702 -0.12664615 -0.09139952
0.26436198 -0.07475183 0.0024081408 -0.10801807 0.2765382 -0.23387001 -0.37050003 -0.2942704
0.4523752 -0.16697289 -0.14468901 0.5830196 0.20977125 0.31873196 0.2443946 -0.14509138
0.067842655 -0.25789222 -0.23314148 0.7326713 -0.31069586 0.13981321 0.5933199 0.48653245
-0.2359423 -0.16220436 0.020950433 -0.24964057 0.15063402 -0.012582474 0.3440543 -0.042080037
0.4040961 -0.49511153 -0.33205408 0.16238746 -0.1386402 -0.15730128 0.1327627 0.06263614
0.07541125 0.0040171384 0.033022474 -0.51058334 0.13787013 -0.042980555 0.012060502 0.24754845
-0.21168667 0.23738387 0.048473448 -0.27476874 -0.074517466 0.02430616 -0.017946932 0.02961037
0.13216254 -0.019737676 0.13780871 0.014743 -0.00045273083 0.10371083 -0.33984974 -0.08747744
0.17824996 0.07476349 -0.025939645 -0.08559885 -0.11011707 0.059419695 -0.43564254 -0.021172414
0.48345378 -0.08415488 -0.44473374 0.23506178 0.52117294 0.4762428 0.306048 -0.36440632
-0.026006928 -0.40792277 -0.12892272 0.6875778 -0.4051672 0.43007618 0.44269255 0.3089511
-0.28275052 -0.32515183 -0.3408673 -0.12720868 0.19742306 0.22265582 0.37540582 -0.4093982
0.48733795 -0.3080775 -0.46053168 0.33141583 -0.35791627 -0.049531583 0.15129253 -0.111033835
-0.06287588 0.0970962 0.04446924 0.298972 -0.15222609 -0.12321301 -0.08639534 -0.44375536
0.5104693 -0.0012691666 -0.12587345 -0.069533356 0.17716412 -0.1740611 -0.04202452 -0.07244993
-0.10531037 -0.08847104 -0.18010072 -0.08389086 -0.23903261 -0.17058183 0.343338 0.05218079
-0.032440543 0.06296263 -0.027092546 0.046301574 -0.06934447 0.09464154 0.18068108 0.04360327
-0.36462492 -0.115187764 0.031062778 0.41969514 -0.030979821 0.039320216 -0.016672082 -0.080523826
0.36691907 -0.39965516 0.37252197 0.115977876 -0.28563717 -0.17557344 0.23521943 0.005276747
0.1179772 0.19070704 -0.19864082 0.05382853 -0.18645594 -0.48404315 0.31507066 0.0017459007
-0.15036315 0.0021883307 0.039181754 0.21372518 0.21172057 0.08204722 0.15215313 -0.113892235
0.17265768 0.0009558611 0.1016128 -0.5037979 0.051457975 -0.23473287 0.1724273 0.10401552
0.03252621 0.3035291 -0.11575699 -0.27925268 0.081622876 -0.07420408 0.016768787 0.039210673
0.07738842 0.028124414 0.3043984 -0.014312992 -0.09650714 0.0559934 -0.1348898 -0.035630684
0.12215349 0.014837178 -0.043043282 -0.22812364 -0.20853652 -0.04351554 -0.4233949 -0.066405065
-0.34160826 0.5438533 -0.4280009 0.370665 0.30531815 0.20889272 -0.48602772 -0.12770557
-0.72741544 -0.0789435 0.40752858 0.039252877 -0.017862186 0.12485609 0.2969625 0.106866516
-0.37231967 -0.12904397 -0.64780116 -0.16168968 0.17260882 -0.002903518 -0.21947856 0.30131993
-0.18973643 0.13120174 -0.11301209 0.57085234 0.18484268 0.3332531 0.12640062 0.43600637
00000000: eeaf f33d 5752 36be f831 a33e b67a 21be
00000010: 2596 573e ec11 f43d 5cc3 173e dc46 053f
00000020: 1d79 38be 98dc 7dbe 5277 9e3b a53e f83d
00000030: 1a2e dcbe 4639 b0bc 741e 543e 810c 843d
00000040: 52a3 a03e 5f21 ab3e 2698 003f e17b 8e3d
00000050: 4c86 4c3e bd07 383e 87af 01be ac2f bbbd
00000060: 745a 873e 7d17 99bd e6d1 1d3b 9438 ddbd
00000070: 6a96 8d3e 9f7b 6fbe 2eb2 bdbe 9caa 96be
00000080: b99d e73e f1fa 2abe 5b29 14be c640 153f
00000090: 46ce 563e d630 a33e 9442 7a3e d692 14be
000000a0: 17f1 8a3d 730a 84be a4bc 6ebe 5990 3b3f
000000b0: 8713 9fbe 322b 0f3e d0e3 173f c81a f93e
000000c0: dc9a 71be e618 26be 3ea0 ab3c c7a1 7fbe
000000d0: ce3f 1a3e b926 4ebc e327 b03e 1e5c 2cbd
000000e0: afe5 ce3e 427f fdbe fe02 aabe e648 263e
000000f0: b2f7 0dbe 9613 21be f2f2 073e 6047 803d
00000100: 3771 9a3d 33a2 833b 9342 073d 97b5 02bf
00000110: d42d 0d3e 610c 30bd 6999 453c 577d 7d3e
00000120: 64c4 58be c214 733e 188c 463d 7dae 8cbe
00000130: 9d9c 98bd b61d c73c 7205 93bc 7291 f23c
00000140: 9e55 073e e8b0 a1bc ba1d 0d3e a08c 713c
00000150: 815c edb9 5866 d43d c900 aebe 5f27 b3bd
00000160: 2887 363e 9a1d 993d 617f d4bc 734e afbd
00000170: 0f85 e1bd 1162 733d 8a0c dfbe c571 adbc
00000180: 4187 f73e 6559 acbd 24b4 e3be 09b4 703e
00000190: 976b 053f 19d6 f33e 53b2 9c3e 7793 babe
000001a0: 7b0c d5bc 41db d0be 5104 04be 1905 303f
000001b0: 1372 cfbe f232 dc3e 99a8 e23e d72e 9e3e
000001c0: adc4 90be 4d7a a6be 2986 aebe fe42 02be
000001d0: 4529 4a3e e3ff 633e 3135 c03e a49c d1be
000001e0: 5c84 f93e 56bc 9dbe cfca ebbe 56af a93e
000001f0: cd40 b7be a1e1 4abd 6eec 1a3e b565 e3bd
00000200: 12c5 80bd 5fda c63d 6125 363d dc12 993e
00000210: 28e1 1bbe 1a57 fcbd 0af0 b0bd e733 e3be
00000220: 1eae 023f 2a5a a6ba f8e4 00be 8167 8ebd
00000230: 836a 353e 133d 32be e721 2cbd a160 94bd
00000240: f7ac d7bd 4e30 b5bd 536c 38be f9ce abbd
00000250: f7c4 74be 01ad 2ebe 00ca af3e 86bb 553d
00000260: 60e0 04bd 8df2 803d 30f1 ddbc b8a6 3d3d
00000270: 7904 8ebd 6cd3 c13d 7604 393e 5899 323d
00000280: 1eb0 babe 90e7 ebbd 5e77 fe3c 48e2 d63e
00000290: 65c9 fdbc 3c0e 213d e493 88bc ade9 a4bd
000002a0: d1dc bb3e 9a9f ccbe 33bb be3e cf85 ed3d
000002b0: 093f 92be 86c9 33be 5ddd 703e 90e8 ac3b
000002c0: 089e f13d b548 433e 8068 4bbe 4e7b 5c3d
000002d0: 4eee 3ebe 81d4 f7be f150 a13e b5d6 e43a
000002e0: ccf8 19be 196a 0f3b 0c7d 203d c6da 5a3e
000002f0: 47cd 583e 5f08 a83d 08ce 1b3e 5540 e9bd
00000300: 2dcd 303e c192 7a3a 5f1a d03d e6f8 00bf
00000310: 99c5 523d d05d 70be c890 303e 1706 d53d
00000320: 343a 053d 2b68 9b3e 0012 edbd 35fa 8ebe
00000330: e529 a73d 4ff8 97bd b25e 893c 5f9b 203d
00000340: d27d 9e3d 2c65 e63c 1bda 9b3e 0a81 6abc
00000350: 89a5 c5bd 5659 653d 8d20 0abe 7bf1 11bd
00000360: 9c2b fa3d a317 733c 274e 30bd 3e99 69be
00000370: 998a 55be 5a3d 32bd 37c7 d8be 61ff 87bd
00000380: 47e7 aebe f839 0b3f ef22 dbbe cec7 bd3e
00000390: a952 9c3e f9e7 553e a0d8 f8be 40c5 02be
000003a0: e637 3abf 21ad a1bd 96a7 d03e a0c7 203d
000003b0: b853 92bc 8db4 ff3d 780b 983e d5dc da3d
000003c0: afa0 bebe 1a24 04be 4cd6 25bf fb91 25be
000003d0: 5ec0 303e f348 3ebb fdbe 60be 9b46 9a3e
000003e0: 444a 42be c059 063e e272 e7bd 6123 123f
000003f0: 6647 3d3e 26a0 aa3e 2a6f 013e 3a3c df3e

transformer.layers.0.self_attn.out_proj.bias f4 [32]
0.090988874 0.1330768 0.072361626 0.63651466 -0.21084183 -0.07041719 0.1778629 -0.19635662
-0.1330051 0.16590762 0.1843718 -0.02432517 -0.037162215 -0.0783979 -0.10158222 -0.2558045
-0.1320977 0.46315733 0.1185225 -0.10472266 0.10434271 -0.043280177 -0.048285298 -0.022750542
-0.032916907 -0.046401944 -0.12412811 -0.3163933 0.099813536 -0.047420625 -0.068765655 -0.19718558
00000000: 6058 ba3d 4945 083e 5532 943d a0f2 223f
00000010: ece6 57be e336 90bd b121 363e b611 49be
00000020: 7d32 08be b0e3 293e f6cb 3c3e 9445 c7bc
00000030: 6837 18bd 148f a0bd 570a d0bd cff8 82be
00000040: 9f44 07be f522 ed3e edbb f23d d578 d6bd
00000050: a1b1 d53d 8e46 31bd cec6 45bd 585f babc
00000060: e1d3 06bd f70f 3ebd e136 febd 4dfe a1be
00000070: 0a6b cc3d 213c 42bd 02d5 8cbd 04eb 49be

transformer.layers.0.linear1.weight f4 [2048, 32]
0.21050425 0.035049453 -0.0068921847 0.04829092 0.06642495 0.3172276 -0.044265047 -0.23758894
-0.28069124 -0.068334885 -0.17214958 0.07661658 -0.25991374 -0.027921988 0.01888886 -0.00398591
-0.0568864 -0.13802415 0.02713722 0.3406954 -0.010450616 0.17237806 -0.11493438 0.3422842
-0.10032934 0.0175722 -0.022412064 -0.21172766 0.066877864 0.03600397 0.15316214 -0.18158898
0.06730593 -0.05213427 -0.019491078 0.12366645 0.20288354 -0.058044452 0.020431813 0.115782335
0.10078695 0.003327382 0.014905406 0.0835438 -0.12603176 0.26994425 0.041115273 0.04937482
-0.1909592 -0.06260867 0.017066196 -0.034346674 0.09897395 0.027716603 0.25772244 0.07599305
-0.086187735 0.12146472 -0.1935549 -0.22930661 0.06900608 0.0987673 -0.12817943 0.03121197
0.02785558 -0.15403007 0.06938295 0.08820296 0.05007044 -0.055251762 0.11624289 -0.19832413
-0.06555557 -0.06859553 0.050122555 0.13204522 -0.22155136 -0.044412263 -0.23743024 -0.084466726
0.06380441 -0.10547792 -0.088599846 0.0110967085 0.029492497 -0.01585736 -0.05231055 -0.039558657
-0.222355 0.085787915 -0.19459674 0.04400419 0.020223942 -0.043141007 -0.1599842 0.11040477
0.17220935 0.05024035 0.14617608 -0.036654457 0.058603216 -0.12547587 -0.107875355 -0.09242377
-0.09636807 0.0661011 -0.00081554893 0.008555423 -0.10507196 0.029017262 -0.23616111 -0.19606973
-0.17369291 -0.15679707 -0.05599188 0.00024049975 0.028704017 0.10977664 0.16170664 0.08371506
-0.18467346 0.093488246 -0.013869395 -0.00022592273 0.041876074 0.014389062 -0.2140377 -0.15857884
0.14366756 -0.012491657 0.1252953 -0.21745344 -0.18733156 0.015276557 -0.016827384 0.012632509
-0.09667709 0.22952273 -0.24095947 0.09028279 -0.048450388 0.050099853 0.024099886 0.14328717
-0.24963278 -0.14424749 -0.05425182 -0.118429616 0.022392293 -0.17348327 0.32239094 -0.22067569
-0.031026283 0.008673497 -0.10336152 -0.04191261 0.017175457 0.15084969 0.030349202 0.090785146
0.17877671 -0.0007131488 0.108486205 0.005598196 0.10094247 0.014297381 0.11412695 0.10709022
-0.0038322126 0.024333986 0.037621602 0.029851807 0.054512937 -0.1071135 -0.06657633 -0.10536282
-0.099158004 0.002863042 -0.06470282 0.21179959 -0.010596871 0.027764976 0.15186265 0.011395983
-0.15908718 0.083532386 -0.08142756 -0.058436275 -0.023497142 -0.07575802 -0.19928196 -0.18541208
-0.020386305 0.06820344 0.2599197 0.08511143 -0.054769393 0.16054606 -0.058492202 -0.19693433
-0.21367912 -0.0022878277 -0.22808993 0.025449345 -0.064594455 -0.045569554 -0.23340869 -0.21061878
-0.12444989 -0.15659945 0.1629509 0.15335737 -0.029445732 -0.1086989 0.17770228 0.096869916
-0.17701998 -0.02300349 0.0692812 -0.2258594 -0.0014691809 -0.104993016 -0.04409374 -0.1271691
-0.106541425 0.104784675 -0.10980617 -0.1752051 0.043328695 0.09438717 0.17258948 -0.19453584
-0.011422081 0.17346881 0.03834816 0.19101836 0.0040243845 0.17576179 0.08514122 0.037269447
0.076798566 -0.20615488 -0.04972884 0.039802864 -0.04875938 -0.028608397 0.007608583 0.007705614
-0.17256637 -0.07368073 0.057837088 -0.075054206 0.047172733 -0.14709388 -0.15850665 0.095909834
00000000: 6d8e 573e 0490 0f3d d6d7 e1bb b3cc 453d
00000010: ce09 883d a86b a23e 444f 35bd 844a 73be
00000020: c3b6 8fbe 29f3 8bbd fb47 30be 27e9 9c3d
00000030: 6a13 85be a7bc e4bc cfbc 9a3c 3d9c 82bb
00000040: b701 69bd 3456 0dbe e04e de3c a16f ae3e
00000050: 0f39 2bbc e083 303e b762 ebbd e03f af3e
00000060: 7879 cdbd 93f3 8f3c 8199 b7bc 23cf 58be
00000070: 43f7 883d e678 133d 89d6 1c3e 76f2 39be
00000080: b1d7 893d bf8a 55bd c1ab 9fbc d644 fd3d
00000090: b4c0 4f3e 05c0 6dbd 9e60 a73c 4a1f ed3d
000000a0: 6369 ce3d 3510 5a3b ce35 743c 0319 ab3d
000000b0: 780e 01be 2236 8a3e 7d68 283d 403d 4a3d
000000c0: cf8a 43be f938 80bd 68ce 8b3c 19af 0cbd
000000d0: dbb2 ca3d ee0d e33c 32f4 833e 3fa2 9b3d
000000e0: 3283 b0bd 7fc2 f83d 4133 46be 5acf 6abe
000000f0: 0f53 8d3d 8346 ca3d 7841 03be 3fb0 ff3c
00000100: 6331 e43c 0fba 1dbe a618 8e3d c1a3 b43d
00000110: a916 4d3d ac4f 62bd c110 ee3d 7b15 4bbe
00000120: 0042 86bd d07b 8cbd 4f4d 4d3d dd36 073e
00000130: 5cde 62be a2e9 35bd ea20 73be e4fc acbd
00000140: e3ab 823d cf04 d8bd d673 b5bd f8ce 353c
00000150: 409a f13c 4be7 81bc 9643 56bd 4208 22bd
00000160: 07b1 63be 93b1 af3d 5e44 47be bd3d 343d
00000170: aeac a53c a0b4 30bd e6d2 23be e51b e23d
00000180: a657 303e d3c8 4d3d 2faf 153e fc22 16bd
00000190: ed09 703d bf7c 00be c1ed dcbd ac48 bdbd
000001a0: 9f5c c5bd 0360 873d 90ca 55ba 0b2c 0c3c
000001b0: f82f d7bd 9cb5 ed3c 38d4 71be 81c6 48be
000001c0: 8edc 31be 698f 20be be57 65bd a92e 7c39
000001d0: b024 eb3c 93d2 e03d 6d96 253e cd72 ab3d
000001e0: 0a1b 3dbe c476 bf3d 753c 63bc ace5 6cb9
000001f0: 3f86 2b3d 1ac0 6b3c b32c 5bbe 7e62 22be
00000200: 971d 133e cfa9 4cbc 694d 003e 1dac 5ebe
00000210: d8d3 3fbe 864a 7a3c 95d9 89bc 95f8 4e3c
00000220: a3fe c5bd 0208 6b3e 14be 76be 2fe6 b83d
00000230: ea73 46bd 8135 4d3d 206d c53c dfb9 123e
00000240: bc9f 7fbe 9db5 13be 2837 5ebd 3a8b f2bd
00000250: 0b70 b73c 99a5 31be 6d10 a53e cff8 61be
00000260: d52a febc 481b 0e3c 34af d3bd 8fac 2bbd
00000270: 8bb3 8c3c 5778 1a3e e49e f83c 90ed b93d
00000280: 3e11 373e 9bf2 3aba 042e de3d 1271 b73b
00000290: edba ce3d 903f 6a3c 64bb e93d 1e52 db3d
000002a0: dc25 7bbb 1158 c73c 1c19 1a3d c78b f43c
000002b0: f548 5f3d 535e dbbd 2c59 88bd 76c8 d7bd
000002c0: 5a13 cbbd e0a1 3b3b e982 84bd fee1 583e
000002d0: 809e 2dbc 6073 e33c e281 1b3e 38b6 3a3c
000002e0: c0e7 22be 0713 ab3d 7ec3 a6bd e05a 6fbd
000002f0: 147d c0bc 0527 9bbd 9210 4cbe aadc 3dbe
00000300: 2e01 a7bc 3fae 8b3d 3214 853e e74e ae3d
00000310: df55 60bd 3066 243e 8595 6fbd 27a9 49be
00000320: b3ce 5abe 61ef 15bb 6890 69be 257b d03c
00000330: 194a 84bd 24a7 3abd b002 6fbe 73ac 57be
00000340: 95df febd 9b5b 20be 9adc 263e b709 1d3e
00000350: 2d38 f1bc 879d debd 96f7 353e bc63 c63d
00000360: ba44 35be d171 bcbc 4de3 8d3d b047 67be
00000370: 8891 c0ba 9406 d7bd a39b 34bd 9e38 02be
00000380: 6432 dabd 5999 d63d 0fe2 e0bd f768 33be
00000390: 6e79 313d 104e c13d 4cbb 303e 6734 47be
000003a0: ae23 3bbc cfa1 313e f612 1d3d 519a 433e
000003b0: fcde 833b e6fa 333e 855e ae3d d9a7 183d
000003c0: 9148 9d3d 441a 53be 78b0 4bbd 5408 233d
000003d0: eab7 47bd 285c eabc 6c51 f93b 607f fc3b
000003e0: 3db5 30be ece5 96bd 95e6 6c3d 05b6 99bd
000003f0: 3238 413d c79f 16be 914f 22be 606c c43d

transformer.layers.0.linear1.bias f4 [2048]
-0.031320423 -0.10271819 0.10479427 0.04389758 -0.061586224 -0.21899065 0.05597111 -0.16964887
-0.18445146 -0.043087065 -0.022973377 -0.027738197 -0.1942609 0.013168205 -0.2590321 -0.020907598
-0.15924104 -0.17233905 -0.034744527 -0.09939128 0.025727345 -0.19019946 -0.257852 0.0067269476
-0.1873315 -0.028233489 -0.051646728 0.0093889665 0.029939657 -0.18053551 -0.22313628 0.020980218
-0.09131102 -0.26661557 -0.20883144 -0.17575891 -0.23158075 -0.022087827 -0.09643284 0.02420661
-0.13793267 -0.10531467 -0.012406642 0.104557924 0.067583404 -0.12541609 -0.13781686 -0.0847015
-0.20330532 -0.122913666 -0.081047356 -0.12948722 -0.1645434 0.0022238353 -0.14907423 -0.14179064
-0.0025525417 -0.12996502 -0.2291318 -0.031338956 -0.16620494 0.040269945 -0.15439221 -0.11772675
0.10631771 0.051206794 -0.23995139 -0.08728011 0.07720606 -0.16848092 -0.21995886 0.016942693
-0.24192086 -0.18380755 -0.0947378 -0.21687931 -0.07583748 0.051828463 0.09186822 0.028324293
0.0319665 -0.18523312 -0.09568435 0.03947813 0.022983978 -0.20779257 -0.007499901 -0.08991225
-0.12397881 -0.17518528 -0.22427192 -0.2256458 -0.11866068 -0.036182683 -0.09388185 -0.12383071
-0.0054568434 -0.10253612 -0.13839564 -0.015638849 -0.12291778 0.0081968475 -0.18533887 -0.19854158
0.0664197 0.046788543 0.066447645 -0.21189694 0.061746497 -0.12740539 -0.027222902 -0.08750015
0.085542776 -0.050549008 0.09116193 -0.008191481 0.021212889 -0.046690296 -0.29115394 -0.010151371
0.09372465 -0.14602286 -0.1735488 -0.21513607 0.030793369 -0.0112374555 -0.22577786 0.06819341
-0.10839353 -0.2000342 -0.093316756 -0.050053716 0.037041795 -0.2115233 -0.1460415 -0.017708343
-0.15135458 -0.14354722 -0.050006114 0.06503937 -0.16689534 -0.024207767 -0.16660604 -0.26448855
0.026513554 -0.07598174 -0.14079621 0.1039804 0.019799221 0.08994972 0.064366505 0.04044755
-0.19691758 -0.032557786 0.06114351 -0.2477479 -0.06893717 -0.2106342 -0.15281145 -0.18888856
-0.17548235 -0.12821557 -0.2256986 -0.08562885 -0.024228036 -0.18599844 0.043996472 -0.08257256
-0.07653177 0.06365487 -0.022903403 0.05596265 -0.048947766 -0.11595554 -0.0543312 -0.21596472
-0.119758256 -0.16031298 -0.05991461 -0.21759564 -0.13122755 -0.20578955 0.028801674 -0.012542691
0.07224884 -0.24158819 0.01962415 -0.05317506 -0.1361304 -0.14657572 -0.13748623 -0.22342896
0.09782263 -0.095519036 0.12743525 -0.12562798 -0.1788577 -0.09359681 -0.17008607 -0.18869075
-0.109306 -0.2651182 -0.06583621 0.09180747 -0.1699552 0.02985258 -0.2115309 -0.17005278
-0.20091455 0.013094503 0.026264265 -0.063271075 -0.066408776 -0.21682703 0.017724948 0.0807035
0.003271427 -0.08853029 -0.15367515 -0.23597637 -0.24373592 -0.0491071 -0.042515405 -0.070097655
0.14587587 -0.042664032 -0.13872837 -0.27908748 -0.15963009 0.027706727 0.033177268 0.08672897
-0.16769828 0.051935457 0.038830463 -0.05340416 -0.11278564 0.08567452 -0.012528964 0.042098735
-0.20798555 -0.17521732 0.062136676 0.0074613416 0.14947425 0.09592736 -0.060318727 -0.07462459
-0.11461284 -0.07209922 0.00023787569 0.044140436 -0.17450325 -0.16496065 -0.1089267 0.013051626
00000000: d849 00bd ea5d d2bd 619e d63d f3cd 333d
00000010: d641 7cbd 163f 60be f641 653d 6fb8 2dbe
00000020: d8e0 3cbe 107c 30bd aa32 bcbc 373b e3bc
00000030: 54ec 46be 74bf 573c db9f 84be 6946 abbc
00000040: 1510 23be a679 30be 4750 0ebd a88d cbbd
00000050: 27c2 d23c a6c3 42be 2d05 84be ba6d dc3b
00000060: d4d3 3fbe eb49 e7bc 858b 53bd 2ed4 193c
00000070: 0344 f53c 4dde 38be d67d 64be b5de ab3c
00000080: 4601 bbbd d681 88be e9d7 55be 25fa 33be
00000090: 8123 6dbe 88f1 b4bc 957e c5bd f14c c63c
000000a0: 393e 0dbe 38af d7bd 3a45 4bbc 7722 d63d
000000b0: 2b69 8a3d 136d 00be dd1f 0dbe fb77 adbd
000000c0: 452f 50be 29ba fbbd 28fc a5bd 4c98 04be
000000d0: 117e 28be c4bd 113b eaa6 18be 9131 11be
000000e0: 8b48 27bb 8d15 05be 87a1 6abe 475d 00bd
000000f0: a131 2abe 19f2 243d fe18 1ebe b91a f1bd
00000100: 19bd d93d 37be 513d d1b5 75be eabf b2bd
00000110: 361e 9e3d 4386 2cbe e53c 61be 67cb 8a3c
00000120: 1aba 77be 0c38 3cbe e405 c2bd 9c15 5ebe
00000130: ae50 9bbd 154a 543d 6825 bc3d 5908 e83c
00000140: 4eef 023d c0ad 3dbe 28f6 c3bd d2b3 213d
00000150: e548 bc3c 93c7 54be bbc1 f5bb ea23 b8bd
00000160: 9ae8 fdbd c563 33be 8aa7 65be b10f 67be
00000170: 5f04 f3bd 4b34 14bd 2145 c0bd f59a fdbd
00000180: 52cf b2bb 75fe d1bd 96b7 0dbe 0b1d 80bc
00000190: 51bc fbbd 124c 063c 79c9 3dbe 7c4e 4bbe
000001a0: 0d07 883d 58a5 3f3d b415 883d 83fb 58be
000001b0: e5e9 7c3d 8f76 02be 9002 dfbc 4733 b3bd
000001c0: 0d31 af3d 7a0c 4fbd 1bb3 ba3d 9035 06bc
000001d0: a7c6 ad3c 533e 3fbd 2112 95be f051 26bc
000001e0: b6f2 bf3d 0487 15be c7b6 31be a14c 5cbe
000001f0: 6042 fc3c 4e1d 38bc 5032 67be fda8 8b3d
00000200: 6dfd ddbd c4d5 4cbe db1c bfbd 2005 4dbd
00000210: 23b9 173d 9099 58be e78b 15be 1611 91bc
00000220: b2fc 1abe 0bfe 12be 36d3 4cbd 5c33 853d
00000230: 9de6 2abe 5e4f c6bc c69a 2abe 0b6b 87be
00000240: f432 d93c 519c 9bbd e22c 10be adf3 d43d
00000250: fa31 a23c 8f37 b83d 96d2 833d 55ac 253d
00000260: c3a4 49be 505b 05bd 9e71 7a3d a0b1 7dbe
00000270: ee2e 8dbd 7eb0 57be 9b7a 1cbe 016c 41be
00000280: a5b1 33be f14a 03be 891d 67be 2e5e afbd
00000290: e079 c6bc 6076 3ebe a535 343d cd1b a9bd
000002a0: b0bc 9cbd 7c5d 823d eb9f bbbc 1739 653d
000002b0: 747d 48bd 197a edbd 648a 5ebd db25 5dbe
000002c0: d143 f5bd 1629 24be 0669 75bd 64d1 5ebe
000002d0: 8460 06be 7fba 52be 7df1 eb3c dc7f 4dbc
000002e0: 33f7 933d e562 77be d3c2 a03c 17ce 59bd
000002f0: c465 0bbe f217 16be 31c9 0cbe 90ca 64be
00000300: 3b57 c83d 7c9f c3bd 637e 023e 9fa4 00be
00000310: 7926 37be afaf bfbd 0b2b 2ebe 2638 41be
00000320: d3db dfbd 93bd 87be 23d5 86bd 8e05 bc3d
00000330: bc08 2ebe 668d f43c 8e9b 58be 5122 2ebe
00000340: 8bbc 4dbe 548a 563c 2828 d73c 4494 81bd
00000350: 5301 88bd e807 5ebe e933 913c e047 a53d
00000360: 7065 563b 5e4f b5bd 055d 1dbe caa3 71be
00000370: e995 79be 8724 49bd a224 2ebd 5c8f 8fbd
00000380: 7c60 153e 7bc0 2ebd cf0e 0ebe 8ee4 8ebe
00000390: 1276 23be 38f9 e23c e3e4 073d f59e b13d
000003a0: 19b9 2bbe 46ba 543d b10c 1f3d 52be 5abd
000003b0: 28fc e6bd 1f76 af3d 4946 4dbc b96f 2c3d
000003c0: 2afa 54be 2b6c 33be 0783 7e3d 457e f43b
000003d0: c70f 193e 9075 c43d c510 77bd c7d4 98bd
000003e0: 23ba eabd c1a8 93bd 456e 7939 9acc 343d
000003f0: fbb0 32be 72eb 28be f614 dfbd 7dd6 553c

transformer.layers.0.linear2.weight f4 [32, 2048]
-0.10163764 -0.00090712873 0.021000907 0.0034129012 -0.053352643 0.015214581 0.038906064 0.003937657
0.008893156 0.025572388 0.056336284 -0.036193207 0.0193572 0.13097462 0.033043656 0.016491793
-0.016459584 -0.09043683 -0.0089840265 -0.04027648 -0.17409566 -0.034553394 -0.034570336 -0.027152164
0.061321396 -0.028716588 -0.017088912 0.028258597 0.007137881 -0.03204572 0.03630541 0.009904562
-0.017489064 -0.047514353 -0.023966756 -0.014722438 -0.06368445 0.0056977724 0.029059881 -0.014555302
0.08976564 0.16508739 -0.03603161 -0.0071547474 -0.049187284 -0.0032374857 -0.03065362 -0.019880809
-0.046574682 0.052147053 -0.032318212 -0.035868704 -0.002057156 0.046473615 0.033240393 0.018144764
0.03145617 0.00026648253 -0.016901057 0.04202755 0.043803144 0.0940645 0.052565336 -0.0027356874
-0.06614846 -0.008909883 0.039788697 0.17220245 -0.019071564 0.037094317 -0.023009075 0.02977867
0.027376775 0.010572727 -0.10843093 0.0063263057 -0.007538007 -0.051495884 -0.058676355 0.05583611
-0.010641664 -0.040235966 -0.0021787272 0.04909085 0.04069061 0.021329682 -0.088503316 0.05764772
-0.014181049 0.029589407 0.0018266854 -0.10191681 -0.037257373 -0.07601431 -0.013262911 -0.038458694
0.011069275 -0.13064925 0.074741915 0.007772672 -0.022593308 -0.025081158 -0.03740923 0.018256199
-0.033586293 -0.023626063 0.059108187 -0.018344773 0.018308332 0.02746799 -0.05795509 -0.019573871
0.014599892 0.023561254 -0.04705864 0.10557986 -0.015608776 -0.006088192 -0.08308985 -0.0123039475
-0.0038652169 -0.028020423 -0.04619853 -0.008925597 0.009421795 -0.0139655555 -0.0008029603 -0.042669795
-0.03493708 -0.0008484539 -0.1059983 -0.36694974 0.015105129 -0.027513472 -0.06524591 0.026199399
0.035388682 0.06841657 0.0046862117 -0.042086266 -0.04122525 0.0035443224 -0.034691907 -0.055581782
-0.025491625 0.05563717 -0.012397523 -0.00392557 0.005310551 -0.0356764 -0.03499748 0.0282992
-0.096997015 -0.047355223 0.020235067 0.031702533 0.02543007 0.01249662 -0.02133629 0.011682326
0.022117518 -0.0036283107 0.034480963 0.030728964 0.12608664 -0.030262996 0.03407248 -0.008241626
-0.084442236 -0.066131055 -0.0347372 -0.0065010646 -0.07860012 -0.022705259 0.002588798 -0.0073022274
-0.01803124 -0.033548716 -0.05943517 -0.027734717 0.1714148 -0.02729558 -0.036800757 0.01182434
0.026690653 0.05824987 0.10931449 0.03377551 -0.0025817882 -0.030802824 0.053121492 -0.18178351
0.016100204 0.012586445 -0.0104170395 -0.033224896 -0.025332745 -0.0010750243 -0.019380156 0.043640483
-0.043943338 -0.030528672 -0.040717423 0.034592986 -0.074208125 0.048097603 -0.09689159 0.08070478
0.043070316 0.040385425 0.07923057 -0.0015178546 0.040317815 -0.03597607 -0.011985939 -0.01669116
0.06816749 0.0011886795 -0.0028200033 -0.03598879 0.047995105 -0.16035272 -0.0033551864 -0.029536093
-0.058756545 0.06417007 0.114227235 -0.007481205 -0.0372978 -0.006238724 0.015231629 -0.03678805
0.015254326 -0.09103218 0.013307629 0.07251086 -0.064060725 -0.008873815 0.027408125 -0.0020058893
-0.02869358 -0.035116665 0.057856172 0.04832176 0.046392284 -0.021519441 0.052502554 0.020615127
-0.010758226 -0.038340457 0.034605145 -0.030473122 -0.02963688 0.018441258 -0.061876208 -0.05259127
00000000: 6527 d0bd 61cc 6dba 180a ac3c fbaa 5f3b
00000010: 4d88 5abd 9446 793c f75b 1f3d 7607 813b
00000020: 9ab4 113c 2f7d d13c e0c0 663d 543f 14bd
00000030: fe92 9e3c 361e 063e c958 073d cc19 873c
00000040: 40d6 86bc f236 b9bd bd31 13bc f3f8 24bd
00000050: 2246 32be dc87 0dbd a099 0dbd 376e debc
00000060: 252c 7b3d 0d3f ebbc 0cfe 8bbc 937e e73c
00000070: e3e4 e93b 5f42 03bd fbb4 143d be46 223c
00000080: 3a45 8fbc 699e 42bd ee55 c4bc 6136 71bc
00000090: fe6c 82bd 61b4 ba3b fd0e ee3c 5d79 6ebc
000000a0: 0cd7 b73d ab0c 293e e295 13bd 5f72 eabb
000000b0: 9b78 49bd ff2b 54bb 4d1d fbbc 14dd a2bc
000000c0: 18c5 3ebd 2698 553d 1a60 04bd 10eb 12bd
000000d0: 5ad1 06bb 1e5b 3e3d 1427 083d 54a4 943c
000000e0: 2fd8 003d aeb6 8b39 1674 8abc 1525 2c3d
000000f0: ed6a 333d e3a4 c03d c04e 573d 3849 33bb
00000100: d878 87bd c2fa 11bc 79f9 223d d755 303e
00000110: f83b 9cbc 36f0 173d 877d bcbc 66f2 f33c
00000120: 4245 e03c 3b39 2d3c 0911 debd e64c cf3b
00000130: 6301 f7bb 59ed 52bd 9e56 70bd 68b4 643d
00000140: 605a 2ebc 78ce 24bd fac8 0ebb 7d13 493d
00000150: 32ab 263d 96bb ae3c 3a41 b5bd 0420 6c3d
00000160: a157 68bc 7c65 f23c 646d ef3a c3b9 d0bd
00000170: 309b 18bd 64ad 9bbd ae4c 59bc dd86 1dbd
00000180: e85b 353c ebc8 05be 4a12 993d e6b1 fe3b
00000190: 9a15 b9bc 0077 cdbc 6c3a 19bd 068e 953c
000001a0: c891 09bd 728b c1bc 6d1b 723d c747 96bc
000001b0: 5bfb 953c 8d04 e13c 5162 6dbd 6259 a0bc
000001c0: 6334 6f3c 8803 c13c 8fc0 40bd 413a d83d
000001d0: f4bb 7fbc 757f c7bb 032b aabd 7f96 49bc
000001e0: 944f 7dbb 168b e5bc ab3a 3dbd ab3c 12bc
000001f0: df5d 1a3c c9cf 64bc c17d 52ba 86c6 2ebd
00000200: 2f1a 0fbd c76a 5eba a315 d9bd d6e0 bbbe
00000210: 817b 773c ef63 e1bc a69f 85bd 1fa0 d63c
00000220: b9f3 103d fd1d 8c3d cb8e 993b a662 2cbd
00000230: cfdb 28bd dd47 683b 1a19 0ebd b9a9 63bd
00000240: d0d3 d0bc cde3 633d fb1e 4bbc 11a2 80bb
00000250: 2104 ae3b 6b21 12bd 8559 0fbd b9d3 e73c
00000260: 5fa6 c6bd 8df7 41bd 03c4 a53c 84da 013d
00000270: b952 d03c a0be 4c3c 71c9 aebc 3a67 3f3c
00000280: cc2f b53c f4c8 6dbb e93b 0d3d 4fbb fb3c
00000290: db1c 013e 1aea f7bc 968f 0b3d e307 07bc
000002a0: 0df0 acbd b86f 87bd 9848 0ebd e206 d5bb
000002b0: 1af9 a0bd 6100 babc d3a8 293b 8647 efbb
000002c0: 40b6 93bc 616a 09bd 4b72 73bd eb33 e3bc
000002d0: 5d87 2f3e fb9a dfbc 64bc 16bd e0ba 413c
000002e0: 5ba6 da3c 6a97 6e3d 46e0 df3d 3058 0a3d
000002f0: 3833 29bb 3456 fcbc ec95 593d 7525 3abe
00000300: 93e4 833c 6037 4e3c 3bac 2abc d416 08bd
00000310: 9e86 cfbc d4e7 8cba 22c3 9ebc 5dc0 323d
00000320: eefd 33bd 4417 fabc 50c7 26bd 60b1 0d3d
00000330: 6efa 97bd fe01 453d 196f c6bd 8c48 a53d
00000340: 806a 303d 306b 253d a343 a23d c0f2 c6ba
00000350: 4b24 253d a55b 13bd ac60 44bc e6bb 88bc
00000360: 669b 8b3d 77cd 9b3a cecf 38bb fb68 13bd
00000370: 8496 443d 8133 24be b0e2 5bbb adf5 f1bc
00000380: b4aa 70bd 996b 833d f8ef e93d e524 f5bb
00000390: 94c5 18bd 366e ccbb 158e 793c 11af 16bd
000003a0: 48ed 793c 146f babd 3e08 5a3c 9380 943d
000003b0: 4532 83bd 7a63 11bc 0187 e03c 3d75 03bb
000003c0: cc0e ebbc 7ed6 0fbd 98fa 6c3d 0aed 453d
000003d0: d605 3e3d 8a49 b0bc eb0c 573d 0ee1 a83c
000003e0: 4543 30bc e20a 1dbd 20be 0d3d c5a2 f9bc
000003f0: 0bc9 f2bc 1f12 973c e871 7dbd f269 57bd

transformer.layers.0.linear2.bias f4 [32]
0.11824884 -0.18805256 -0.068383455 -0.14404957 0.14953086 0.04117194 0.004779357 -0.14414042
-0.16664414 0.12082913 -0.18421881 -0.15769549 -0.1717011 0.2388944 0.031969506 -0.07181929
-0.14812852 0.28123063 0.06459089 0.098807186 -0.14221399 0.024477769 0.08741412 0.11854463
-0.15527806 -0.046400562 -0.11425671 -0.08806159 -0.023087032 -0.023914738 -0.21889934 -0.13456823
00000000: 732c f23d da90 40be a00c 8cbd bb81 13be
00000010: 9e1e 193e e8a3 283d 279c 9c3b 8c99 13be
00000020: c3a4 2abe 4375 f73d dba3 3cbe ed7a 21be
00000030: 6ad2 2fbe bca0 743e 75f2 023d fe15 93bd
00000040: 01af 17be 76fd 8f3e 3b48 843d 6c5b ca3d
00000050: 8ba0 11be 9a85 c83c 2d06 b33d 87c7 f23d
00000060: 3601 1fbe 840e 3ebd 6cff e9bd a359 b4bd
00000070: 0421 bdbc d7e8 c3bc 2627 60be 41cc 09be

transformer.layers.0.norm1.weight f4 [32]
1.4471627 -0.19526765 1.3943884 -0.010819181 0.94684863 1.4103853 1.384506 -0.05528197
-0.23695248 1.1828438 -0.10942869 1.4417104 -0.09889102 0.67583376 0.2937361 -0.09695148
0.17821369 0.76744586 1.2046275 1.3668171 1.5607008 1.7972317 1.1851872 1.5320275
-0.008501093 1.3191774 0.44245654 0.24532628 1.3915868 0.27142403 -0.18119362 -0.22207466
00000000: a13c b93f 3ef4 47be 527b b23f ef42 31bc
00000010: ac64 723f 8187 b43f 7e37 b13f 596f 62bd
00000020: aca3 72be 6d67 973f 261c e0bd f789 b83f
00000030: 6087 cabd 7103 2d3f 9464 963e 7f8e c6bd
00000040: a67d 363e 5577 443f 3c31 9a3f ddf3 ae3f
00000050: 0bc5 c73f b00b e63f 37b4 973f 7a19 c43f
00000060: 2b48 0bbc ceda a83f aa89 e23e d036 7b3e
00000070: 841f b23f 17f8 8a3e d28a 39be 8a67 63be
