models/model_epoch_7.pth (torch, 581156 bytes, 18 tensors)

conv1.weight f4 [16, 8, 3]
00000000: 255b c73d 6bbc 13be 6096 2b3b 67f5 543e
00000010: cc65 3a3d ec42 4bbd 481e 283e b4e6 99bd
00000020: d4c8 463e a603 003d 83e4 313e fd4d 05be
00000030: 086d 30be 99aa be3d b2df 72bd a84c 18be
00000040: 172f 303e 33f4 35bd 2435 36be 7804 353e
00000050: 4fed d03d 80cf a53d d20e 92bd e423 143e
00000060: 46ca 4d3e 90dd 443e 9ecc 743d bf38 f23d
00000070: 4d55 fabd f0af a23d dfca d83d 1fd9 03be
00000080: 6f60 803d d357 37bd c54f 1f3e 3d43 05be
00000090: 4bea dc3d 82ec 913d deae 86bc e9f9 f2bd
000000a0: c2f0 f93b 6c87 1ebe 7ebe a73d 30e4 0bbe
000000b0: 0710 63bc b7ab 1dbd a3a8 033e 5a9c b0bd
000000c0: 1c11 30be 5df2 96bc 31d9 65bd 04b3 90be
000000d0: 511d 59be f0c0 6e3e 899a 00be 0697 143d
000000e0: a7a5 fabc 8d2f 433e a9ec 4ebd dc23 2e3e
000000f0: 6ebe 733d 7223 593e 9a37 a63d 0525 f2ba
00000100: 0d51 bc3d b16d 44be 25c7 5cbe 0897 a1bd
00000110: a95e dcbd 79ed 10bd 2411 82bd 3355 723d
00000120: e1b8 3b3e 1b9a c3b9 e41a 05be fe20 243e
00000130: 54f2 343e 0abf 913d 48f9 b83d 3c00 2a3e
00000140: c2ea 0f3e 905c e2bd dbf6 4b3c 32af c6bd
00000150: 4148 82bc 4a41 f83c 9c6c cd3d 4428 e33c
00000160: b9fb 1e3e b693 96bd 9d3d 4ebe 8a4f 383e
00000170: a5e3 1d3c 8978 d2bd 711c 95bc abcc b43d
00000180: fcb5 7cbd f572 3c3e 5a18 1abe 9ff2 a7bd
00000190: 6fe2 253e 1e5d 853d 8357 943c 8909 433e
000001a0: eb33 cbbd e97a 0f3e 225c 25bd e3c5 8d3c
000001b0: 0840 c03d 3150 0a3d 0744 6c3c b730 04be
000001c0: f190 96bd 8277 e2bd 99cc ba3d 204b 903d
000001d0: 2c34 153e d72d 24be c9f8 b8bd 9479 a53d
000001e0: 9c96 ef3d 6946 763c bc58 653d a54c c0bd
000001f0: 2c7d 5ab9 988d 09be dd36 053e 5628 313e
00000200: 6273 93bd d19d b33d b244 67bd c8c6 783c
00000210: 6c12 773e bde0 8dbd cb6b 1f3e 808e 2cbe
00000220: c2c1 f2bc f07e 06be 43d5 2d3e 2123 17be
00000230: ea38 e63c fa82 d0bd 1f68 9b3b f586 06be
00000240: 0679 c73d b70d 503e 0604 703c ed0f dabc
00000250: 6001 b83c 4c3a 66bc f939 28be b241 27bd
00000260: 5154 c4bc 0efc b6bd fe93 463e b84d e43d
00000270: 3057 763d 92aa 0c3e ee86 e83d baa7 d2bd
00000280: b452 343e 5aa2 f3bd 43ab ccbd 229c 473e
00000290: cb87 e43d 28ec 473e 34a1 413c 70d1 74bd
000002a0: 4416 233e a9f9 903c 9784 83bd 9cc6 743d
000002b0: 225c 893e c378 063d 0922 f6bb de90 24bd
000002c0: 9977 ffbd 4fe3 bb3d 6c6b 3b3d 215a 343d
000002d0: 8aa9 7cbd 7bdb 15be b54c 513e 292e 7e3e
000002e0: da2b ac3d 0843 063d ad7f e3bc 1027 0c3f
000002f0: 3d0b 9f3c bede 09bc 5ed8 3a3e 414f 033e
00000300: 5408 92bd 0832 d13b cc62 09bd 0a40 993d
00000310: ddf6 c73d 27c5 d7bd bfad 163e 45c2 673d
00000320: 0946 22be c128 29be 0312 7a39 c266 9cbd
00000330: 91cd a13d faf3 a6bb 0df4 4c3e 4094 37be
00000340: 7d40 56be bc53 f8bd 7bfc 14be 9fda 3c3d
00000350: 60ac 473e e8d7 b139 5415 d5bd 15d5 6c3d
00000360: 928a dcbd 517d 6a3d 3202 443e d2a8 33bd
00000370: 8523 d53d c5cb febd b72f 483d b8ff 913d
00000380: 15da 44be 0d6a a1bd 57fc 093e bafd 0d3e
00000390: e21c 49bd 390b d33d 59dc e5bd afa2 bcbd
000003a0: f620 8bbd ff96 133e 49f5 cc3d b1e8 acbd
000003b0: 59ab b2bd 74ed fd3d 4300 10be bf67 c93d
000003c0: 9906 3d3e fbfe 413e f5e1 90bc 7a05 05bb
000003d0: 516d f23c 6bd6 bc3e d965 86bd e004 d8bd
000003e0: 2720 233d 366f 6bbe 7491 84be f72b 40bd
000003f0: 696a e3bd 7c88 d4bc 5920 313d bf16 4a3e
0.09734181 -0.14427345 0.002618216 0.20796739 0.045507237 -0.04962437 0.16417801 -0.07514706
0.19412547 0.03125348 0.17372327 -0.13018031 -0.17229092 0.09309883 -0.059295364 -0.14872992
0.17205463 -0.04442234 -0.17793709 0.17677486 0.10201513 0.08096218 -0.07131733 0.14466816
0.20096692 0.19225144 0.05976545 0.1182723 -0.12223301 0.07943714 0.105855696 -0.12875794
0.06268393 -0.04476149 0.15557773 -0.1301393 0.10786875 0.071251884 -0.016440805 -0.11864073
0.0076275775 -0.15481347 0.081906304 -0.13661265 -0.013858802 -0.03849384 0.12857299 -0.08623572
-0.17194027 -0.018426115 -0.056115333 -0.28261578 -0.2120259 0.23315787 -0.1255895 0.03627684
-0.030596567 0.19061108 -0.050518665 0.17005867 0.05950778 0.21204928 0.08116074 -0.0018474167
0.09195147 -0.19182469 -0.21560343 -0.07890135 -0.107602425 -0.03538272 -0.063509256 0.059163284
0.18332244 -0.00037308116 -0.12998539 0.1602821 0.17670566 0.07116516 0.090319216 0.16601652
0.14054397 -0.11052811 0.012448992 -0.097013846 -0.015903594 0.03030457 0.10030481 0.027729161
0.15525712 -0.073523924 -0.20140691 0.17999092 0.009636794 -0.102768965 -0.018202038 0.088281
-0.06169699 0.18403228 -0.15048352 -0.08200573 0.16199659 0.06511901 0.018108135 0.19046606
-0.09922012 0.1401173 -0.040371068 0.017306274 0.09387213 0.033767883 0.014420516 -0.12909208
-0.07351864 -0.110579506 0.09121055 0.07045579 0.14570683 -0.16033112 -0.09031827 0.0807983
0.11698648 0.0150314355 0.055992827 -0.09389619 -0.0002083673 -0.1343292 0.1300921 0.17300543
-0.07199742 0.087703355 -0.056461997 0.015184112 0.24128121 -0.06927631 0.15568464 -0.16851234
-0.029633407 -0.1313436 0.16975884 -0.14759494 0.02810331 -0.10181232 0.004742637 -0.1313742
0.0973988 0.20317732 0.014649397 -0.026618922 0.022461593 -0.014051985 -0.16428365 -0.040834136
-0.023965986 -0.08934794 0.19392392 0.11147636 0.060141742 0.13736942 0.11353861 -0.102858976
0.17609674 -0.118962005 -0.09993603 0.19493154 0.11158713 0.1952368 0.011818219 -0.059770048
0.15926462 0.017697172 -0.06421774 0.05975972 0.26828104 0.03283001 -0.0075113815 -0.04017722
-0.12473983 0.09174215 0.045756742 0.044031266 -0.061685123 -0.14634506 0.20439418 0.24822296
0.084068015 0.03277877 -0.027770841 0.54747105 0.019414539 -0.008414922 0.182466 0.12823202
-0.07130495 0.006384138 -0.033541486 0.074829176 0.09763882 -0.10535651 0.14714716 0.056581754
-0.15847029 -0.16519453 0.00023848568 -0.07636787 0.07900537 -0.0050950022 0.20014973 -0.17927647
-0.20923038 -0.12125346 -0.14549439 0.04610693 0.1949935 0.00033920933 -0.10404459 0.0578204
-0.10768618 0.057248417 0.19141462 -0.04386217 0.104071654 -0.1244121 0.04887363 0.071288526
-0.19223817 -0.07881556 0.13475166 0.1386632 -0.04909981 0.10304875 -0.112236686 -0.09210717
-0.06793396 0.14413069 0.10007722 -0.0844282 -0.08724088 0.12398806 -0.140626 0.09834241
0.18459548 0.18944924 -0.01768587 -0.0020297454 0.029593142 0.36882338 -0.06562395 -0.10547805
0.039825585 -0.22991642 -0.25892222 -0.04691693 -0.111042805 -0.025943987 0.04324374 0.1973524

conv1.bias f4 [16]
00000000: c8ca fd3c b32b 503e 0d5b 4cbd 0ad8 1b3e
00000010: d6ba 50be e6b2 a6bd 7d14 dbbd 422a 42bd
00000020: 7e06 0dbe cd2c 213e 7e2e d5bd 7e22 57be
00000030: d478 84bd ff51 033d 0b1c 0f3e 91a0 0c3e
0.030980483 0.2032917 -0.04989152 0.15219131 -0.20383772 -0.08139591 -0.10697267 -0.04740358
-0.13772008 0.15739746 -0.10409258 -0.21009251 -0.06468359 0.03206062 0.13975541 0.13733126

conv2.weight f4 [32, 16, 3]
00000000: 9c49 ca3d af22 9f3d ceae 7dbd 133d 18bd
00000010: e878 023e 4739 dabb 0d08 9ebd d2ad 6e3d
00000020: 197e bdbd dbb6 b0bd 30fa babd 7401 fcbd
00000030: d918 1dbd 2477 12be 6d16 7b3b 4b08 5b3d
00000040: 67f3 cebd 4ff6 46bc f325 aebd a70e e9bc
00000050: 5f87 19bd 5f4d dd3d 8365 8cbd 1d33 ccbd
00000060: 00e6 febd 0b0f 42bd 2eb5 573c 8d91 823c
00000070: b8d1 903d 0126 6cbd 23bc f0bd 0af9 22be
00000080: 18cf 50be 8399 583d c5c1 00bd d3cc 4fbe
00000090: 40cf 983d faeb 33bd 92e6 ee3d 57b7 29bb
000000a0: 6f65 653d 59b3 ae3d df45 8fbd f0c8 123e
000000b0: 2bf8 9fbd 8ee1 a5bc 3826 f83d e61e 8dbc
000000c0: f03f 0dbe daf3 8f3d 8321 283e 0ed0 d83d
000000d0: 19d0 483d a891 8e3d ec25 21be 3c30 c5bd
000000e0: 38bf 52bd be52 8c3d d395 0fbe 02e7 123c
000000f0: 0337 cbbd 7109 dc3d 0ab3 3cbd 201c c3bd
00000100: 56c0 df3d 626a 833d 0b01 acbd aa15 8f3c
00000110: c749 9cbd 1069 2fbd 68b6 9b3d b993 b23d
00000120: 6ad2 32bc 77ee 51bd eaeb e9bd 8272 dabd
00000130: 8918 a1bd d94d 123e 736e 3f3b 1f46 09be
00000140: 4b63 603e b008 c6bd e2b0 34bd 05c8 eebc
00000150: fb6e b4bc 2c83 92bd 8fd9 f63d 88c4 c5bc
00000160: 78b9 293d 68f3 c83d eabb 39bd 5874 89bb
00000170: 158a 4fbd a501 4cbd 25cc d2bd ac13 e23d
00000180: 21ee 99bd 5e65 a0bc dce6 a73c 2dd5 213d
00000190: 8d51 303d 899a 1fbd af23 eabd 7ebb bdbc
000001a0: 3347 febd 5ceb 30bd 1cd6 b6bd 466f d53d
000001b0: 6f5c 6a3d 33e5 723c d442 0b3e 0598 f53d
000001c0: d6d4 52bd 942c f9bc 11ab 573c 18eb e73b
000001d0: 8931 0b3d e85d de3c 407a b7bc 988d 2dbc
000001e0: a24f 92bc 6c26 593d 3c7a e0bc ecb0 633c
000001f0: bbf4 d4bd e524 f9bc 69ee e7bd 8032 06be
00000200: c56f 15bd 6f08 b2bd a7d0 b2bd b777 963d
00000210: c5e4 403a 1656 6fbd 0c1e 943d 8bf2 cd3c
00000220: d21a 6f3d f173 8dbd 0adc 61bd d8da 8c3c
00000230: f6c4 de3d 3001 123e 54a6 47bd e7af ca3d
00000240: f011 c1be 5d4b 9d3e 31b9 05bc 2c94 e2bd
00000250: 7a87 c53c 19d2 eb3d b078 ffbb 334d b5be
00000260: 1a75 cabc 8463 04be 7148 9cbd 5ad6 983d
00000270: e1e7 1a3b 436f b7bd 3814 c3bb 270c 1dbe
00000280: bcbc bdbd 2ea1 95bd d0ec 06be 4c9b 0bbd
00000290: 23f0 f7bd fe04 2fbe c31a 9dbd 81e9 ad3c
000002a0: e495 12bc e17b 7d3d 3250 0f3e 3adc eabd
000002b0: ece7 c8bd b14e 8ebc 0865 0d3d e9a8 9cbc
000002c0: 566c 03be d9c5 d9bd 4180 603e f64d 83bc
000002d0: 506c c63d 7e67 cebd 0a89 0d3e 94d7 b53d
000002e0: eaec 843d 598a 813c 3ae3 de3d 4377 33bd
000002f0: 181f f93d d9af d4bd cc71 b83d d525 453d
00000300: 80c2 11bd faef 62bc e6b6 2b3b f197 05be
00000310: e752 8b3d 630d a23d 7cf8 9ebc 1a6a 74bd
00000320: 6da6 49bc 8066 363c ae3b ea3d ed5e 213d
00000330: a1a4 aab9 036e 123e 68c2 a8bd e71a 073e
00000340: 5d03 493d 789c ffbd 8810 b53d 76a9 d8ba
00000350: 3555 dcbc de00 91be 7377 8fbd 6b81 1dbe
00000360: 9c0b 9c3c fd22 9cbd b2e8 20bd 51fe ddbc
00000370: 021d 863d b41b 033e ce28 fbbd 3dfa 3bbe
00000380: 22aa 85be 557c 3fbe 05e0 edbd 33cd 873a
00000390: 4630 743d c079 4e3d 72be 593d 70be 8dbd
000003a0: acfe 1f3c 9fef 043b 9569 4abd 07fa 633a
000003b0: b1be 9abd 0a09 fbbc 764f e8bd 1899 c4bd
000003c0: 79eb 28be cc72 993b 3031 b73d 3739 f33d
000003d0: b216 acbd 3620 53bc b046 15be c483 943d
000003e0: 1070 793d 166b b83a 3260 273d 10e9 f4bc
000003f0: 8589 c23d 6689 ad3d a83c 78bc c066 0a3c
0.09877321 0.07770287 -0.061934285 -0.03716762 0.12741435 -0.00665966 -0.07716379 0.058271237
-0.09252567 -0.08628627 -0.09129751 -0.12304965 -0.038353775 -0.14303261 0.0038312927 0.053474706
-0.10105019 -0.0121436855 -0.08503332 -0.02844937 -0.037482616 0.10805773 -0.06855299 -0.099706866
-0.12446213 -0.047377627 0.013165755 0.015938545 0.07071251 -0.05765343 -0.11754634 -0.15915313
-0.203915 0.052880775 -0.031434793 -0.20292978 0.07461405 -0.043926217 0.116650715 -0.0025896633
0.056004938 0.085303016 -0.06995749 0.14334464 -0.07811006 -0.020249154 0.12116665 -0.017226648
-0.13793921 0.07028933 0.16419034 0.10586558 0.049026582 0.069613755 -0.15737122 -0.096283406
-0.05145189 0.06851719 -0.14021997 0.008966209 -0.09922602 0.10743988 -0.046069182 -0.09526849
0.10925357 0.06416775 -0.083986364 0.017466385 -0.076312594 -0.042824805 0.076031506 0.08719582
-0.010914424 -0.05125281 -0.1142195 -0.10666372 -0.07866008 0.14287509 0.002921012 -0.13405655
0.21912877 -0.09669626 -0.044114 -0.029148111 -0.022025576 -0.07153925 0.12053215 -0.024141565
0.041436642 0.09812051 -0.045345224 -0.0041947775 -0.050668795 -0.049806256 -0.10292844 0.11038908
-0.075161226 -0.019579586 0.020495825 0.03950994 0.043046523 -0.038965736 -0.11432587 -0.023160692
-0.12415924 -0.043193206 -0.08927557 0.10421614 0.057217058 0.014825153 0.13599712 0.11991886
-0.051472507 -0.030416764 0.013163344 0.007077586 0.033982787 0.027144387 -0.02239716 -0.010592841
-0.017860238 0.053015158 -0.027402036 0.013897162 -0.10398241 -0.0304131 -0.1132477 -0.13105202
-0.036483545 -0.08693015 -0.087312035 0.073470525 0.0007358308 -0.058431707 0.072322935 0.025140068
0.058375187 -0.0690688 -0.055141486 0.017194197 0.10877411 0.14258265 -0.048742607 0.09896832
-0.37708998 0.3072156 -0.008161829 -0.11063418 0.024112452 0.11514682 -0.0077963695 -0.3541046
-0.024714042 -0.12928587 -0.076310046 0.07462759 0.0023636746 -0.08956768 -0.005953338 -0.15336667
-0.09264514 -0.07306133 -0.13176274 -0.03408365 -0.12106349 -0.17091748 -0.0767112 0.021229507
-0.0089468695 0.06188572 0.13995436 -0.11467786 -0.098098606 -0.017371507 0.03452018 -0.019123511
-0.12834296 -0.106334396 0.21923925 -0.016028386 0.09688628 -0.10078333 0.13821808 0.08879009
0.064905 0.01581304 0.10883184 -0.04381491 0.12164134 -0.10385103 0.0900608 0.048131783
-0.03558588 -0.01385116 0.0026201545 -0.13046242 0.06802922 0.079127096 -0.019405596 -0.0596715
-0.012307745 0.011132836 0.11437164 0.03939717 -0.00032547585 0.14299779 -0.08240205 0.13193856
0.049075473 -0.12481016 0.08841044 -0.0016529995 -0.026896099 -0.28320974 -0.07005205 -0.153814
0.019048505 -0.07623861 -0.039284416 -0.027098807 0.065485016 0.12803537 -0.12263642 -0.18357177
-0.26106364 -0.18699773 -0.11614994 0.0010360837 0.05961635 0.05040908 0.05316014 -0.06921089
0.009765308 0.0020284427 -0.049417097 0.000869662 -0.07555903 -0.030643959 -0.11343281 -0.09599513
-0.16496076 0.0046828743 0.08944929 0.11876147 -0.08402766 -0.012886098 -0.14577746 0.07251695
0.060897887 0.001407 0.040863223 -0.02989629 0.09498886 0.08473472 -0.01515118 0.008447349

conv2.bias f4 [32]
00000000: 7eb0 fcbd 0d28 19be 9371 31be 96fd cebc
00000010: 3b2e 1cbd 4afb 11be b7a3 4cbe 765f ea3d
00000020: f152 06bc 7dae 3bbd dd26 0ebe 4d5f c93d
00000030: 4b97 83be 8eeb 9e3d 6681 60be 3655 c73d
00000040: 5615 f5bd 8d70 e2bd b08e 4a3e ae70 59bd
00000050: f5a2 2f3e dee5 0dbc da4e 073d 7040 f83c
00000060: 567e 3ebc fefe 17be 7566 b83d 8da2 06bd
00000070: 1ac5 5f3d a5ce 35be b938 ddbc ff9a 92bc
-0.12338351 -0.14956684 -0.17328481 -0.025267404 -0.038130026 -0.14256015 -0.19984327 0.11443989
-0.008198486 -0.045820702 -0.13882013 0.0983263 -0.25701365 0.07759772 -0.21924362 0.097330496
-0.1196696 -0.110566236 0.19780993 -0.053085975 0.17152007 -0.008660762 0.033034183 0.030304164
-0.0116268005 -0.14843366 0.09003917 -0.032869864 0.05463133 -0.1775461 -0.027004587 -0.017896174

transformer.layers.0.self_attn.in_proj_weight f4 [96, 32]
00000000: 88e3 a63e 52c5 df3e 77c0 8e3d 1c11 eebe
00000010: 5942 7b3b d252 34bd f048 bf3d e75a 223e
00000020: 221b 283e 2056 1c3e a129 643f c252 e83e
00000030: 4268 923e 691b 763f 8e74 bb3e 792e 263f
00000040: 000a 043f 7c3d 3bbe acd4 b83d e136 28bd
00000050: 7822 643e 47a6 943d 0af8 cf3e aadd 973e
00000060: e26c 7a3e d1b3 c13e 7cd1 5a3f b6e3 9a3e
00000070: f93a 943e 234f 9a3d 2d16 c73e c09f bb3e
00000080: 55e5 5bbd 4420 c5be 3125 b4bd 89b0 0cbe
00000090: 6ac5 94bc 8b15 8ebe 745c 2fbe e63d 15be
000000a0: 8567 823b 8681 8c3d a197 06bf 07e6 8ebe
000000b0: 0c8f c2be 9786 54bf e2ee 863d 51e2 b2be
000000c0: 7b0c c2be 140e c73e e0e8 56be 6494 853e
000000d0: 879f 3f3e baa1 613e e4a2 cebe 1fbe 04bf
000000e0: 9c04 8dbe 1e39 01bf 9e4d aabe 51e8 80be
000000f0: b673 44be 213d adba b661 58be e64c c6bd
00000100: be4e f7bd 2ce0 b73e 784c f53d 424d 353e
00000110: 9b6f e4bb 007e 6f3e b46f fabd fba4 373e
00000120: 4b03 d7bd 9cdf 983c 2a14 8b3e 66a7 8f3d
00000130: b9c9 d03d 749e 8e3e ca73 b8bd f27f 163f
00000140: 59d0 853e e7f7 c9be 5e58 ae3e b92b 0fbe
00000150: 45fb 1d3e afdc 8fbe 94e8 483e 76b8 9f3e
00000160: f404 45bd e857 b43e 3269 2f3f 4e93 ae3e
00000170: 5ed2 053f 5327 ac3d 6ef6 ab3e 077f 103e
00000180: 1a8e c1be 2e99 e4be 5c43 563e 11aa 653f
00000190: 3aa1 61be 984d e03d d347 24bd f21d 08be
000001a0: 0ee6 ec3c 38cd 2dbe 5018 02bf 9202 71be
000001b0: bc51 2abe e4c0 83bf 6c6c 2bbe 1c07 b5be
000001c0: 766c d4be 3aa5 5d3e 974e 75bd 3aba b03e
000001d0: 2e71 4dbe fe2b 66bd d8e4 23bf d370 04bf
000001e0: 6a91 043e 29cb 05bf 5b3f 24bf 3f8e dfbd
000001f0: 7999 5fbe 67f8 c73d 61dd d8be c1a8 a1bd
00000200: f9c3 eaba 2e39 93bc d48c e3bd bd5a e6bc
00000210: c800 debc a5a4 cd3d f6d9 0d3e c4ee 3e3e
00000220: 8502 f33d 4584 b5bd 36ff 8a3e 2dc8 03be
00000230: 0cdc bc3c c016 6d3e 1958 813d 83bf 333e
00000240: d394 c93d de69 9dbd 598d babe 1e96 bf3d
00000250: 5dc1 813e ff76 1d3f 3ced 13be a4ab 533d
00000260: 25ed 803e 204d 84bc a341 4e3e b340 f63e
00000270: 8179 9abe 68db 2abd 23ea 2f3e 5327 783e
00000280: 3ed6 30be bb85 2cbe 3f0a 093d db99 1cbe
00000290: e824 37bd a14c eebd 60a0 ea3d 76ab 1e3e
000002a0: 4cc9 fcbd af26 d13c ac00 9fbe 1443 8c3e
000002b0: a5b7 123d 5e81 97be f38b 88be f321 20be
000002c0: 6bf8 5abd b8f1 dc3d 1f28 223e f097 a2bd
000002d0: 8490 4a3e ca4b d63e 0554 11bc cd68 97be
000002e0: 5b72 52be ba29 a43d 393c 913e 5ef2 32be
000002f0: 16ad abbd 6d10 bbbe a02f a03c 6170 fdbc
00000300: 6433 8abe 781f 56be c1ce 893c cd57 ccbd
00000310: 8ec3 aabe a96b de3d ca7b 4bbe 1d17 85bd
00000320: 67ef dfbd 52e3 c4ba c1af 26be b5be f13d
00000330: 1820 36be 6acd dcbe deaa fdbd 57af a9be
00000340: 6738 98be 9cc0 fc3d 393e b8bd 1340 8ebe
00000350: e449 463e 59d5 7a3e 8148 003d 2499 88bd
00000360: 4a7f 97be e7d7 aabd 0b99 d33d 1dc7 4cbe
00000370: 2d00 563e a81d 97bd c11c 60be 8231 583d
00000380: 520d 15be 6d1e 04be 7f88 be3d 1632 a6bd
00000390: 6552 62be 7217 5cbe baaf 9d3c be6c 55be
000003a0: d87e 38bd db3d 9fbc f461 8abe c611 b63e
000003b0: b236 b23d e565 15bf fd47 aebd 60a8 80be
000003c0: 0c43 42be 0eaa 99bd 8975 963c 4a81 c6be
000003d0: 539b d13d 20a4 0a3f 866b 23be 6a43 96be
000003e0: 6f3c 7fbe 8bb6 653e 3b69 cfbd 5eca 8d3c
000003f0: 4726 2d3e bff3 1bbe 00f0 b23b 8c6a 9e3c
0.32595468 0.4370523 0.069703035 -0.46497428 0.0038339107 -0.044024296 0.093400836 0.15854989
0.164166 0.15267229 0.8912602 0.4537564 0.28595167 0.96135575 0.36612362 0.6491466
0.5157776 -0.18285173 0.09024939 -0.04106796 0.22278774 0.072582774 0.40618926 0.29661304
0.24455598 0.37832502 0.854759 0.30251855 0.28951243 0.075346254 0.38884106 0.36645317
-0.053685505 -0.3850118 -0.08796156 -0.13739218 -0.01816054 -0.2775081 -0.17125112 -0.14574394
0.0039796256 0.06860642 -0.5257512 -0.27909872 -0.3799976 -0.8301787 0.06588532 -0.3493829
-0.37900147 0.38877928 -0.20987272 0.26089776 0.18713199 0.2203435 -0.4035865 -0.518526
-0.2754258 -0.5047778 -0.33262342 -0.25177243 -0.19184765 -0.001321707 -0.21131024 -0.09682636
-0.12075566 0.35913217 0.11977476 0.17705253 -0.006971312 0.23387909 -0.12228337 0.17934029
-0.10498675 0.018661313 0.2716382 0.070143506 0.101947255 0.27855265 -0.0900646 0.5878898
0.2613552 -0.39446947 0.34051794 -0.13981523 0.15427883 -0.28098056 0.19619972 0.3119542
-0.048100427 0.35223317 0.6851989 0.3409676 0.5227412 0.08405938 0.33586448 0.14110957
-0.37803727 -0.44648117 0.20924133 0.89712626 -0.2203416 0.109523 -0.04010756 -0.13292673
0.028918292 -0.16972816 -0.5081835 -0.23536137 -0.16632742 -1.029324 -0.16740578 -0.35356987
-0.41489 0.2164506 -0.059889402 0.3451708 -0.20062706 -0.056194298 -0.6402106 -0.51734656
0.12946096 -0.5226312 -0.6415917 -0.10915803 -0.21835889 0.09764176 -0.423564 -0.078935154
-0.0017911188 -0.017971601 -0.11110845 -0.02811944 -0.027099982 0.10041169 0.13852677 0.1864577
0.11865715 -0.08863119 0.27147835 -0.1286933 0.023054145 0.2315321 0.063156314 0.17553525
0.09842839 -0.07686208 -0.36435965 0.093548045 0.25342837 0.615097 -0.14445966 0.05167736
0.25180927 -0.016150057 0.20142226 0.48096237 -0.30170825 -0.04171315 0.1717916 0.24233751
-0.17269227 -0.16847889 0.033457037 -0.15293066 -0.04471293 -0.116357096 0.1145637 0.15495095
-0.12343082 0.025531141 -0.310552 0.27394927 0.03581967 -0.29590887 -0.26669273 -0.1563795
-0.053459566 0.10788292 0.15835617 -0.07939136 0.19781691 0.41854697 -0.0088701295 -0.29572144
-0.20551436 0.08015771 0.2836626 -0.17475268 -0.08382623 -0.3653597 0.01955396 -0.030937376
-0.26992333 -0.20910442 0.01682222 -0.09977684 -0.3335232 0.10860378 -0.1987144 -0.06498549
-0.10934334 -0.001502136 -0.16277982 0.118039526 -0.1778568 -0.43125468 -0.12386106 -0.33141586
-0.29730532 0.12341425 -0.08996243 -0.2778326 0.19364125 0.24495448 0.031319145 -0.06669834
-0.295893 -0.08341961 0.10331925 -0.1999783 0.20898505 -0.07378703 -0.21885969 0.05278159
-0.14555863 -0.12902232 0.09303378 -0.08115022 -0.22101744 -0.21493319 0.019248832 -0.20842263
-0.045042843 -0.019438675 -0.27027857 0.35560435 0.087018386 -0.58358604 -0.085098244 -0.2512846
-0.18970889 -0.075031385 0.018366592 -0.38770515 0.10234704 0.54156685 -0.15958986 -0.29348308
-0.24925397 0.22432916 -0.10127493 0.01730841 0.16909133 -0.152297 0.005460739 0.019337915

transformer.layers.0.self_attn.in_proj_bias f4 [96]
00000000: 5213 1d3f b820 12bf 9aa2 093f 4cd1 f3be
00000010: c78e 3fbc 7586 bcbe 12bd c5be 954f e9be
00000020: 330b 7cbe 7183 15bf 01da d2bd 3abe 15bf
00000030: a478 833c ef3d df3d f392 913e 9256 6c3e
00000040: 860f 8dbd 981f c33d a2ea e93d 7de2 c3bd
00000050: a86f dcbc 4fb6 643e 1b65 793d aa99 28be
00000060: df15 aa3d 9f39 02bd 855b adbd b3e0 a63e
00000070: 05d5 8a3d bbdb 493d 54bc 82be fb38 983e
00000080: 99f6 fd3e ec10 adbe daed c03e a466 5cbf
00000090: c0c9 b43e c0ab a0bc 18ec 88bd 3b22 6bbd
000000a0: 943b a93c e862 19bc 72bb 8b3c 3bde 76be
000000b0: a369 dd3c c4c5 a5be 0c11 5dbe 0d55 793d
000000c0: 4687 2e3e 93a2 8b3d ded3 ddbd ab9d 6cbe
000000d0: 46fc 483e 3433 1b3d b5f6 3fbd d477 f6bd
000000e0: a1c7 273e 0763 7d3d bb39 38be e5e7 983e
000000f0: 7293 a23d 8df9 5ebe ad2a df3d f7ea dc3d
00000100: 8bf9 953e 4a19 43bc 77ea 8a39 72f5 a8bc
00000110: 027b ebbe 96e9 0d3f 75af 54be 8976 a43e
00000120: 96f4 22bf 370e 19bf ab78 0cbf ce73 2c3f
00000130: 4bd5 d03d 8fe4 773f 6c23 02bf 5395 d7be
00000140: 557d 9dbf 4d35 89bf b2a8 a73f b725 9dbe
00000150: fbb1 15bf 2137 9e3f d4e1 893f 6351 ccbf
00000160: d053 9c3f ef7e 5fbf 4c95 083f c015 3fbf
00000170: 2709 113f 4455 4fbf f5c8 2d3f 288c 153f
0.61357605 -0.57081175 0.53763735 -0.47620618 -0.011691756 -0.36821333 -0.38620812 -0.4556853
-0.24613647 -0.5840369 -0.10295487 -0.5849339 0.016048737 0.10900485 0.28432426 0.23079899
-0.068877265 0.095275104 0.11421706 -0.095646836 -0.02690871 0.2233517 0.060887437 -0.16464868
0.08304953 -0.031793233 -0.084647216 0.32593307 0.067789115 0.049281817 -0.25534308 0.29730973
0.49602202 -0.33801973 0.37681466 -0.8609412 0.35310173 -0.019613147 -0.06685656 -0.05740569
0.020658292 -0.00936196 0.017057154 -0.24108212 0.02702791 -0.32377446 -0.21588534 0.060872126
0.1704379 0.06818118 -0.10831426 -0.2310702 0.19627485 0.037890628 -0.046866138 -0.12034574
0.16384746 0.061862018 -0.17990772 0.2986442 0.07938279 -0.21774884 0.10896812 0.107870035
0.2929195 -0.011907885 0.000264961 -0.02062485 -0.45992285 0.5543455 -0.20770057 0.32121685
-0.6365446 -0.59787315 -0.54871625 0.67364204 0.101969324 0.9683313 -0.508353 -0.42106113
-1.2303873 -1.0719391 1.3098357 -0.30692837 -0.584747 1.2360574 1.0772042 -1.5962337
1.2213078 -0.8730306 0.5335281 -0.7464256 0.5665459 -0.8098948 0.6788476 0.58416986

transformer.layers.0.self_attn.out_proj.weight f4 [32, 32]
00000000: f23e 8b3e cb21 10bf e8bd 943f f894 fcbe
00000010: 9d85 8c3d 721b 80bb f866 1fbe d263 ce3d
00000020: 761d 8fbe c48e 51be 72ac e7bd 2b2b 3bbe
00000030: 7e58 d3be 30e4 9fbd 6123 c13e 93d7 e8bd
00000040: fc21 f33d 5fb6 8abd 514f 103e 0f71 10be
00000050: c489 8c3d 6d28 803e f5e1 3a3e dbe6 033c
00000060: 2cad 013e d76e 0cbd 64c8 9bbd 7c76 45bb
00000070: ebd5 a03e 66b3 28be ef12 6e3d cb40 873e
00000080: 98a7 683f d7de c5be 52b7 c63e 7731 a03d
00000090: b249 b5bc 73bb 303e 5657 833e 5dc5 bbbe
000000a0: 95a6 5dbe ce7a 95bd ff50 fabe fefe d73e
000000b0: a26e 13be bf06 ce3d 0a7b 973e 211f a33c
000000c0: 29ec 1abf 0150 a4be 0950 2f3f dec8 48be
000000d0: c227 f7be 187c 2a3e 0c19 4a3f abb2 a3be
000000e0: bfbe 403f 162a 01bf 0356 87be 3de6 35be
000000f0: cfd4 4a3d 7e15 67be 244f bf3e 842c d5bb
00000100: 2136 9dbe e0f3 123e 2451 8c3d 54b0 3abe
00000110: 0579 ad3e 5c2b 05be dd9f 133e ab14 d83e
00000120: 9790 573d be95 1e3e c095 8e3e 15c5 43bd
00000130: 5b52 2abd 0b4a a03d 7de1 29be 9df8 72bd
00000140: a4d7 f7bd 8acb a0be 0088 71be 3890 ebbd
00000150: b276 3bbd 6337 61be 15f7 0abd f91a 90bd
00000160: 0da5 803e 9536 68be 0b91 4f3e f029 ccbe
00000170: b2a2 50be 9b99 c43e 9d86 febe e1ca 5fbd
00000180: 18f5 193f c811 2f3c e1a9 28bf 6a54 fa3d
00000190: 4517 e33e abc3 253f e8bb 933e 4515 03bf
000001a0: 6d12 153d ce9e edbe ea2a e2be d33d 2a3f
000001b0: 31e0 e0bd 9d5b e33e 1836 c13e 326b 6e3e
000001c0: c2c0 5fbe 90ab 9fbe 98d6 07be b60e 9ebd
000001d0: 586c 103e ef31 303e 93c5 aa3e dec3 c2be
000001e0: 6624 653f f883 90be fb7e bbbe e40c 2f3e
000001f0: 6544 e3be 746c 55be 373a 863e bf51 93be
00000200: 8e62 d0bd f4f5 8b3e 9352 1abf af65 b33e
00000210: 1180 acbe 0192 a2bd a0d2 a2be 121c 34bf
00000220: aef1 2b3f 3eb2 09be 5dde 8ebe 6f95 b9bc
00000230: 47f5 883e 50b7 b3bd fd8b e4bc 39c4 833d
00000240: 630a e4bd 0710 ba3d 0bed 1f3d 4f23 b2bb
00000250: 15e8 6dbe f021 883e e6b9 893c 25df 1bbe
00000260: fe5a 4e3d 3ef0 953e 2bba a7bc 8397 8e3d
00000270: 023b f8be 3d17 0fbe ba30 90bd 8fd5 713e
00000280: c598 91be c694 b3bc 4efb 503e 8edf 2f3e
00000290: fa69 d63d b28c fa3d aec6 053e 66aa d73c
000002a0: 01fe 863e e3ff abbe d67c ee3e dcb1 8a3d
000002b0: b88e 01be c363 583c 11bd 413e a6c4 cc3d
000002c0: 27a7 873e d92b 3ebc 99c4 86be c7bd a6bd
000002d0: 5d8e cf3d ef55 50be ea52 9abd 7350 c23d
000002e0: de6d 383d 010a 94bd 2468 013e ed8e 853e
000002f0: a1ef 553e e24c 1b3c dd38 59bd fd8d 5bbd
00000300: 67f1 a2bd e5b9 8abd 076a 103e 6f22 7bbe
00000310: fc22 c83d 1f1c 0abf a47e 653e c86f b73d
00000320: 9a4a 153e 3fda 403e 84a2 cdbc 777c 29be
00000330: 9dc5 6dbd 6980 27be edd8 213e 2028 b13c
00000340: 8104 283e ca9a 403d bd44 7dbe 2439 f93c
00000350: a0ec 0fbb 6d2f 63be c6cd 59bd d602 173e
00000360: f58e 99bd f54b 5f3c 826d 4dbe b255 50be
00000370: c8b9 22be fdfa c13d bde0 b0be 0fad 5e3d
00000380: 45f7 26bf cd65 343f 8565 81bf 64a9 753f
00000390: bc94 0a3f 42ca e33e 18a5 67be 15ca 373f
000003a0: 2976 22bf 2e67 64be d4b1 1d3f 4c8e d93e
000003b0: 656b 213e c669 d03d d7ab ac3e c95b 063e
000003c0: 8f79 77bd 9013 333e 41c8 f7be 6862 9abe
000003d0: de6a d13e f144 8abd 4ed1 c3be a300 1d3e
000003e0: ae2c e8be 90c1 22bd 261e 57be 0181 0a3f
000003f0: 2391 c03d a684 f53e c25d 243d 3514 033e
0.2719646 -0.56301564 1.1620455 -0.49332404 0.06861422 -0.0039095217 -0.15566623 0.10077633
-0.27952164 -0.20464617 -0.11312188 -0.18278186 -0.41278452 -0.07807195 0.37722304 -0.113692425
0.118717164 -0.06773066 0.14092757 -0.14105628 0.06862214 0.25030842 0.18250258 0.008050646
0.12663716 -0.034285393 -0.07606581 -0.0030130437 0.31413206 -0.16474685 0.058123525 0.2641662
0.9088073 -0.38646576 0.38811737 0.07821935 -0.022129867 0.17259006 0.2565257 -0.36674014
-0.21645577 -0.07298814 -0.4888992 0.4218673 -0.14397672 0.100598805 0.2958606 0.019912304
-0.605166 -0.32092288 0.684815 -0.19607875 -0.4827252 0.166489 0.7894447 -0.3197225
0.75291055 -0.50454843 -0.2643281 -0.1776361 0.049519356 -0.22566792 0.37365067 -0.006505551
-0.3070536 0.14350843 0.06851414 -0.18231326 0.33881393 -0.13004822 0.14416452 0.42203268
0.052628126 0.1548681 0.27848625 -0.047795374 -0.041582447 0.078266226 -0.16589923 -0.059319127
-0.12101677 -0.31405288 -0.23587036 -0.11502117 -0.045767494 -0.21993785 -0.033927042 -0.070363946
0.25125924 -0.22677071 0.20270173 -0.39875746 -0.20374563 0.38398442 -0.49712077 -0.05463684
0.6013961 0.010685392 -0.65884215 0.12223132 0.4435369 0.6475169 0.288543 -0.5120433
0.036394525 -0.4641022 -0.44173366 0.66500586 -0.10980261 0.44405833 0.37736583 0.2328308
-0.21850875 -0.3118558 -0.13265455 -0.0771765 0.1410383 0.17206548 0.33353862 -0.3804006
0.89508665 -0.28225684 -0.36620316 0.17094761 -0.44388118 -0.20842153 0.2621629 -0.28773305
-0.10175048 0.27336085 -0.6028225 0.35038516 -0.33691457 -0.07938004 -0.3180132 -0.7035533
0.6716565 -0.134469 -0.27904025 -0.022654263 0.26749632 -0.087751985 -0.027898783 0.06433911
-0.111347936 0.09085088 0.03904442 -0.005436338 -0.23233064 0.26588392 0.016812276 -0.15221842
0.050379746 0.29284853 -0.020474514 0.06962492 -0.4848252 -0.13973708 -0.07040544 0.23616622
-0.28436866 -0.021921527 0.20408365 0.17175123 0.10469432 0.12233867 0.13064072 0.02632637
0.26365665 -0.33593664 0.46579617 0.06772205 -0.12652099 0.013207379 0.1891978 0.09998445
0.26494715 -0.011607134 -0.26321867 -0.08141666 0.101345755 -0.20345281 -0.07535346 0.09488001
0.045026653 -0.072284706 0.12637383 0.26085606 0.20892192 0.0094787795 -0.053032745 -0.053602207
-0.079562 -0.06773738 0.14102946 -0.24524854 0.09772298 -0.5394916 0.22411591 0.089568675
0.1457924 0.18833254 -0.025101908 -0.16551386 -0.058049787 -0.16357578 0.15805407 0.021625578
0.16407968 0.04702262 -0.24733253 0.030422755 -0.0021961108 -0.2218606 -0.053174756 0.14747176
-0.0749797 0.013628949 -0.20061305 -0.2034519 -0.15891182 0.094717 -0.34546462 0.05436426
-0.65221053 0.70467836 -1.0109106 0.95961595 0.541332 0.44490248 -0.22621572 0.7179273
-0.6346155 -0.22304985 0.6159947 0.42491376 0.15763624 0.10176425 0.33724853 0.13120951
-0.06041866 0.17487931 -0.4839497 -0.30153203 0.40901846 -0.06751431 -0.38245624 0.15332274
-0.45346588 -0.039735377 -0.21007594 0.54103094 0.09402683 0.47952765 0.040128477 0.12800677

transformer.layers.0.self_attn.out_proj.bias f4 [32]
00000000: 6b4b 443f 95d7 b63f 5f83 adbe 22f1 bd3f
00000010: 7cf8 0fbe 4636 2ebf b2fc 9fbe 00ff 85bf
00000020: 486c 813f ee47 8dbe ad76 843f dbe0 843e
00000030: 1561 3f3f 95ee 2c3f eca7 5d3f 99a7 333f
00000040: 5e42 2d3f 25bb b73f 58cc d63e d48f 1fbf
00000050: 132f 0fbf 834e c73b 3c22 793e 2fee bfbf
00000060: 06e1 7a3f 8f34 b6bd c3cd 323f 1ffb e73e
00000070: e454 2a3d 6833 4f3f 6d04 db3e 3204 5abe
0.7667758 1.428454 -0.3388929 1.4839213 -0.14059633 -0.68051565 -0.3124748 -1.0468445
1.011117 -0.2759394 1.0348717 0.259528 0.7475751 0.6755155 0.86584353 0.7017761
0.67679393 1.4353987 0.41952777 -0.6232884 -0.55931205 0.0060823574 0.24329466 -1.4994563
0.9799961 -0.088967435 0.6984522 0.45308778 0.041584864 0.80937815 0.42776814 -0.21290663

transformer.layers.0.linear1.weight f4 [2048, 32]
00000000: aa77 4c3e 40b8 e63c ac0f 8c3d fbbb bebc
00000010: d5e6 bb3d 3d4f c13e 7526 9e3d 5a83 a7be
00000020: 10c8 a7be 8cb3 1b3d 1d49 78be 582b 3c3e
00000030: eb97 b4be cac3 803d 2ae2 95bd 15a4 a4bd
00000040: dd62 0dbe f8f0 32be 5a32 f23d 8fdc ad3e
00000050: c810 b53d 4c84 7a3e 4e40 51bd 92e0 a23e
00000060: 6522 3bbe 17a5 f43d 5f02 e3bd b372 a0be
00000070: 06c7 333e e324 6ebd 07bf 753e b850 5cbe
00000080: ca23 15be 8402 edbb 2f99 88bb 8ec0 d73d
00000090: 60ba 0a3f c293 67bd d3a0 f8bc c693 3a3e
000000a0: 72f7 873d 462d 81bd 86ac 3b3b 9190 253e
000000b0: 4ec7 5dbd a584 d93e 0c52 233d f864 ca3d
000000c0: ce4e a5bd 8657 0cbe 5e2e 00bd ae56 8abd
000000d0: a3de 073e 389f ce3d 650c b73e 6456 433d
000000e0: 50fb fb3c 730d 163e 030b e8bd a2f0 30be
000000f0: 2405 f43c d8fe 0a3e fff7 223d 38d5 e73d
00000100: 6331 e43c 0fba 1dbe a618 8e3d c1a3 b43d
00000110: a916 4d3d ac4f 62bd c110 ee3d 7b15 4bbe
00000120: 0042 86bd d07b 8cbd 4f4d 4d3d dd36 073e
00000130: 5cde 62be a2e9 35bd ea20 73be e4fc acbd
00000140: e3ab 823d cf04 d8bd d673 b5bd f8ce 353c
00000150: 409a f13c 4be7 81bc 9643 56bd 4208 22bd
00000160: 07b1 63be 93b1 af3d 5e44 47be bd3d 343d
00000170: aeac a53c a0b4 30bd e6d2 23be e51b e23d
00000180: a657 303e d3c8 4d3d 2faf 153e fc22 16bd
00000190: ed09 703d bf7c 00be c1ed dcbd ac48 bdbd
000001a0: 9f5c c5bd 0360 873d 90ca 55ba 0b2c 0c3c
000001b0: f82f d7bd 9cb5 ed3c 38d4 71be 81c6 48be
000001c0: 8edc 31be 698f 20be be57 65bd a92e 7c39
000001d0: b024 eb3c 93d2 e03d 6d96 253e cd72 ab3d
000001e0: 0a1b 3dbe c476 bf3d 753c 63bc ace5 6cb9
000001f0: 3f86 2b3d 1ac0 6b3c b32c 5bbe 7e62 22be
00000200: 3fd1 a63e 87da e3be cf38 193e 5b23 9ebe
00000210: aa83 84be 5842 073d 6a86 1fbd edb2 02bd
00000220: 2893 a3bd 43ee 6f3e a3ce c3be e045 cf3d
00000230: 9271 a0bd 1055 9b3c 486c ddbc c970 b33d
00000240: 43e5 43be 2e99 d0bd 5242 c73d 6de0 bdbd
00000250: 3d14 993d 82a6 4abe 83d2 cf3e b888 e7be
00000260: 506e 6ebc bf8d 983d e0f4 67be 7673 c6bd
00000270: 7478 813d e9c4 ab3d 61f8 11bd 47d7 263e
00000280: 3e11 373e 9bf2 3aba 042e de3d 1271 b73b
00000290: edba ce3d 903f 6a3c 64bb e93d 1e52 db3d
000002a0: dc25 7bbb 1158 c73c 1c19 1a3d c78b f43c
000002b0: f548 5f3d 535e dbbd 2c59 88bd 76c8 d7bd
000002c0: 5a13 cbbd e0a1 3b3b e982 84bd fee1 583e
000002d0: 809e 2dbc 6073 e33c e281 1b3e 38b6 3a3c
000002e0: c0e7 22be 0713 ab3d 7ec3 a6bd e05a 6fbd
000002f0: 147d c0bc 0527 9bbd 9210 4cbe aadc 3dbe
00000300: 9784 0ebd f0aa cd3d e1b4 853e 8590 6a3d
00000310: a4c3 4a3b 5441 603e e2bb 1ebd 420d 74be
00000320: 000f 30be ebb2 1eba e6bf 61be 3fc8 ba3c
00000330: d881 523d 92db 68bd cda5 7abe d2bf 61be
00000340: 4da1 20be 83b2 2bbe 7736 3a3e c863 293e
00000350: a729 b2bc 950f a8bd d38e 7f3e 61a8 033e
00000360: 7245 31be 86a9 ccbc 248d 633d 4377 7cbe
00000370: a579 63bc 9c2c 00be 4744 b0bd f777 1dbe
00000380: 423f 34bd a8b3 393d ebc7 41bd c0fd 73be
00000390: 4461 313d 533e c03d a36a 423e 28f6 83be
000003a0: 101a 99bd 93fd 313e b291 c8bc 3a0f 823e
000003b0: 2c26 71bd a236 fc3d 2415 b23c 8aa9 d3bc
000003c0: c0a2 8f3c af0d 53be 27d9 44bd 2757 d33d
000003d0: ea8a 48bd 23a8 e8bc fd8d 20bd e0a5 e73b
000003e0: cd39 71be 8668 2dbc cf78 afbb d01d 0dbe
000003f0: 1d04 4d3d e04e 57be fe01 5ebe f73e 063d
0.19967523 0.02816403 0.06838927 -0.023282995 0.09174887 0.37755767 0.07722179 -0.327174
-0.32769823 0.038013026 -0.2424664 0.1837591 -0.35272154 0.06287344 -0.07318528 -0.08039109
-0.13807245 -0.17474735 0.1182601 0.33957335 0.088410914 0.2446453 -0.051086716 0.3181196
-0.18274839 0.11945551 -0.110844366 -0.3133751 0.1755639 -0.058140647 0.23998652 -0.21515167
-0.14564434 -0.007232966 -0.0041686515 0.10534774 0.54190636 -0.056537397 -0.030350124 0.18220434
0.06638993 -0.06307463 0.0028636768 0.16168429 -0.05414515 0.42484012 0.039873168 0.098825395
-0.080716714 -0.13705263 -0.03129422 -0.06754814 0.13268523 0.10088962 0.35751644 0.04768981
0.030759484 0.14653568 -0.11330225 -0.17279294 0.029787607 0.13573778 0.03978729 0.11319965
0.02785558 -0.15403007 0.06938295 0.08820296 0.05007044 -0.055251762 0.11624289 -0.19832413
-0.06555557 -0.06859553 0.050122555 0.13204522 -0.22155136 -0.044412263 -0.23743024 -0.084466726
0.06380441 -0.10547792 -0.088599846 0.0110967085 0.029492497 -0.01585736 -0.05231055 -0.039558657
-0.222355 0.085787915 -0.19459674 0.04400419 0.020223942 -0.043141007 -0.1599842 0.11040477
0.17220935 0.05024035 0.14617608 -0.036654457 0.058603216 -0.12547587 -0.107875355 -0.09242377
-0.09636807 0.0661011 -0.00081554893 0.008555423 -0.10507196 0.029017262 -0.23616111 -0.19606973
-0.17369291 -0.15679707 -0.05599188 0.00024049975 0.028704017 0.10977664 0.16170664 0.08371506
-0.18467346 0.093488246 -0.013869395 -0.00022592273 0.041876074 0.014389062 -0.2140377 -0.15857884
0.32581517 -0.4450266 0.14963077 -0.3088635 -0.25881702 0.033022255 -0.038946547 -0.03190892
-0.07987052 0.23430733 -0.3824359 0.101207495 -0.07834162 0.01896146 -0.027029172 0.087617464
-0.19130425 -0.10185467 0.097294465 -0.092713214 0.07474563 -0.1979008 0.40590295 -0.45221496
-0.014552668 0.07448911 -0.22652006 -0.09689991 0.06321803 0.08387167 -0.035637263 0.1629306
0.17877671 -0.0007131488 0.108486205 0.005598196 0.10094247 0.014297381 0.11412695 0.10709022
-0.0038322126 0.024333986 0.037621602 0.029851807 0.054512937 -0.1071135 -0.06657633 -0.10536282
-0.099158004 0.002863042 -0.06470282 0.21179959 -0.010596871 0.027764976 0.15186265 0.011395983
-0.15908718 0.083532386 -0.08142756 -0.058436275 -0.023497142 -0.07575802 -0.19928196 -0.18541208
-0.034794416 0.10042369 0.26114562 0.05726673 0.0030939365 0.2189992 -0.038753398 -0.23833182
-0.17193222 -0.00060538825 -0.2204586 0.022800563 0.05139336 -0.056850024 -0.2447731 -0.2204583
-0.15686531 -0.16767316 0.18184839 0.1654197 -0.021748377 -0.08206097 0.24956827 0.128572
-0.17311648 -0.024983179 0.055554524 -0.2465487 -0.013883983 -0.12517017 -0.08606773 -0.15377794
-0.04400564 0.04533735 -0.047309797 -0.23827267 0.04330565 0.093868874 0.18985991 -0.2577374
-0.07475674 0.17381887 -0.024483535 0.25402242 -0.058874294 0.12315108 0.021738596 -0.025837678
0.01753366 -0.20610689 -0.048058655 0.10319357 -0.048960604 -0.028400486 -0.03919791 0.0070693344
-0.23557205 -0.010584002 -0.0053549777 -0.13780904 0.05005275 -0.21026182 -0.21680447 0.03277489

transformer.layers.0.linear1.bias f4 [2048]
00000000: 5c9c e9bd 2183 8dbd 619e d63d f3cd 333d
00000010: 41e2 cebd 163f 60be d15e 1d3d b382 6ebe
00000020: 1168 5dbe e0d5 1cbe cf94 a8bd f1f6 8fbd
00000030: 9f16 81be 69e6 e7bb a0e2 94be d9b7 59bd
00000040: e016 43be 466e 84be 06d8 2039 094e 06be
00000050: ffbf ccbb bce9 7fbe ec0a 94be 904d ccbc
00000060: 52e0 5fbe eb49 e7bc 2b29 89bd 0f21 69bc
00000070: 79f6 e3bc 2662 f7bd 1793 6ebe d0a8 c53d
00000080: 8cc5 fbbd e9ce a5be d811 8bbe 9aaf 66be
00000090: 59d5 86be d127 f5bd 0146 03be f14c c63c
000000a0: 79e3 0dbe 39ef 38be 4747 33bd 7722 d63d
000000b0: 2b1b 36bd 4df4 20be 7920 27be fb77 adbd
000000c0: ec82 91be 3d46 1abe 64f1 15be ff47 21be
000000d0: 6dee 43be 5efd fabd eaa6 18be 3f63 81be
000000e0: 1a9b 39bd bc9c 25be 4f40 76be 475d 00bd
000000f0: dbb8 4abe 478d 70bc f6a6 5ebe 9614 19be
00000100: 82ea 413c 5511 9e3a d1b5 75be 1415 0cbe
00000110: 7263 8d3d 8476 52be a525 91be 67cb 8a3c
00000120: 1aba 77be 18b9 57be ce1d 5cbd d69c 7ebe
00000130: ae50 9bbd 95f9 6d3c e47a 883d 5908 e83c
00000140: 4eef 023d c8a4 3cbe 4b82 02be 95b7 fc3b
00000150: 4f33 8bbc 93c7 54be 07d5 20bd d613 12be
00000160: 55b9 2cbe b96e 40be 8aa7 65be 5148 87be
00000170: 9702 2bbe 20a6 95bd 2145 c0bd f59a fdbd
00000180: 8656 6fbd 0bc0 14be efe6 39be 49aa d93b
00000190: 5465 1ebe 835c 43bc 59af 80be 7c4e 4bbe
000001a0: b6fb 983c 959b 503c 8b1f 6a3d bd82 79be
000001b0: 12df f73c b1e8 3dbe 9698 73bd 4733 b3bd
000001c0: 0d31 af3d a272 21be be13 213e d4b3 13bd
000001d0: 2749 ca3b 93c9 9fbd 2112 95be 3171 1fbd
000001e0: a9a1 303d 0487 15be 0f08 52be 83aa 7cbe
000001f0: 953a 953c b785 c2bc 5032 67be dc10 1b3d
00000200: 6dfd ddbd c4d5 4cbe 3ede 11be d608 98bd
00000210: 00e4 ac3b 49bc 44be 3708 36be d210 1ebd
00000220: b2fc 1abe 6b69 1dbe c79a 08bd 8a91 d03c
00000230: cc89 42be 6c40 32bd 9cc3 49be 13d5 88be
00000240: d2ea abbb 10c9 edbd 803b 2fbe adf3 d43d
00000250: 8877 c5bc 28b2 083d 575e 3c3c 444f 33bc
00000260: 3846 90be a297 87bd 3137 55bb 7140 91be
00000270: 583d cebd 748c 71be 0600 3dbe 016c 41be
00000280: a5b1 33be a2f3 19be 891d 67be fa98 01be
00000290: d8d5 64bd 20fd 5ebe c821 1b3d 00bf bfbd
000002a0: 551e 00bd fd93 f1bc 1698 d4bd 5cc9 293d
000002b0: dd44 acbd 3644 17be 9e53 b0bd 15ad 7dbe
000002c0: 574f 29be 86a9 44be 6ee9 77bd 4a4c 82be
000002d0: b0c0 3ebe b941 73be 7df1 eb3c 40be 9abd
000002e0: 7525 6c3c 2d71 92be 982a bbbd ead3 adbd
000002f0: 1cd9 34be 9017 2bbe 0390 1ebe 2283 a0be
00000300: cf48 873d a7ee ebbd e833 dd3d 9fa4 00be
00000310: deab 57be 456d 09be d6fd 44be 42e7 61be
00000320: 600f 0dbe 93bd 87be 5dbf c4bd 947c 803d
00000330: 55de 48be f86c d63b 2ca3 7cbe 9ce3 84be
00000340: 3a4a 31be a183 be3d 6946 6fbd 742c c2bd
00000350: 8a77 c9bd e807 5ebe 2739 6fbc 029c a9ba
00000360: 0195 6bbd 08ae eabd 4596 46be d70f 89be
00000370: e995 79be ee60 1ebe a224 2ebd 979d d0bd
00000380: bbcf 9a3d f253 8abd b265 3dbe 8ee4 8ebe
00000390: ad84 3abe 38f9 e23c e3e4 073d 9ed3 a63d
000003a0: b0ef 54be 602c 843d f27b 203c 52be 5abd
000003b0: a67d 33be f5e8 9d3d f635 09bd 584b 293c
000003c0: 2afa 54be 8139 32be 99ec 5d3b 50dc 1cbc
000003d0: f7db f83d fe31 6e3d b64a bfbd c7d4 98bd
000003e0: 23ba eabd 97e1 efbd b745 83bd 8195 f63c
000003f0: 99f5 51be 951d 40be 9d47 dabd 7dd6 553c
-0.11406776 -0.069097765 0.10479427 0.04389758 -0.10101748 -0.21899065 0.038420502 -0.23292045
-0.2162173 -0.15315962 -0.08231508 -0.07029522 -0.2521257 -0.0070770276 -0.2907915 -0.053153846
-0.19051695 -0.25865382 0.00015339264 -0.13115706 -0.0062484737 -0.24991506 -0.28914583 -0.024939328
-0.21862915 -0.028233489 -0.06697305 -0.014229073 -0.027827488 -0.12079267 -0.23298298 0.09651339
-0.122935385 -0.32384422 -0.2716205 -0.22527924 -0.26334646 -0.11970485 -0.12819673 0.02420661
-0.13856305 -0.18060006 -0.043769147 0.104557924 -0.044459503 -0.15718193 -0.16320981 -0.0847015
-0.28420198 -0.15065856 -0.14642864 -0.1575012 -0.19133921 -0.12255357 -0.14907423 -0.2527103
-0.045313932 -0.1617307 -0.2404797 -0.031338956 -0.1979708 -0.014682121 -0.21743378 -0.14949259
0.011835696 0.0012059609 -0.23995139 -0.13679916 0.06903733 -0.20553023 -0.28349033 0.016942693
-0.24192086 -0.21066701 -0.05373936 -0.24864516 -0.07583748 0.014524837 0.066640645 0.028324293
0.0319665 -0.18422234 -0.12745015 0.0077123144 -0.01699224 -0.20779257 -0.03926566 -0.1426538
-0.16867574 -0.18792237 -0.22427192 -0.2642236 -0.16700207 -0.073070765 -0.09388185 -0.12383071
-0.058432125 -0.14526384 -0.181545 0.006642614 -0.15468341 -0.011923912 -0.2513378 -0.19854158
0.018674713 0.012732406 0.057158988 -0.24366279 0.030257735 -0.18545796 -0.05947169 -0.08750015
0.085542776 -0.15766385 0.15730187 -0.03606017 0.006173271 -0.07802119 -0.29115394 -0.038926307
0.04312292 -0.14602286 -0.20510887 -0.2467442 0.01821641 -0.0237454 -0.22577786 0.037857875
-0.10839353 -0.2000342 -0.14244935 -0.0742356 0.005276203 -0.1921245 -0.17776571 -0.03859026
-0.15135458 -0.15372245 -0.033350732 0.025460023 -0.18997878 -0.04351847 -0.19703525 -0.26725063
-0.0052464986 -0.11610615 -0.17112541 0.1039804 -0.024104849 0.033373028 0.011497102 -0.010944191
-0.28178573 -0.066207185 -0.0032534117 -0.28369477 -0.10070294 -0.23588735 -0.1845704 -0.18888856
-0.17548235 -0.15034345 -0.2256986 -0.12656012 -0.055868 -0.21776247 0.037874013 -0.09362602
-0.031278927 -0.029489512 -0.103805706 0.041451797 -0.08411572 -0.14772114 -0.08609699 -0.24773057
-0.16534172 -0.19205293 -0.06052535 -0.2544883 -0.18628192 -0.2375554 0.028801674 -0.075558186
0.014413227 -0.2860197 -0.091389835 -0.08487685 -0.17660946 -0.16708207 -0.15484624 -0.31350046
0.06605684 -0.11520129 0.10800916 -0.12562798 -0.21061656 -0.1342059 -0.19237456 -0.22060874
-0.13775396 -0.2651182 -0.09606812 0.062737614 -0.19616063 0.006543752 -0.2467162 -0.25954902
-0.17313471 0.0930245 -0.058416758 -0.09481135 -0.098372534 -0.21682703 -0.0146010285 -0.0012940171
-0.057515148 -0.11458975 -0.19393261 -0.26769897 -0.24373592 -0.15466663 -0.042515405 -0.10186308
0.07559153 -0.067542925 -0.18495825 -0.27908748 -0.18214674 0.027706727 0.033177268 0.081458315
-0.20794559 0.06453776 0.009795176 -0.05340416 -0.175284 0.07710449 -0.033498727 0.010332905
-0.20798555 -0.17404748 0.0033862947 -0.009574011 0.1215133 0.058153145 -0.09340422 -0.07462459
-0.11461284 -0.1171295 -0.064097814 0.030100586 -0.20503844 -0.18761285 -0.106581904 0.013051626

transformer.layers.0.linear2.weight f4 [32, 2048]
00000000: 0184 bcbd 0e2d 593d 180a ac3c fbaa 5f3b
00000010: ed1d 62be 9446 793c 6dec bb3d 88e0 843d
00000020: f650 bbbc 2db4 58be b1a7 c93c 5eb9 9ebd
00000030: 4f23 b23d b774 193e f3d8 a73a f900 8f3d
00000040: 1fda 42bd 7ba2 e7bd f502 c03d 4c70 0bbc
00000050: 8c96 ccbe 2018 0ebd f9a4 87bd 8703 683b
00000060: a776 be3d 0d3f ebbc 344d 2fbd c0d1 20bc
00000070: 7002 0dbd b1b0 3a3d c076 b3bc 2016 623d
00000080: 9ecb 693c dfad 35bc d29b ca3b 9cfd 983b
00000090: 28bd 02bd 8d3f 2e3d dd26 31bb 5d79 6ebc
000000a0: b198 b73d 4c82 9d3e 6e77 a1bd 5f72 eabb
000000b0: ea33 983c 9d5f 0fbd f825 61bd 14dd a2bc
000000c0: bf39 06bd 2698 553d a9dc 8ebb 6fed 31bd
000000d0: 81aa cfbc a3fe 043e 1427 083d 1980 363d
000000e0: e5f7 07bb 6502 01bd 6765 903c 1525 2c3d
000000f0: 2f38 453c a513 023c a66a ed3d 7151 0dbd
00000100: b08b 5a3d 838a 40ba 79f9 223d d3b4 803e
00000110: 0bb1 0cbb 55e0 ccbc 6f2a bcbc 66f2 f33c
00000120: 4245 e03c bc12 103d 880a f83c 2206 1c3d
00000130: 6301 f7bb 7cd8 febb 9e56 70bd 68b4 643d
00000140: 605a 2ebc db9b 17bd 6509 0bbd 3ded 8d3c
00000150: b91b 08bd 96bb ae3c 4366 68bd 245e c13d
00000160: 2dbd ce3b 90d3 de3c 646d ef3a e117 37be
00000170: 024e b73d 8c2b 863d ae4c 59bc dd86 1dbd
00000180: 6c59 ce3d 030e 1bbe d5ab b83d 501e 943e
00000190: eca3 5ebd 25cc 66bd f647 0bbd 068e 953c
000001a0: e037 e23a 164a 33bd c29c 593d 02e4 5b3c
000001b0: 5bfb 953c 5cbb 50be 8321 a1bc 6259 a0bc
000001c0: 6334 6f3c 40a0 17bd d6b1 36be c36e b03d
000001d0: d47e bcbc 123b c23c 032b aabd 7f96 49bc
000001e0: 8cee e2bc 168b e5bc 7f50 9abd 3b9b 26bd
000001f0: cd2d d23c 1e40 b43c c17d 52ba ef41 b8bd
00000200: 2f1a 0fbd c76a 5eba c340 49bd acb1 14bf
00000210: bafb 3f3d 5ac4 46be 0abf 0abd 5cd8 e3ba
00000220: b9f3 103d 6441 1d3d 4278 e03d cbd6 36bd
00000230: 60c0 56bc c045 56bb eaf2 4abb 910c dabd
00000240: 1296 cd3b 6633 7a3d f73c d53b 11a2 80bb
00000250: fb3f 20bc 58a8 423c 884a 593d 127a 013c
00000260: ebc2 6fbd 70a1 1abb 97e0 8e3b 8e15 6abc
00000270: c39b cfbb 43ff 95bb 7327 4dbd 3a67 3f3c
00000280: cc2f b53c 9b80 f43c e93b 0d3d 1ae2 63bb
00000290: d732 c13d 3564 bb3a 3d3f bfbb 7bfd 823b
000002a0: e174 e7bd 0bf9 19bf bcce 3bbc 4313 f33b
000002b0: b319 e2bd 8d72 143c a604 efbc 8647 efbb
000002c0: 5695 6cbd 9fd0 05bb ebff e2bc 6745 6c3b
000002d0: 2984 213e 48ea 71bd 64bc 16bd 76b4 403c
000002e0: dda7 903d 4a0e 743c 83eb bc3e 6f3a 863d
000002f0: 9f7a 133d a267 ffbc 0394 b73c 110d 94be
00000300: 3055 80bc 6ac1 9bbc efac 37bc d416 08bd
00000310: f9c1 3dbd 80da 0d3c 9196 7b3a 4cc7 683d
00000320: 4511 a9bc 4417 fabc e96c 2ebc 4d66 533d
00000330: 1686 7abd c993 d33d 76bc 04bd 3a09 003e
00000340: 0bf4 683d c55c 88bc 4b0e ca3d c0f2 c6ba
00000350: 3440 b23c a55b 13bd 138f f0bc e4df 513d
00000360: a613 7e3d a7aa 5a3c 836b 90bb 24a3 8abd
00000370: 8496 443d 0b55 bebe b0e2 5bbb 5c16 123b
00000380: 735d 52bd ce9b a73d 60c9 ca3d e524 f5bb
00000390: 9573 0ebd 366e ccbb 158e 793c 5900 903d
000003a0: 145e d93c b939 5dbe ff09 8dbc 9380 943d
000003b0: 7fef 8cbd d596 253b 3b24 f9bd 3154 0abd
000003c0: cc0e ebbc 9f91 34bc ab7c c23d b279 2f3d
000003d0: b245 113d 6119 9abc b86a ab3d 0ee1 a83c
000003e0: 4543 30bc 0f7c 5b3b 295f 173d 8bc1 5fbd
000003f0: 9845 02bd b093 0abc 6f70 6dbd f269 57bd
-0.09204865 0.053021483 0.021000907 0.0034129012 -0.22081728 0.015214581 0.09175954 0.064881384
-0.022865754 -0.21162482 0.024616094 -0.077502 0.08698141 0.1498593 0.0012805745 0.069826074
-0.047571298 -0.113102876 0.09375564 -0.00851066 -0.39958608 -0.034690976 -0.06623263 0.0035402493
0.09299975 -0.028716588 -0.042798236 -0.009815633 -0.034426153 0.045578662 -0.02190721 0.05519688
0.0142697375 -0.011088817 0.006183126 0.0046689045 -0.031918675 0.042541075 -0.002703122 -0.014555302
0.089646704 0.3076347 -0.078841075 -0.0071547474 0.018579442 -0.035003293 -0.05496785 -0.019880809
-0.032769915 0.052147053 -0.004359801 -0.043439325 -0.025349857 0.12987761 0.033240393 0.044555757
-0.0020747122 -0.031496424 0.017626477 0.04202755 0.012037321 0.007939254 0.11592607 -0.034501497
0.053355873 -0.00073448586 0.039788697 0.25137958 -0.002146783 -0.025009314 -0.022969453 0.02977867
0.027376775 0.035174116 0.03027846 0.038091786 -0.007538007 -0.007777272 -0.058676355 0.05583611
-0.010641664 -0.03701387 -0.033944506 0.017325038 -0.033229563 0.021329682 -0.05673815 0.09441784
0.0063091726 0.02720049 0.0018266854 -0.17880203 0.08950426 0.06551275 -0.013262911 -0.038458694
0.100756496 -0.15142064 0.09017149 0.28929377 -0.054355547 -0.05634703 -0.034004174 0.018256199
0.0017259084 -0.043771826 0.05312801 0.0134210605 0.018308332 -0.20383972 -0.0196693 -0.019573871
0.014599892 -0.03701806 -0.17841277 0.08614876 -0.023009695 0.023709808 -0.08308985 -0.0123039475
-0.027701639 -0.028020423 -0.07534885 -0.040675383 0.025656605 0.02200323 -0.0008029603 -0.08996951
-0.03493708 -0.0008484539 -0.049134027 -0.58083606 0.046870925 -0.1941084 -0.033873595 -0.0017383206
0.035388682 0.03839244 0.10960437 -0.044638436 -0.013107389 -0.0032695383 -0.0030967542 -0.10646928
0.0062739933 0.061084174 0.0065075117 -0.00392557 -0.009780879 0.011880957 0.053049594 0.007902639
-0.058535498 -0.002359476 0.0043602693 -0.014287366 -0.006335707 -0.0045775487 -0.05008645 0.011682326
0.022117518 0.02984648 0.034480963 -0.0034772218 0.09433525 0.0014296832 -0.005836396 0.0039975024
-0.1130159 -0.60145634 -0.011462864 0.0074180677 -0.11040058 0.009060514 -0.029177021 -0.0073022274
-0.057759605 -0.0020418537 -0.027709922 0.003605211 0.15773071 -0.05906132 -0.036800757 0.011761775
0.070632674 0.014895985 0.3689843 0.06554114 0.036005612 -0.031177346 0.022409445 -0.2891622
-0.01566562 -0.019013125 -0.011210664 -0.033224896 -0.046327565 0.0086580515 0.0009597326 0.05683069
-0.020638118 -0.030528672 -0.010646083 0.051611234 -0.06116303 0.10330922 -0.032406293 0.1250352
0.056873363 -0.016645798 0.098660074 -0.0015178546 0.02175913 -0.03597607 -0.029365098 0.05123891
0.062030457 0.013346351 -0.0044073476 -0.06769398 0.047995105 -0.37174258 -0.0033551864 0.002229116
-0.05135865 0.08184014 0.099016905 -0.007481205 -0.034778196 -0.006238724 0.015231629 0.07031316
0.026534118 -0.2160405 -0.01721668 0.07251086 -0.06881618 0.0025266905 -0.121651135 -0.033771697
-0.02869358 -0.011021047 0.09496435 0.042840667 0.035466857 -0.01881093 0.08369964 0.020615127
-0.010758226 0.0033490693 0.036955986 -0.054627936 -0.03180465 -0.008458063 -0.057968553 -0.05259127

transformer.layers.0.linear2.bias f4 [32]
00000000: 0913 0d3e 78b7 45be a436 83be b2ee cdbd
00000010: 9059 a53d b860 90bc 3c99 46bd 34ac e7bb
00000020: 65fd 17be 593b fa3d 0362 0ebe 2599 e4be
00000030: 9f25 1abe 810a 733e a423 303f f6b4 0e3d
00000040: 4073 82bd bb86 153f f8fb 063c aff5 8f3d
00000050: 5e12 aebe 2fdb 13be fdb2 a53d c78f 933d
00000060: eac5 05be 09f5 83be a759 633d 090d 5dbd
00000070: 74bb 60bc 8926 e33d 33ec 51be c99d e4bd
0.13776793 -0.19308269 -0.25627625 -0.10055293 0.08073723 -0.017624244 -0.04848598 -0.0070700888
-0.14842756 0.12218351 -0.13904576 -0.4464809 -0.15053414 0.23734476 0.68804383 0.034840547
-0.063696384 0.5840871 0.008238785 0.07029282 -0.33998388 -0.1443908 0.0809078 0.07205158
-0.1306378 -0.25772884 0.05550542 -0.05396751 -0.013716567 0.110913344 -0.20500259 -0.11162908

transformer.layers.0.norm1.weight f4 [32]
00000000: 41b2 9a3f e6b0 13bf 6fae a23f e570 0abe
00000010: 3421 2e3f bee3 653f 565d 893f 99e4 8abe
00000020: 4919 d4be f797 943f 80a3 d2be aa9b 8f3f
00000030: 92a3 31bf bcf5 1e3f a683 dc3e c335 dabd
00000040: 4255 183f cad5 5b3f eb93 903f a1df 7c3f
00000050: 1198 a73f 87f0 d43f 663f 713f 53a5 d43f
00000060: dc49 85be 8c77 993f 5658 213f 5e43 e63d
00000070: 3529 8b3f 4f4d 743e 83f3 25bf 42ca 03bf
1.2085649 -0.576918 1.2709483 -0.13519628 0.68019414 0.8980063 1.0731609 -0.2712753
-0.4142554 1.1608876 -0.41140366 1.121938 -0.69390213 0.6209371 0.4306919 -0.106547855
0.59505093 0.8587309 1.1295141 0.9877873 1.3093282 1.6635903 0.94237363 1.6612953
-0.26032913 1.1989608 0.63025415 0.11243318 1.087195 0.23857616 -0.64824694 -0.51480496
