models/model_epoch_1.pth (torch, 581156 bytes, 18 tensors)

conv1.weight f4 [16, 8, 3]
0	0x3dc75b25	0.09734181
1	0xbe158544	-0.14601618
2	0x3a89e365	0.0010520039
3	0x3e54f567	0.20796739
4	0x3d2c1e39	0.04202101
5	0xbd55a633	-0.052160453
6	0x3e281e48	0.16417801
7	0xbd9f9c37	-0.077934675
8	0x3e44a8dd	0.19205041
9	0x3d0003a6	0.03125348
10	0x3e2f8e17	0.17144047
11	0xbe07b667	-0.13253175
12	0xbe306d08	-0.17229092
13	0x3dbbf68d	0.09177885
14	0xbd785597	-0.0606285
15	0xbe184ca8	-0.14872992
16	0x3e316379	0.17323102
17	0xbd31c806	-0.043403648
18	0xbe363524	-0.17793709
19	0x3e2ec540	0.17067432
20	0x3db4ba22	0.088245645
21	0x3da5cf80	0.08096218
22	0xbd943076	-0.07235806
23	0x3e12feec	0.14355057
24	0x3e4dca46	0.20096692
25	0x3e44dd90	0.19225144
26	0x3d74cc9e	0.05976545
27	0x3df238bf	0.1182723
28	0xbdfa554d	-0.12223301
29	0x3da2aff0	0.07943714
30	0x3dd8cadf	0.105855696
31	0xbe03d91f	-0.12875794
32	0x3d80606f	0.06268393
33	0xbd3757d3	-0.04476149
34	0x3e1f4fc5	0.15557773
35	0xbe05433d	-0.1301393
36	0x3ddcea4b	0.10786875
37	0x3d91ec82	0.071251884
38	0xbc86aede	-0.016440805
39	0xbdf2f9e9	-0.11864073
40	0x3bf9f0c2	0.0076275775
41	0xbe1e876c	-0.15481347
42	0x3da7be7e	0.081906304
43	0xbe0be430	-0.13661265
44	0xbc631007	-0.013858802
45	0xbd1dabb7	-0.03849384
46	0x3e03a8a3	0.12857299
47	0xbdb09c5a	-0.08623572
48	0xbdd7ccb7	-0.10537093
49	0x3b86beb3	0.0041120886
50	0xbdcb090a	-0.099138334
51	0xbdf0351d	-0.117288806
52	0xbe39e4d3	-0.18153696
53	0x3e2e91f9	0.17047872
54	0x3c9795a2	0.018503968
55	0x3db295bf	0.08719968
56	0xbdba52f9	-0.09097857
57	0x3dae5ed1	0.085141785
58	0xbe1e29f4	-0.15445691
59	0x3d0de418	0.034641355
60	0x3cddc48b	0.027071258
61	0x3e351eb4	0.17687494
62	0xbb58fd5e	-0.0033110003
63	0xbbef6dbc	-0.0073067825
64	0x3dc7d014	0.09756485
65	0xbe485687	-0.19564258
66	0xbd7ffe34	-0.062498286
67	0xbddd1d69	-0.10796625
68	0x3da5004e	0.08056699
69	0xbd1ae5ac	-0.03781669
70	0xbd86af53	-0.06576409
71	0x39f8e215	0.0004747069
72	0x3e3bb8e1	0.18332244
73	0xb9c39a1b	-0.00037308116
74	0xbe051ae4	-0.12998539
75	0x3e2420fe	0.1602821
76	0x3e34f254	0.17670566
77	0x3d91bf0a	0.07116516
78	0x3db8f948	0.090319216
79	0x3e2a003c	0.16601652
80	0x3e0feac2	0.14054397
81	0xbde25c90	-0.11052811
82	0x3c4bf6db	0.012448992
83	0xbdc6af32	-0.097013846
84	0xbc824841	-0.015903594
85	0x3cf8414a	0.03030457
86	0x3dcd6c9c	0.10030481
87	0x3ce32844	0.027729161
88	0x3e1efbb9	0.15525712
89	0xbd9693b6	-0.073523924
90	0xbe4e3d9d	-0.20140691
91	0x3e384f8a	0.17999092
92	0x3c1de3a5	0.009636794
93	0xbdd27889	-0.102768965
94	0xbc951c71	-0.018202038
95	0x3db4ccab	0.088281
96	0xbd7cb5fc	-0.06169699
97	0x3e3c72f5	0.18403228
98	0xbe1a185a	-0.15048352
99	0xbda7f29f	-0.08200573
100	0x3e25e26f	0.16199659
101	0x3d855d1e	0.06511901
102	0x3c945783	0.018108135
103	0x3e430989	0.19046606
104	0xbdcb33eb	-0.09922012
105	0x3e0f7ae9	0.1401173
106	0xbd255c22	-0.040371068
107	0x3c8dc5e3	0.017306274
108	0x3dc04008	0.09387213
109	0x3d0a5031	0.033767883
110	0x3c6c4407	0.014420516
111	0xbe0430b7	-0.12909208
112	0xbd9690f1	-0.07351864
113	0xbde27782	-0.110579506
114	0x3dbacc99	0.09121055
115	0x3d904b20	0.07045579
116	0x3e15342c	0.14570683
117	0xbe242dd7	-0.16033112
118	0xbdb8f8c9	-0.09031827
119	0x3da57994	0.0807983
120	0x3debcf49	0.11514146
121	0xbc9c765c	-0.019099407
122	0x3ce32dd2	0.02773181
123	0xbdc31c02	-0.095268264
124	0xbd0d0b73	-0.034434747
125	0xbe17af43	-0.14812951
126	0x3e0392d9	0.12848987
127	0x3e0c6b2f	0.13712762
128	0xbdb8469e	-0.08997844
129	0x3dae4583	0.08509352
130	0xbdbe7ae5	-0.09300784
131	0xbcb16f8f	-0.02165964
132	0x3e74aad3	0.2389329
133	0xbdd05494	-0.10172382
134	0x3dfc3df1	0.12316502
135	0xbe2a4912	-0.16629437
136	0x3b1cc85a	0.002392313
137	0xbdcd0d6e	-0.10012327
138	0x3e353e2d	0.176995
139	0xbe2ebf28	-0.17065108
140	0xbe047ee6	-0.12939033
141	0xbdd52d4a	-0.10409029
142	0xbcf07f1d	-0.029357487
143	0xbe29aae9	-0.16569103
144	0x3dc77906	0.0973988
145	0x3e500db7	0.20317732
146	0x3c700406	0.014649397
147	0xbcda0fed	-0.026618922
148	0x3cb80160	0.022461593
149	0xbc663a4c	-0.014051985
150	0xbe2839f9	-0.16428365
151	0xbd2741b2	-0.040834136
152	0xbcc45451	-0.023965986
153	0xbdb6fc0e	-0.08934794
154	0x3e4693fe	0.19392392
155	0x3de44db8	0.11147636
156	0x3d765730	0.060141742
157	0x3e0caa92	0.13736942
158	0x3de886ee	0.11353861
159	0xbdd2a7ba	-0.102858976
160	0x3e3452b4	0.17609674
161	0xbdf3a25a	-0.118962005
162	0xbdccab43	-0.09993603
163	0x3e479c22	0.19493154
164	0x3de487cb	0.11158713
165	0x3e47ec28	0.1952368
166	0x3c41a134	0.011818219
167	0xbd74d170	-0.059770048
168	0x3e06df82	0.13171199
169	0xbda0fb8e	-0.0786048
170	0xbe09a265	-0.13440855
171	0xbacc7b57	-0.0015600723
172	0x3e26befa	0.1628379
173	0x3c3dc855	0.011583407
174	0xbd73ba5b	-0.059503894
175	0xbe0ebe44	-0.13939768
176	0xbe2771b4	-0.16351968
177	0x3e149ebd	0.14513679
178	0x3d61873a	0.055060603
179	0xbce19e10	-0.02754119
180	0xbd21adb2	-0.03947229
181	0xbe3b4e7e	-0.18291661
182	0x3e04504a	0.12921253
183	0x3e3d2eb6	0.1847485
184	0x3dba8d14	0.0910894
185	0x3dc59e60	0.09649348
186	0xbdf25053	-0.11831727
187	0x3e0d88e9	0.13821758
188	0xbd85f7bd	-0.06541393
189	0xbb3dd440	-0.0028965622
190	0x3dfb7f5f	0.122801535
191	0x3d2ea1b6	0.04263469
192	0xbd920854	-0.07130495
193	0x3bd13208	0.006384138
194	0xbd0962cc	-0.033541486
195	0x3d99400a	0.074829176
196	0x3dc7f6dd	0.09763882
197	0xbdd7c527	-0.10535651
198	0x3e16adbf	0.14714716
199	0x3d67c245	0.056581754
200	0xbe224609	-0.15847029
201	0xbe2928c1	-0.16519453
202	0x397a1203	0.00023848568
203	0xbd9c66c2	-0.07636787
204	0x3da1cd91	0.07900537
205	0xbba6f3fa	-0.0050950022
206	0x3e4cf40d	0.20014973
207	0xbe379440	-0.17927647
208	0xbe56407d	-0.20923038
209	0xbdf853bc	-0.12125346
210	0xbe14fc7b	-0.14549439
211	0x3d3cda9f	0.04610693
212	0x3e47ac60	0.1949935
213	0x39b1d7e8	0.00033920933
214	0xbdd51554	-0.10404459
215	0x3d6cd515	0.0578204
216	0xbddc8a92	-0.10768618
217	0x3d6a7d51	0.057248417
218	0x3e440232	0.19141462
219	0xbd33a8d2	-0.04386217
220	0x3dd52385	0.104071654
221	0xbdfecbc5	-0.1244121
222	0x3d482fb7	0.04887363
223	0x3d91ffb8	0.071288526
224	0xbe44da15	-0.19223817
225	0xbda16a0d	-0.07881556
226	0x3e09fc57	0.13475166
227	0x3e0dfdba	0.1386632
228	0xbd491ce2	-0.04909981
229	0x3dd30b39	0.10304875
230	0xbde5dc59	-0.112236686
231	0xbdbca2af	-0.09210717
232	0xbd8b20f6	-0.06793396
233	0x3e1396ff	0.14413069
234	0x3dccf549	0.10007722
235	0xbdace8b1	-0.0844282
236	0xbdb2ab59	-0.08724088
237	0x3dfded74	0.12398806
238	0xbe100043	-0.140626
239	0x3dc967bf	0.09834241
240	0x3e02f47b	0.12788574
241	0x3dc38d26	0.09548406
242	0xbe222a3f	-0.15836428
243	0xbd21694d	-0.039407063
244	0xbd04e44b	-0.03244428
245	0x3e4eca8d	0.20194454
246	0xbe040708	-0.12893307
247	0xbe3f8312	-0.18702343
248	0xbe0100d2	-0.12597969
249	0xbd6a1642	-0.057150133
250	0xbde47cb7	-0.111566
251	0xbd837668	-0.064190686
252	0xbd99ef6a	-0.07516368
253	0xbcd7f751	-0.026363047
254	0xbd53fa7a	-0.051752545
255	0x3dd521e4	0.10406855

conv1.bias f4 [16]
0	0x3d03048f	0.03198677
1	0x3e502bb3	0.2032917
2	0xbd4664e7	-0.04843607
3	0x3e1bd80a	0.15219131
4	0xbe50bad6	-0.20383772
5	0xbd45b29b	-0.048266035
6	0xbddb147d	-0.10697267
7	0x3c1abfea	0.00944517
8	0xbe0d067e	-0.13772008
9	0x3e212ccd	0.15739746
10	0xbd0ce07c	-0.034393772
11	0xbdf96298	-0.121770084
12	0xbd8478d4	-0.06468359
13	0x3d0351ff	0.03206062
14	0x3e0f1c0b	0.13975541
15	0x3e0ca091	0.13733126

conv2.weight f4 [32, 16, 3]
0	0x3dc8d7f0	0.09806812
1	0x3d9f22af	0.07770287
2	0xbd7daece	-0.061934285
3	0xbd183d13	-0.03716762
4	0x3e0278e8	0.12741435
5	0xbbda3947	-0.00665966
6	0x3cef0f7d	0.02918219
7	0x3db6063d	0.088879086
8	0x3ca442ef	0.020051448
9	0xbdb0b6db	-0.08628627
10	0xbdbafa30	-0.09129751
11	0xbdfc0174	-0.12304965
12	0xbd1d18d9	-0.038353775
13	0xbe127724	-0.14303261
14	0x3b7b166d	0.0038312927
15	0x3dd99bb2	0.106254
16	0xbdcef367	-0.10105019
17	0xbc46f64f	-0.0121436855
18	0xbdae25f3	-0.08503332
19	0xbce90ea7	-0.02844937
20	0xbd19875f	-0.037482616
21	0x3e00aff9	0.12567128
22	0xbc61a339	-0.0137718255
23	0xbc1099e6	-0.008825755
24	0xbdfee600	-0.12446213
25	0xbd420f0b	-0.047377627
26	0x3c57b52e	0.013165755
27	0x3c82918d	0.015938545
28	0x3d90d1b8	0.07071251
29	0xbd6c2601	-0.05765343
30	0xbd5ed84e	-0.054405503
31	0xbde3e488	-0.11127573
32	0xbd901a77	-0.07036298
33	0x3cef4475	0.029207448
34	0xbdb9d755	-0.090742745
35	0xbe07cf4d	-0.13262673
36	0x3d98cf40	0.07461405
37	0xbd33ebfa	-0.043926217
38	0x3deee692	0.116650715
39	0xbb29b757	-0.0025896633
40	0x3d65656f	0.056004938
41	0x3daeb359	0.085303016
42	0xbd8f45df	-0.06995749
43	0x3e12c8f0	0.14334464
44	0xbd9ff82b	-0.07811006
45	0xbca5e18e	-0.020249154
46	0x3df82638	0.12116665
47	0xbc8d1ee6	-0.017226648
48	0xbe0d3eb3	-0.13793449
49	0x3d91cbd1	0.07118953
50	0x3e282183	0.16419034
51	0x3dd8d00e	0.10586558
52	0x3d48d019	0.049026582
53	0x3d8e91a8	0.069613755
54	0xbdb0955e	-0.086222395
55	0xbd43312b	-0.047654312
56	0x3d4dd43b	0.050251227
57	0x3d8c52be	0.06851719
58	0xbe0f95d3	-0.14021997
59	0x3c12e702	0.008966209
60	0xbdcb3703	-0.09922602
61	0x3ddc0971	0.10743988
62	0xbd3cb30a	-0.046069182
63	0xbdc2db62	-0.095145
64	0x3dd1e292	0.10248293
65	0x3d83c65f	0.06434321
66	0xbdac010b	-0.083986364
67	0x3c8f15aa	0.017466385
68	0xbd9c49c7	-0.076312594
69	0xbcdf5c31	-0.02726564
70	0x3d8e6537	0.06952899
71	0x3e014a36	0.12625965
72	0xbc32d26a	-0.010914424
73	0xbd51ee77	-0.05125281
74	0xbde9ebea	-0.1142195
75	0xbdda7282	-0.10666372
76	0xbda11889	-0.07866008
77	0x3e124dd9	0.14287509
78	0x3d942af1	0.07234753
79	0xbd1ab2bb	-0.037768107
80	0x3e076664	0.13222653
81	0xbd96f10d	-0.073701955
82	0xbd9fa151	-0.077944405
83	0xbd9788c7	-0.07399135
84	0xbcb46efb	-0.022025576
85	0xbd92832c	-0.07153925
86	0x3df6d98f	0.12053215
87	0xbcc5c488	-0.024141565
88	0x3d29b978	0.041436642
89	0x3dc8f368	0.09812051
90	0xbd39bbea	-0.045345224
91	0xbb897458	-0.0041947775
92	0xbd4f8a15	-0.050668795
93	0xbd4c01a5	-0.049806256
94	0xbdd2cc25	-0.10292844
95	0x3de213ac	0.11038908
96	0xbd99ee21	-0.075161226
97	0xbca0655e	-0.019579586
98	0x3ca7e6dc	0.020495825
99	0x3d21d52d	0.03950994
100	0x3d30518d	0.043046523
101	0xbd1f9a89	-0.038965736
102	0xbdea23af	-0.11432587
103	0x3c0cfa99	0.008604669
104	0xbdbd3901	-0.09239388
105	0xbd30eb5c	-0.043193206
106	0xbdb6d61c	-0.08927557
107	0x3dd56f46	0.10421614
108	0x3d6a5c6f	0.057217058
109	0x3c72e533	0.014825153
110	0x3e0b42d4	0.13599712
111	0x3df59805	0.11991886
112	0xbca170e6	-0.019707154
113	0xbcf92c94	-0.030416764
114	0x3c57ab11	0.013163344
115	0x3be7eb18	0.007077586
116	0x3d0b3189	0.033982787
117	0x3cde5de8	0.027144387
118	0x3c197d16	0.009368202
119	0x3cad7206	0.021172535
120	0xbc924fa2	-0.017860238
121	0x3d59266c	0.053015158
122	0xbce07a3c	-0.027402036
123	0x3c63b0ec	0.013897162
124	0xbdd4f4bb	-0.10398241
125	0xbcf924e5	-0.0304131
126	0xbde7ee69	-0.1132477
127	0xbdcb56c6	-0.0992866
128	0xbb9a9b18	-0.0047181956
129	0xbdb2086f	-0.08693015
130	0xbd6384eb	-0.055546682
131	0x3dd785e9	0.10523588
132	0x3a40e4c5	0.0007358308
133	0xbd6f5616	-0.058431707
134	0x3d941e0c	0.072322935
135	0x3ccdf28b	0.025140068
136	0x3d6f1ad2	0.058375187
137	0xbd8d73f1	-0.0690688
138	0xbd61dc0a	-0.055141486
139	0x3c8cdad8	0.017194197
140	0x3ddec4f6	0.10877411
141	0x3e120130	0.14258265
142	0xbd47a654	-0.048742607
143	0x3dcaafe7	0.09896832
144	0xbec111f0	-0.37708998
145	0x3e9d4b5d	0.3072156
146	0xbc05b931	-0.008161829
147	0xbde2942c	-0.11063418
148	0x3cc5877a	0.024112452
149	0x3debd219	0.11514682
150	0x3e3b29a6	0.18277606
151	0xbe2c21d7	-0.16809784
152	0x3db6adc0	0.08919859
153	0xbe046384	-0.12928587
154	0xbd9c4871	-0.076310046
155	0x3d98d65a	0.07462759
156	0x3b1ae7e1	0.0023636746
157	0xbdb76f43	-0.08956768
158	0xbbc31438	-0.005953338
159	0xbe1d0c27	-0.15336667
160	0xbdbdbcbc	-0.09264514
161	0xbd95a12e	-0.07306133
162	0xbe06ecd0	-0.13176274
163	0xbd0b9b4c	-0.03408365
164	0xbdf7f023	-0.12106349
165	0xbd69d394	-0.057086542
166	0xbdacc0fe	-0.08435248
167	0xbc0201d5	-0.007935007
168	0xbc1295e4	-0.0089468695
169	0x3d7d7be1	0.06188572
170	0x3e0f5032	0.13995436
171	0xbdeadc3a	-0.11467786
172	0xbdc8e7ec	-0.098098606
173	0xbc8e4eb1	-0.017371507
174	0x3dd930d5	0.10605017
175	0xbda43366	-0.08017616
176	0xbe463ec4	-0.1935988
177	0xbcf73733	-0.030177688
178	0x3db2ee88	0.087369025
179	0x3bcaf25e	0.006193443
180	0x3dc66c50	0.09688628
181	0xbdce677e	-0.10078333
182	0x3e0d890a	0.13821808
183	0x3db5d794	0.08879009
184	0x3d84ecea	0.064905
185	0x3c818a59	0.01581304
186	0x3ddee33a	0.10883184
187	0xbd337743	-0.04381491
188	0x3df91f18	0.12164134
189	0xbdd4afd9	-0.10385103
190	0x3db871cc	0.0900608
191	0x3d4525d5	0.048131783
192	0xbd11c280	-0.03558588
193	0xbc62cde5	-0.013843034
194	0x3b2bb6e6	0.0026201545
195	0xbe0597f1	-0.13046242
196	0x3d8b52e7	0.06802922
197	0x3da20d63	0.079127096
198	0x3db30b3f	0.087423794
199	0x3d2e4ad4	0.04255183
200	0x3dc408c3	0.09571984
201	0x3c366680	0.011132836
202	0x3dea3bae	0.11437164
203	0x3d215eed	0.03939717
204	0xb9aaa4a1	-0.00032547585
205	0x3e126e03	0.14299779
206	0xbda8c268	-0.08240205
207	0x3e071ae7	0.13193856
208	0x3da9c256	0.0828902
209	0xbdff9c78	-0.12481016
210	0x3db51088	0.08841044
211	0xbad8a976	-0.0016529995
212	0xbcdc5535	-0.026896099
213	0xbe124bca	-0.14286724
214	0x3c473971	0.012159691
215	0xbbe980bf	-0.0071259434
216	0x3c9c0b9c	0.019048505
217	0xbd9c22fd	-0.07623861
218	0xbd20e8b2	-0.039284416
219	0xbcddfe51	-0.027098807
220	0x3d861d02	0.065485016
221	0x3e031bb4	0.12803537
222	0x3c3f4aa7	0.011675513
223	0xbdbbbe8b	-0.091672026
224	0x3c4f4e9d	0.01265302
225	0xbe180979	-0.14847364
226	0xbd5f3d0e	-0.054501586
227	0x3d75b57a	0.059987523
228	0x3d743046	0.05961635
229	0x3d4e79c0	0.05040908
230	0x3d59be72	0.05316014
231	0xbd8dbe70	-0.06921089
232	0x3c1ffeac	0.009765308
233	0x3b04ef9f	0.0020284427
234	0xbd4a6995	-0.049417097
235	0x3a63fa07	0.000869662
236	0xbd9abeb1	-0.07555903
237	0xbcfb090a	-0.030643959
238	0xbde84f76	-0.11343281
239	0xbdc49918	-0.09599513
240	0xbe28eb79	-0.16496076
241	0x3b9972cc	0.0046828743
242	0x3db73130	0.08944929
243	0x3df33937	0.11876147
244	0xbdac16b2	-0.08402766
245	0xbc532036	-0.012886098
246	0xbde1bb75	-0.11022083
247	0x3d864cfc	0.06557652
248	0x3da1195b	0.07866164
249	0x3ab86b16	0.001407
250	0x3d276032	0.040863223
251	0xbcf4e910	-0.02989629
252	0x3dc28985	0.09498886
253	0x3dad8966	0.08473472
254	0xbc783ca8	-0.01515118
255	0x3c0a66c0	0.008447349

conv2.bias f4 [32]
0	0xbd862d0f	-0.06551563
1	0xbdf30e97	-0.11868017
2	0xbe10ea79	-0.14151944
3	0x3e0614be	0.1309385
4	0x3d85a44f	0.0652548
5	0xbe143269	-0.14472355
6	0xbe31ca43	-0.17362313
7	0x3ac7e420	0.0015250482
8	0x3de0dc56	0.10979526
9	0xbd92b586	-0.07163529
10	0xbd42b141	-0.047532324
11	0x3cfc2c3d	0.030782813
12	0xbd998ded	-0.07497773
13	0x3de5c655	0.112194695
14	0xbdac5c18	-0.08416003
15	0xbd7f6c83	-0.062359344
16	0xbdb2d0d1	-0.08731235
17	0xbe2f1e84	-0.17101485
18	0x3db92d41	0.090418346
19	0x3d486bd6	0.048930965
20	0x3d9a3cdb	0.075311385
21	0xbce1510d	-0.027504468
22	0xbe2052bb	-0.15656559
23	0x3d9471b7	0.07248252
24	0x3dc3b64a	0.09556253
25	0xbd83c1a7	-0.06433421
26	0x3cb032e0	0.021508634
27	0x3d81ef02	0.06344415
28	0x3bad9a37	0.005297925
29	0xbe072198	-0.13196409
30	0x3d066cd6	0.032818638
31	0x3dab494d	0.083635904

transformer.layers.0.self_attn.in_proj_weight f4 [96, 32]
0	0xbb2a2ff3	-0.0025968521
1	0xbda3fa67	-0.08006745
2	0x3dcfcea7	0.10146838
3	0xbecd1d09	-0.40061215
4	0xbddc1fa2	-0.10748221
5	0xbde5bf08	-0.11218077
6	0x3d784743	0.060614835
7	0xbd293739	-0.04131243
8	0x3daab413	0.08335128
9	0x3da5e966	0.08101158
10	0x3e5d19be	0.21591851
11	0x3e3cdfa3	0.18444686
12	0x3e07ba16	0.1325458
13	0x3d08f644	0.033437982
14	0x3e5e699d	0.21719976
15	0x3e2aa15a	0.16663113
16	0x3d885589	0.066569395
17	0x3e4213b3	0.18952827
18	0xbd95bbf6	-0.07311241
19	0x3dbf4a9b	0.09340402
20	0x3e4510a4	0.19244629
21	0x3e5f85b3	0.21828346
22	0xbc8acc93	-0.016943252
23	0xbdab2dcf	-0.08358347
24	0x3e3b46c9	0.18288721
25	0xbe2cc1e8	-0.16870844
26	0x3e6eebea	0.23332182
27	0x3e0400a2	0.12890866
28	0xbcd10df4	-0.025519349
29	0x3ab86943	0.0014069456
30	0x3de7d570	0.11320007
31	0x3c72095b	0.014772738
32	0x3e52a537	0.20570837
33	0xbd30e734	-0.043189242
34	0xbdf53363	-0.11972692
35	0xbde0845a	-0.10962744
36	0x3db0a0fc	0.08624455
37	0xbe44b121	-0.19208194
38	0xbe0f8503	-0.14015584
39	0xbcd41302	-0.02588797
40	0x3d6a6844	0.05722834
41	0x3e2eb719	0.17062034
42	0x3d18ece4	0.03733529
43	0xbc0268f4	-0.007959593
44	0xbe888b99	-0.26669005
45	0xbd476e8b	-0.048689406
46	0x3e2d3d90	0.16918015
47	0x3d3d0ad6	0.046152912
48	0x397d343c	0.00024147419
49	0x3cffe00e	0.031234767
50	0xbd1fa3d2	-0.03897459
51	0x3e01976b	0.12655418
52	0x3e604f58	0.21905267
53	0x3d8cbae3	0.06871583
54	0x3def6c32	0.116905585
55	0xbe28ee9f	-0.16497277
56	0xbe5c8721	-0.21535923
57	0xbc419f03	-0.0118176965
58	0x3e3903ee	0.18067905
59	0xbdf5ecfa	-0.1200809
60	0x3e0c536c	0.13703698
61	0x3d93e320	0.07221055
62	0xbd284e8b	-0.04109053
63	0x3e0c1638	0.13680351
64	0xbe88f92b	-0.267526
65	0xbd7b715d	-0.06138741
66	0x3e1b2d52	0.15154007
67	0x3e891248	0.2677176
68	0xbdcc7d9d	-0.09984896
69	0x3e075153	0.13214616
70	0xbe1dd12e	-0.15411827
71	0xbd3fd7ed	-0.046836782
72	0xbe1537b8	-0.14572036
73	0xbd77af73	-0.060470056
74	0xbe832e52	-0.25621277
75	0xbe337b3f	-0.17527483
76	0xbdc1c079	-0.09460539
77	0xbe002ae1	-0.12516357
78	0xbe826b94	-0.254727
79	0x3e381356	0.17976126
80	0xbe069971	-0.13144471
81	0xbd8bd9d8	-0.0682866
82	0x3e1a91a9	0.15094627
83	0xbbaec504	-0.0053335447
84	0x3d913f0a	0.07092102
85	0xbe03eba1	-0.12882854
86	0xbe85e3d7	-0.2615039
87	0xbe2032c2	-0.15644363
88	0xbe0ad9ac	-0.13559598
89	0xbdd871e1	-0.10568596
90	0x3da521bb	0.08063074
91	0x3e070b15	0.13187821
92	0x3e18c003	0.14916997
93	0x3d2b9f3e	0.041899912
94	0x3de1f14d	0.110323526
95	0xbe03fc9b	-0.1288933
96	0xbdc70d71	-0.097193606
97	0xbd6615b4	-0.05617304
98	0x3e35bc42	0.17747596
99	0x3f29b3db	0.6629006
100	0xbd74bb68	-0.059749037
101	0x3e4c6c2a	0.19963136
102	0xbc060605	-0.008180146
103	0x3da545ee	0.08069979
104	0x3dba281a	0.0908968
105	0xbd69196d	-0.056909014
106	0x3dba9de8	0.091121495
107	0x3cd53856	0.02602784
108	0xbd15e65a	-0.036596633
109	0xbdcee007	-0.101013236
110	0xbd48177c	-0.04885052
111	0x3d9282bb	0.07153841
112	0x3cb5a2fc	0.022172444
113	0xbe1bc6f8	-0.1521262
114	0x3de9d039	0.114166684
115	0x3e57bb74	0.21067601
116	0xbe358445	-0.17726238
117	0xbe54e1a4	-0.207892
118	0xbe703a0e	-0.23459646
119	0xbe37d789	-0.17953314
120	0x3e4e87e1	0.20169021
121	0x3a3b926c	0.00071553024
122	0xbdc6c7d9	-0.09706087
123	0x3d0ad874	0.033897832
124	0x3dd392aa	0.10330708
125	0x3e42e99e	0.1903443
126	0xbe6f5ac8	-0.23374474
127	0x3e3db025	0.18524225
128	0xbd916b6f	-0.071005695
129	0xbe21685f	-0.1576247
130	0xbda27ea3	-0.0793431
131	0xbeeaa383	-0.45827875
132	0xbd085cd8	-0.033291668
133	0x3ab79c69	0.0014008406
134	0x3dfdce4e	0.12392865
135	0xbcfaa9aa	-0.03059848
136	0x3d051f60	0.032500625
137	0xbe2235c9	-0.1584083
138	0x3e010de7	0.1260296
139	0x3dae6ccf	0.08516847
140	0xbc1236b3	-0.008924174
141	0x3be44607	0.0069663557
142	0xbda99f1e	-0.08282302
143	0x3d9a03a5	0.075202264
144	0xbdb8131f	-0.08988022
145	0x3d6edb01	0.058314327
146	0xbda13cd0	-0.07872927
147	0x3d7a6a41	0.061136488
148	0x3dc24c47	0.09487205
149	0x3e159d25	0.14610727
150	0xbcb91c49	-0.022596495
151	0xbd9175a5	-0.07102517
152	0x3e3a2121	0.181767
153	0x3d3aa819	0.045570467
154	0xbd324f2e	-0.043532543
155	0x3e6250f6	0.22101197
156	0xbdd36836	-0.10322611
157	0xbe3b4a59	-0.1829008
158	0x3e11a174	0.14221746
159	0x3e0297bf	0.12753199
160	0x3b793543	0.0038026131
161	0xbd846b82	-0.06465818
162	0x3addbba2	0.0016916881
163	0x3e8334b4	0.25626147
164	0xbd6a105e	-0.057144515
165	0xbe06d21b	-0.13166086
166	0x3dfdb74b	0.12388476
167	0x3e2b7ea8	0.16747534
168	0xbda79ddb	-0.081844054
169	0xbd3151a7	-0.04329076
170	0xbe052453	-0.13002138
171	0x3d84b5b0	0.06479967
172	0x3c11b000	0.008892059
173	0x3c8b7e5b	0.017028024
174	0xbda894a6	-0.082314774
175	0xbc8e1166	-0.01734228
176	0x3e28578e	0.1643965
177	0xbdad9556	-0.08475749
178	0x3e5a753e	0.21333787
179	0xbd3afbb6	-0.045650207
180	0x3def614e	0.11688481
181	0x3e124f0f	0.14287971
182	0xbd8c072e	-0.06837307
183	0xbe4235bb	-0.18965809
184	0xbde02d99	-0.10946197
185	0x3d22f51b	0.039784532
186	0x3dae19e8	0.08501035
187	0xbe2a08c6	-0.1660491
188	0xbe2026e0	-0.1563983
189	0xbe5d09a6	-0.21585712
190	0x3e1f2209	0.15540327
191	0xbdcd1e5a	-0.10015555
192	0xbdb9c9ea	-0.09071715
193	0xbd813348	-0.06308609
194	0xbc74d419	-0.014943146
195	0x3e9fdf48	0.31225038
196	0xbe9f8579	-0.3115652
197	0x3e1173f5	0.1420439
198	0xbe3ca87a	-0.18423644
199	0x3d2708e1	0.040779952
200	0x3c973c4e	0.018461373
201	0xbda0f4a1	-0.07859159
202	0x3d8653a9	0.06558926
203	0xbd0d44e5	-0.03448953
204	0xbe30a2c1	-0.17249586
205	0x3dcb5d3c	0.099298924
206	0x3dc0205c	0.09381172
207	0xbe29ddf9	-0.16588582
208	0xbd9636ea	-0.07334693
209	0xbd92cb01	-0.07167626
210	0xbd367fb7	-0.044555392
211	0xbe7b3934	-0.2453354
212	0x3e495bb6	0.19663891
213	0xbcc2e8bc	-0.023792617
214	0x3d37183d	0.04470085
215	0x3d63381a	0.055473424
216	0xbe3107ea	-0.17288175
217	0xbd97ab32	-0.074057
218	0xbdde70dd	-0.10861371
219	0xbe295a38	-0.16538322
220	0x3de62858	0.11238164
221	0x3db60c55	0.08889071
222	0xbd50f6e5	-0.051016707
223	0xbd17125d	-0.036882747
224	0x3d775dfa	0.060392357
225	0xbc004779	-0.00782954
226	0x3d7af49b	0.06126843
227	0x3e96e4f1	0.29471543
228	0xbe56eb21	-0.20988132
229	0xbe37bd15	-0.17943223
230	0x3d0c5264	0.03425826
231	0xbe73940c	-0.23786944
232	0x3d91f0dc	0.071260184
233	0xbda1b635	-0.07896081
234	0xbd932394	-0.0718452
235	0x3e47cf79	0.19512738
236	0x3d902412	0.0703813
237	0xbe8fb843	-0.28070268
238	0x3dfa6143	0.122255825
239	0xbd6f43cf	-0.058414277
240	0x3ca5bd7b	0.020231953
241	0xbe4d07de	-0.20022532
242	0x3da0884a	0.07838495
243	0xbeb500e4	-0.35352242
244	0x3e000c72	0.12504748
245	0x3e60a7ac	0.21938962
246	0xbe1825ff	-0.14858244
247	0xbdf19a3d	-0.11796997
248	0xbe103f3a	-0.14086619
249	0x3e746fa7	0.23870717
250	0xbe6e8d48	-0.23296082
251	0x3d13d984	0.03609611
252	0x3df8dfa5	0.12152032
253	0xbb9fc716	-0.004876028
254	0x3e316e83	0.17327313
255	0xbe3ebad0	-0.18625951

transformer.layers.0.self_attn.in_proj_bias f4 [96]
0	0x3c46a9eb	0.012125473
1	0xbda75125	-0.08169774
2	0x3bb2584b	0.0054426542
3	0x3cfbc1b0	0.030732006
4	0x3c96bb16	0.018399756
5	0xbd78ad02	-0.060711868
6	0x3c9089b4	0.017643787
7	0xbd1a881c	-0.03772746
8	0xbe0fa189	-0.14026465
9	0xbe9949d4	-0.2993914
10	0xbdfab0b2	-0.12240733
11	0xbe49a818	-0.19693029
12	0xbc8e8813	-0.01739887
13	0x3dae4beb	0.08510574
14	0x3beadf98	0.0071677677
15	0x3cf8b85f	0.030361352
16	0x3cd6a357	0.026200933
17	0x3d35e4c8	0.044407636
18	0xbd891eda	-0.066953376
19	0x3aa2b0c9	0.0012412305
20	0xbd9dd64f	-0.07706892
21	0x3d8ea465	0.069649495
22	0x3d8242fe	0.06360434
23	0xbd871680	-0.065960884
24	0xbd1e52d0	-0.038653195
25	0xbb12c55c	-0.0022395467
26	0xbe0f6f74	-0.1400736
27	0x3e70bf6b	0.2351052
28	0xbd5efb5c	-0.054438934
29	0xbe2d8f20	-0.16949129
30	0x3ce0c1a1	0.02743608
31	0xbc8f0662	-0.017459098
32	0x3d1f2493	0.03885324
33	0x3dcbf0f7	0.0995807
34	0xbda0cbf4	-0.07851401
35	0xbe05fd80	-0.13084984
36	0xbd8633bf	-0.065528385
37	0x3c41bdf3	0.011825073
38	0x3dc3eeac	0.095670074
39	0x3d4df393	0.05028112
40	0x3e197cd8	0.1498903
41	0x3d6a06c4	0.05713536
42	0x3dc25c46	0.09490256
43	0xbe18b5a6	-0.14913043
44	0xbc611c4e	-0.0137396585
45	0x3e1f51be	0.15558526
46	0xbd383737	-0.044974532
47	0xbd045038	-0.032303065
48	0x3b91f551	0.004454293
49	0x3d2fee54	0.042951897
50	0xbdee166d	-0.11625371
51	0xbe32872a	-0.17434373
52	0x3de6a382	0.112616554
53	0xbdc2efc2	-0.095183864
54	0xbdd32204	-0.10309222
55	0x3de2a522	0.11066653
56	0x3d4c35c7	0.049855974
57	0xbde71fff	-0.112854
58	0xbe56a194	-0.20960075
59	0x3ecdcb79	0.401943
60	0xbd542f3f	-0.05180287
61	0xbeb84bcc	-0.35995328
62	0x3c0d8a3b	0.008638914
63	0x3941d759	0.00018486138
64	0xbd167e84	-0.03674175
65	0xbc28d52e	-0.010304732
66	0xbdbba849	-0.09162957
67	0x3da3e5f6	0.08002846
68	0xbd9a4f5a	-0.07534666
69	0x3dcec299	0.1009571
70	0xbd549db3	-0.051908206
71	0x3d0ee6f1	0.03488821
72	0x3cd00162	0.025391284
73	0xbcd1b6ff	-0.025599955
74	0x3cef9338	0.029245004
75	0x3ddcc111	0.10779012
76	0x3d1308d2	0.035897084
77	0x3bf06914	0.007336745
78	0xbc848853	-0.016178286
79	0x3c94ee9e	0.018180188
80	0x3c0bc1f1	0.008530126
81	0xbd7a8287	-0.061159637
82	0xbd9e1052	-0.077179566
83	0xbc65e628	-0.014031924
84	0xbcf07553	-0.02935282
85	0xbaa505f4	-0.0012590275
86	0xbc9ea173	-0.019364094
87	0xbd1ca893	-0.038246702
88	0xbb4f9f39	-0.0031680597
89	0xbd3e4aa0	-0.046457887
90	0x3e4bb83c	0.19894499
91	0xbd1b9172	-0.037980504
92	0xbdbfd75a	-0.09367247
93	0xbbc8586d	-0.006114057
94	0xbca7794f	-0.020443587
95	0xbd3baf09	-0.045821223

transformer.layers.0.self_attn.out_proj.weight f4 [32, 32]
0	0x3d89c437	0.06726878
1	0x3d4f9e13	0.05068786
2	0x3d440dde	0.047864787
3	0xbe783d2d	-0.24242087
4	0x3d811a2b	0.06303819
5	0xbc148340	-0.009064496
6	0x3c944b7c	0.0181024
7	0x3c83b814	0.016078986
8	0xbe752025	-0.23938043
9	0x3e13ec46	0.144456
10	0xbcdef4b6	-0.027216297
11	0xbb80dcd2	-0.003932574
12	0xbd5bae17	-0.053632822
13	0xbaed2f2a	-0.0018095721
14	0x3d5ee68e	0.054419093
15	0x3b803d1f	0.003913536
16	0xbcee92e9	-0.029122787
17	0xbd5aae4f	-0.05338889
18	0x3e901bce	0.28146213
19	0xbd7209f4	-0.059091523
20	0xbd798a0f	-0.06092268
21	0x3e659985	0.22421844
22	0xbe2aa9f4	-0.16666394
23	0xbd58768f	-0.05284744
24	0x3cf17bf6	0.029478054
25	0x3d4897ed	0.048973013
26	0x3c897f56	0.016784351
27	0xbd95f054	-0.073212296
28	0xbb580474	-0.0032961639
29	0xbcee4e46	-0.029090058
30	0xbd7fca34	-0.062448695
31	0xbac35032	-0.0014901219
32	0x3ee51ca7	0.44748423
33	0xbdc441aa	-0.09582837
34	0xbe843acc	-0.25826108
35	0x3f3d19f8	0.7386775
36	0x3e74632d	0.23865958
37	0x3f02a1b4	0.5102799
38	0x3e2e1f28	0.17004073
39	0xbe526a29	-0.2054831
40	0xbd9b5a08	-0.075855315
41	0xbe9064d3	-0.28201923
42	0xbe1a98a1	-0.15097286
43	0x3f4f0ca6	0.80878675
44	0xbea9009b	-0.33008274
45	0x3e6b78f6	0.22995362
46	0x3f051df2	0.5199882
47	0x3f066a7d	0.5250624
48	0xbeef108d	-0.46692315
49	0xbecd80c4	-0.40137303
50	0xbe803e67	-0.2504761
51	0xbede3d58	-0.43406177
52	0x3ed97deb	0.4247888
53	0x3da08424	0.07837704
54	0x3f02f4f6	0.5115503
55	0xbe000db9	-0.12505235
56	0x3f03987f	0.51404566
57	0xbf028725	-0.50987464
58	0xbea6dfe9	-0.32592705
59	0x3e254366	0.16138992
60	0xbe7051f1	-0.23468758
61	0xbe621817	-0.22079502
62	0x3e9b4295	0.30324236
63	0xbc841189	-0.016121643
64	0x3d15a3ba	0.036533095
65	0xbcc14ac7	-0.023595227
66	0x3c5a79d3	0.013334709
67	0xbe98794f	-0.2978005
68	0x3cba3119	0.02272849
69	0xbc019a31	-0.007910297
70	0x3d4d9201	0.05018807
71	0x3e01bd84	0.1266995
72	0xbe283a4e	-0.16428491
73	0x3e4b98ba	0.1988248
74	0xbdd3c97e	-0.10341166
75	0xbd822a14	-0.06355682
76	0xbd0d07c4	-0.034431234
77	0x3d8f507e	0.069977745
78	0xbd886c4a	-0.066612795
79	0x3d06d545	0.032918233
80	0x3bfe5c54	0.007762471
81	0xbe19cf00	-0.1502037
82	0x3e4164ca	0.18886104
83	0xbd1fc238	-0.03900358
84	0xbca9a08f	-0.020706443
85	0x3e2a1425	0.16609247
86	0xbe8880e1	-0.26660827
87	0xbd8a5aee	-0.06755625
88	0x3d35ceef	0.0443868
89	0x3d61f667	0.05516663
90	0xba9ea538	-0.0012103682
91	0xbdf920e9	-0.1216448
92	0xbde2e076	-0.11077969
93	0x3d4bd363	0.04976214
94	0xbe554ff9	-0.20831288
95	0x3c93509f	0.01798278
96	0x3f0c8ad8	0.5489936
97	0xbd59e0fc	-0.053193077
98	0xbf038a62	-0.5138303
99	0x3ef688dc	0.4815129
100	0x3f0aeba1	0.5426579
101	0x3f3df4ca	0.74201643
102	0x3e7f9203	0.24958043
103	0xbe79cb81	-0.24394037
104	0xbdc39bad	-0.09551177
105	0xbf19d7a5	-0.6009467
106	0xbe3483bd	-0.17628379
107	0x3f79ec6a	0.97626364
108	0xbef2c834	-0.47418368
109	0x3f0835c5	0.53207046
110	0x3ee3d610	0.44499254
111	0x3ecddf58	0.4020946
112	0xbf20f91c	-0.6288011
113	0xbf232b8c	-0.6373832
114	0xbf339887	-0.70154613
115	0xbecb1fd7	-0.3967273
116	0x3ed38f72	0.41320378
117	0x3eb19afc	0.34688556
118	0x3f1eb183	0.6198961
119	0xbf106d5f	-0.5641689
120	0x3f0ec627	0.55771106
121	0xbe895a0d	-0.26826516
122	0xbf0ac2f1	-0.54203707
123	0x3ec97664	0.39348137
124	0xbef96460	-0.48709393
125	0xbe62bff9	-0.22143544
126	0x3e90bd3c	0.28269374
127	0xbea13cbe	-0.31491655
128	0x3927147e	0.00015933995
129	0x3ca856fd	0.020549292
130	0x3d083afc	0.033259377
131	0x3e2bfc16	0.16795382
132	0xbd9950ac	-0.0748609
133	0xbd5610de	-0.05226218
134	0xbd650206	-0.055910133
135	0xbdd4718f	-0.10373222
136	0x3ea31700	0.31853485
137	0xbe15aab1	-0.14615895
138	0xbc86ee8d	-0.016471172
139	0x3ce76a11	0.028248819
140	0x3d9068df	0.070512526
141	0xbe4049e6	-0.1877819
142	0x3d6306e8	0.05542651
143	0x3d1630ca	0.036667623
144	0x3d862e25	0.0655177
145	0x3e019bcf	0.12657093
146	0xbd434d08	-0.047680885
147	0x3b2c2743	0.002626852
148	0xbe1ab41c	-0.15107769
149	0xbe5df037	-0.21673666
150	0x3e965b8e	0.29366726
151	0xbb700ccb	-0.003662872
152	0xbc36d25d	-0.011158553
153	0xbcc80351	-0.024415644
154	0x3c4c3cc1	0.012465657
155	0x3da7e86e	0.08198629
156	0x3cc4914d	0.023995066
157	0x3cb4659c	0.022021107
158	0x3d782717	0.060584154
159	0xbcff5bb8	-0.031171665
160	0xbdf38e45	-0.1189237
161	0x3d87c4b0	0.06629312
162	0xbdd84030	-0.10559118
163	0x3eb9e39b	0.36306462
164	0xbd6e6b98	-0.05820808
165	0x3cc7ae83	0.024375206
166	0xbd0e9f1f	-0.03481972
167	0x3d8e29d1	0.069415696
168	0x3ec508b7	0.3848321
169	0xbe9337ad	-0.28753415
170	0x3e8b45b3	0.27201614
171	0x3ded29d7	0.11580246
172	0x3b303a90	0.0026890375
173	0xbe672359	-0.22572078
174	0x3d81c688	0.06336695
175	0x3b5d37b7	0.0033755132
176	0x3d92a77d	0.07160852
177	0x3d85822f	0.06518971
178	0xbeb342ed	-0.35011998
179	0x3d11e4a7	0.03561845
180	0xbd41b1ab	-0.047288578
181	0xbed2ddc8	-0.4118483
182	0x3eac6ac5	0.3367521
183	0xbca7e734	-0.020495988
184	0xbd18ddad	-0.03732078
185	0x3ccc1771	0.024913521
186	0x3dac371a	0.08408947
187	0x3e353fd5	0.17700131
188	0x3d1941f7	0.037416425
189	0x3d875cba	0.06609483
190	0x3e35cbaf	0.1775348
191	0xbd9c371f	-0.07627701
192	0x3dacfc8a	0.084466055
193	0xbd71393e	-0.05889248
194	0x3db7d2ad	0.0897573
195	0xbeacd038	-0.33752608
196	0x3d2b7564	0.04186
197	0xbdc2e78a	-0.09516819
198	0x3dcf895b	0.1013362
199	0x3d200703	0.039069187
200	0xbe178dcd	-0.14800186
201	0x3e873b56	0.26412457
202	0xbe14bc94	-0.14525062
203	0xbd76460a	-0.06012539
204	0x3ccb4b2d	0.02481612
205	0x3d114505	0.035466213
206	0x3caa9642	0.020823602
207	0x3d54477a	0.051825978
208	0x39d9e4e4	0.00041560002
209	0xbcb93634	-0.022608854
210	0x3ebb1196	0.36536855
211	0xbe05af71	-0.13055207
212	0xbdb65706	-0.08903317
213	0x3e486a71	0.19571854
214	0xbe5e6638	-0.21718681
215	0xbd58d2ef	-0.052935537
216	0x3a768d33	0.00094051956
217	0x3c244c49	0.010027953
218	0xbd6718f0	-0.056420267
219	0xbe4397ef	-0.19100927
220	0xbdc8f64f	-0.09812605
221	0xbaaa8d5e	-0.0013012101
222	0xbe587d51	-0.21141554
223	0x3d4d5996	0.050134264
224	0xbd980fd6	-0.074248955
225	0x3e6e7aea	0.23289075
226	0xbe600e27	-0.21880399
227	0x3e72a9bc	0.23697561
228	0x3db07552	0.08616127
229	0x3e8bf1db	0.2733296
230	0xbdd3741a	-0.10324879
231	0x3dfd3a86	0.12364678
232	0xbefbad46	-0.49155635
233	0xbde00f83	-0.109404586
234	0x3e00022d	0.1250083
235	0x3de2e555	0.11078898
236	0x3da4ea38	0.08052486
237	0xbd1aadf8	-0.037763566
238	0x3e29aaf8	0.16569126
239	0x3d534882	0.05158282
240	0xbd92e4ce	-0.07172547
241	0x3d9927f8	0.074783266
242	0xbee3514b	-0.4439796
243	0x3d1f2aa6	0.038859032
244	0x3e4268e9	0.18985333
245	0x3c088f10	0.00833489
246	0x3e34cf7f	0.17657278
247	0x3cd087c1	0.025455358
248	0xbc8686c0	-0.016421676
249	0xbda089a4	-0.07838753
250	0x3d2f5489	0.04280523
251	0x3ebcf8b0	0.36908484
252	0x3da20df8	0.079128206
253	0x3d46b35c	0.048510894
254	0x3d945531	0.072428115
255	0x3d3f3a7b	0.04668663

transformer.layers.0.self_attn.out_proj.bias f4 [32]
0	0xbd0f93d9	-0.035053108
1	0x3e99a68b	0.30009875
2	0x3d11853e	0.03552746
3	0x3f5444a5	0.82917243
4	0xbe1727f5	-0.14761336
5	0x3cf9b60c	0.030482315
6	0x3dce294f	0.10066473
7	0x3d927701	0.071516044
8	0xbccd8f17	-0.025092645
9	0x3c819ef2	0.015822861
10	0x3eb7d815	0.35907045
11	0xbbc3ccae	-0.0059753275
12	0x3d804506	0.06263165
13	0xbe8dfecc	-0.27733457
14	0xbb921649	-0.004458223
15	0xbe00ca51	-0.12577178
16	0x3d51c637	0.051214423
17	0x3ecbb444	0.3978597
18	0xbb7d27be	-0.0038628425
19	0xbc4713c8	-0.012150712
20	0x3dcd6ab4	0.10030118
21	0x3db23b38	0.08702701
22	0xbe91db80	-0.28487778
23	0x3d541bb2	0.051784225
24	0x3d9ff735	0.07810823
25	0x3d2e4335	0.042544562
26	0xbbd07d0e	-0.006362564
27	0xbe55ab28	-0.20866072
28	0xbbd8fdaa	-0.006622036
29	0x3c5f7d7e	0.0136407595
30	0x3d9bf550	0.07615149
31	0xbbe2a684	-0.006916823

transformer.layers.0.linear1.weight f4 [2048, 32]
0	0x3e0e2ab8	0.13883483
1	0x3dc7177f	0.097212784
2	0xbd915621	-0.07096506
3	0x3e05ffcd	0.13085862
4	0xbddf6759	-0.10908384
5	0x3df28005	0.11840824
6	0xbde42dd3	-0.11141553
7	0xbe1ea0cb	-0.15491025
8	0xbe4a0b51	-0.1973088
9	0xbd99cdb1	-0.07509936
10	0xbdc03d57	-0.093867
11	0x3b51a97c	0.003199189
12	0xbe45ca14	-0.19315368
13	0xbd182185	-0.03714134
14	0x3dc9c5ae	0.098521575
15	0x3d9c4fae	0.07632385
16	0xbcbf95b0	-0.023386806
17	0xbd24dc1d	-0.04024898
18	0xbcab0af0	-0.020879239
19	0x3e224bb9	0.15849198
20	0xbdb4ea7a	-0.08833785
21	0x3cdc6e91	0.02690819
22	0xbddeadb5	-0.10872976
23	0x3e87b5a9	0.26505783
24	0xbc9fbca2	-0.019499127
25	0xbdc80f36	-0.09768526
26	0x3c585e01	0.013206006
27	0xbe0e1fc1	-0.138793
28	0x3b44a6bc	0.0030006608
29	0x3db6bb92	0.08922495
30	0x3d4b7995	0.049676497
31	0xbdefc6bc	-0.117078274
32	0x3d949a2d	0.07255969
33	0xbcb9f100	-0.022697926
34	0xbd5dded7	-0.054167595
35	0x3e1dfa86	0.15427598
36	0x3e2b8c98	0.16752851
37	0xbdb58cfb	-0.088647805
38	0x3d527973	0.051385354
39	0x3e15920c	0.14606494
40	0x3e04b89e	0.12961051
41	0x3ca565c0	0.02019012
42	0x3d3b933c	0.04579471
43	0x3d52071b	0.051276308
44	0xbdc269c8	-0.094928324
45	0x3e5e16ee	0.21688434
46	0x3d93e97b	0.07222267
47	0x3da44cdd	0.08022473
48	0xbe18aad8	-0.14908922
49	0xbcda9391	-0.026681693
50	0x3d0f4ee4	0.034987345
51	0xbd8bebc7	-0.0683208
52	0x3e064186	0.13110933
53	0xbaad2810	-0.0013210792
54	0x3e508ddd	0.20366617
55	0x3d419591	0.04726178
56	0xbd642234	-0.05569668
57	0x3dbdd0af	0.09268319
58	0xbe2803d3	-0.16407709
59	0xbe4b2218	-0.19837224
60	0x3dca9bba	0.09892984
61	0x3e013a18	0.12619817
62	0xbdc68a5f	-0.09694361
63	0x3d74104c	0.059585854
64	0x3ce3806f	0.027771203
65	0xbe172926	-0.1476179
66	0x3d8b9754	0.06815973
67	0x3dc4e075	0.09613124
68	0x3d276399	0.040866468
69	0xbd88b5b1	-0.0667528
70	0x3dea42a9	0.11438496
71	0xbe4280ea	-0.1899449
72	0xbd6fd11c	-0.05854903
73	0xbd66b385	-0.056323547
74	0x3d6cb22a	0.057787098
75	0x3df2ce20	0.118557215
76	0xbe5bffc3	-0.21484284
77	0xbd49677d	-0.04917096
78	0xbe6a82f7	-0.22901522
79	0xbd9cbea0	-0.07653546
80	0x3d96557b	0.07340523
81	0xbdc4e5cc	-0.09614143
82	0xbdc0d43b	-0.0941548
83	0x3a20bd5d	0.0006131733
84	0x3ce8b53c	0.028406732
85	0xbd0008e5	-0.031258482
86	0xbd5c9c14	-0.053859785
87	0xbd707d84	-0.05871345
88	0xbe5b6a29	-0.21427216
89	0x3d9afcef	0.075677745
90	0xbe404133	-0.18774872
91	0x3d59d307	0.053179767
92	0x3cce477f	0.025180576
93	0xbd0c1f99	-0.03420982
94	0xbe1c2356	-0.15247855
95	0x3df3171b	0.118696414
96	0x3e0299c9	0.12753977
97	0x3d9ba3df	0.07599615
98	0x3e0b536f	0.13606046
99	0xbbab4d44	-0.0052277166
100	0x3d5d9664	0.0540985
101	0xbe1f290f	-0.15543006
102	0xbe13c43c	-0.14430326
103	0xbd80af86	-0.062834784
104	0xbd7fd3c4	-0.062457815
105	0x3d2b654a	0.041844644
106	0x3ce871af	0.028374521
107	0xbc4581c5	-0.012054865
108	0xbd960e83	-0.07326987
109	0x3bf401db	0.0074465103
110	0xbe520ce4	-0.2051273
111	0xbe2b0f27	-0.16704999
112	0xbe1d11f9	-0.15338887
113	0xbe04800c	-0.12939471
114	0xbc37cf8d	-0.011218918
115	0xbcefb434	-0.029260732
116	0x3cbacbc6	0.022802245
117	0x3dc6cd55	0.09707133
118	0x3e09e54c	0.13466376
119	0x3dc9fcfc	0.09862706
120	0xbe1f0cf9	-0.15532292
121	0x3d5547ca	0.052070417
122	0x3bf09565	0.007342028
123	0x3cd73ae8	0.026273206
124	0x3d8b7a5c	0.068104476
125	0x3d4410da	0.047867633
126	0xbe422a19	-0.18961371
127	0xbe035b19	-0.1282772
128	0x3e1cf1b0	0.15326571
129	0x3db15a8d	0.08659849
130	0x3e00cd3e	0.12578294
131	0xbe3eb211	-0.18622614
132	0xbde68b90	-0.11257088
133	0xbccd2fb6	-0.025047164
134	0x3d848d73	0.06472292
135	0x3d456f07	0.048201587
136	0xbd37474b	-0.044745725
137	0x3d9bc435	0.07605783
138	0xbe406c35	-0.18791278
139	0xbcb73b53	-0.022367155
140	0x3ae96a21	0.0017808118
141	0xbc1a23c6	-0.009407943
142	0x3d71a2bf	0.058993097
143	0x3e3f784d	0.18698235
144	0xbe2e0c98	-0.16996992
145	0xbd046f83	-0.03233291
146	0xbe06e2e7	-0.13172494
147	0xbe164cae	-0.14677688
148	0x3d900130	0.070314765
149	0xbda88140	-0.082277775
150	0x3e1585e1	0.14601852
151	0xbb206334	-0.0024473192
152	0x3c83a37f	0.016069172
153	0xbdba2061	-0.09088207
154	0xb94093f9	-0.00018365671
155	0xbc466ac0	-0.012110412
156	0x3daa1b53	0.08305993
157	0x3e1f18ba	0.15536776
158	0x3c303ba0	0.010756403
159	0x3e017c09	0.12644972
160	0x3df50ef7	0.11965745
161	0x3d2d2037	0.04226705
162	0x3df2342f	0.118263595
163	0x3d75f918	0.060052007
164	0x3d686df4	0.056745484
165	0xbd542f1a	-0.051802732
166	0x3ddb675c	0.107130736
167	0x3e1dda88	0.15415394
168	0x3d27238a	0.040805377
169	0x3cedaadf	0.029012142
170	0x3daee24d	0.08539257
171	0xbccc012f	-0.024902908
172	0x3dcb3dc4	0.0992389
173	0xbe0cb5c2	-0.1374121
174	0xbc995e48	-0.018721715
175	0xbd707cce	-0.058712773
176	0xbd765b7e	-0.060145847
177	0x3d31c504	0.04340078
178	0xbe04b369	-0.12959065
179	0x3e262edc	0.16228813
180	0xbd8b83ee	-0.06812273
181	0x3c7ffddc	0.01562449
182	0x3dac4607	0.08411794
183	0x3a60bd09	0.00085730903
184	0xbde51db6	-0.111873075
185	0x3d32e376	0.043673955
186	0xbd1175ec	-0.03551285
187	0xbbbd4f55	-0.0057772794
188	0xbcc23b9e	-0.023710068
189	0xbce68ca8	-0.028143242
190	0xbdfd30db	-0.12362834
191	0xbe10af8c	-0.14129466
192	0xbce9fdc1	-0.028563382
193	0x3dbad0fc	0.09121892
194	0x3e4f5e90	0.20250916
195	0x3ded2f6e	0.11581312
196	0xbdb20ff7	-0.08694451
197	0x3e18ae07	0.14910136
198	0xbd15cb8e	-0.036571078
199	0xbe290cfe	-0.16508862
200	0xbe3bc9d7	-0.18338715
201	0x3d16a170	0.036775053
202	0xbe4a8fc0	-0.19781399
203	0xbbd598da	-0.0065184655
204	0xbd168193	-0.036744665
205	0xbd894b6d	-0.067038395
206	0xbe4c162e	-0.19930336
207	0xbe397c1a	-0.18113747
208	0xbdb906ea	-0.09034522
209	0xbe02c1e3	-0.12769274
210	0x3e3dad20	0.18523073
211	0x3dd655b8	0.10465568
212	0xbd410dd4	-0.04713233
213	0xbe178573	-0.14797
214	0x3e44a8e0	0.19205046
215	0x3da42574	0.08014956
216	0xbe160605	-0.14650734
217	0xbd52ff6c	-0.05151312
218	0x3dbd8061	0.09253002
219	0xbe49ac40	-0.19694614
220	0x3ca3201f	0.019912777
221	0xbd925e51	-0.07146896
222	0xbcbc1e4b	-0.022963664
223	0xbdcaaa2a	-0.098957375
224	0xbe095580	-0.13411522
225	0x3e09df66	0.13464126
226	0xbe0cdd64	-0.13756329
227	0xbe171175	-0.14752753
228	0x3c918ee4	0.01776833
229	0x3d8586de	0.065198645
230	0x3e149792	0.14510944
231	0xbe28cd0b	-0.16484468
232	0x3c894513	0.01675657
233	0x3e175099	0.1477684
234	0x3d8d5d57	0.06902569
235	0x3e289c8d	0.1646597
236	0x3d0c2070	0.034210622
237	0x3e1ab136	0.15106663
238	0x3de8299e	0.11336063
239	0x3d8b1641	0.06791354
240	0x3ddba96a	0.107256725
241	0xbe322a70	-0.17399001
242	0xbd9c6695	-0.076367535
243	0x3c295b6c	0.010336738
244	0xbd9c77fb	-0.07640072
245	0xbd6b97ad	-0.057517696
246	0xbc8d34f4	-0.017237164
247	0xbc995530	-0.018717378
248	0xbe139195	-0.14411004
249	0xbdd07fc8	-0.10180622
250	0x3dad6881	0.08467198
251	0xbd3e933b	-0.04652713
252	0x3cb0972e	0.021556463
253	0xbdf1f1c7	-0.118136935
254	0xbe05b134	-0.13055879
255	0x3dff77d9	0.12474031

transformer.layers.0.linear1.bias f4 [2048]
0	0x3d444b29	0.04792324
1	0xbd932f6f	-0.071867816
2	0x3de94190	0.11389458
3	0x3d96c4cc	0.07361755
4	0xbca891c1	-0.020577313
5	0xbe2fe00a	-0.17175308
6	0x3db1c6b5	0.086804785
7	0xbe112ca7	-0.1417719
8	0xbe0116ce	-0.12606356
9	0x3c518f62	0.012790533
10	0x3cf560c1	0.029953362
11	0x3cea97e4	0.02863688
12	0xbe1cc1ee	-0.15308353
13	0x3d76d811	0.06026465
14	0xbe409659	-0.18807353
15	0x3cc2ac23	0.023763722
16	0xbdfb7f33	-0.12280121
17	0xbe0a46ec	-0.13503617
18	0xbc65946f	-0.01401244
19	0xbd896adf	-0.06709837
20	0x3d024757	0.031806316
21	0xbe2f69f9	-0.17130269
22	0xbe4f1b99	-0.20225371
23	0x3d558e97	0.052137937
24	0xbe214db6	-0.157523
25	0x3d1ce064	0.038299933
26	0xbcd6bc0d	-0.026212716
27	0x3d76ae91	0.060225073
28	0x3d8e86a4	0.069592744
29	0xbe3138e0	-0.17306852
30	0xbe3f3340	-0.18671894
31	0x3d8b3406	0.06797032
32	0xbda736d4	-0.081647545
33	0xbe5faab1	-0.21842457
34	0xbe39d13d	-0.18146224
35	0xbdf041c5	-0.117312945
36	0xbe31cd1a	-0.17363396
37	0xbc297bf8	-0.010344498
38	0xbd473a83	-0.048639785
39	0x3de2f708	0.11082274
40	0xbd06ed82	-0.03294135
41	0xbdad18a0	-0.084519625
42	0x3c146af5	0.009058704
43	0x3e009256	0.12555823
44	0x3deb6f8a	0.11495884
45	0xbdc7feaa	-0.0976537
46	0xbd67d219	-0.05659685
47	0xbdad77fb	-0.0847015
48	0xbe1bde00	-0.15221405
49	0xbd83b679	-0.06431288
50	0xbd87075d	-0.06593201
51	0xbdbf24f9	-0.09333224
52	0xbe287e11	-0.1645434
53	0xbca9c9d9	-0.020726131
54	0xbdb26284	-0.087101966
55	0xbda0bd5d	-0.07848618
56	0x3cf136b3	0.029445028
57	0xbde00377	-0.10938161
58	0xbe595b87	-0.21226321
59	0x3ca04c61	0.01956767
60	0xbe07c60f	-0.13259147
61	0x3db152d0	0.08658373
62	0xbdd7a44a	-0.105293825
63	0xbdab347b	-0.08359619
64	0x3dde133b	0.10843512
65	0x3d9a2f1a	0.07528515
66	0xbe4d1f49	-0.20031466
67	0xbd2879a3	-0.041131627
68	0x3dc93ad1	0.098256715
69	0xbe0bc551	-0.13649489
70	0xbe435afd	-0.19077678
71	0x3da0e678	0.078564584
72	0xbe3eacfd	-0.18620677
73	0xbe09fe37	-0.13475882
74	0xbd97146e	-0.073769435
75	0xbe39fd45	-0.18163021
76	0xbd273650	-0.04082328
77	0x3d558a43	0.05213381
78	0x3de5da83	0.112233184
79	0x3df20982	0.1181822
80	0x3de37a83	0.11107352
81	0xbe1d272c	-0.15346974
82	0xbd0fdeb5	-0.0351245
83	0x3d7ea3a1	0.062167767
84	0x3d221012	0.039566107
85	0xbe168363	-0.14698558
86	0x3c945ea6	0.018111538
87	0xbd88db71	-0.0668248
88	0xbd98a60e	-0.074535474
89	0xbdcd0011	-0.10009778
90	0xbe4f678c	-0.20254344
91	0xbe4c4bd8	-0.19950807
92	0xbdf3045f	-0.11866068
93	0xbd0f99b7	-0.035058703
94	0xbd56385a	-0.052299835
95	0xbd9b6acc	-0.07588729
96	0x3d1f54e0	0.038899302
97	0xbdda7152	-0.106661454
98	0xbdcf5f43	-0.101255916
99	0x3bc30234	0.0059511904
100	0xbdbac01a	-0.09118672
101	0x3d3390bd	0.043839205
102	0xbe3a276a	-0.18179098
103	0xbe179783	-0.14803891
104	0x3de1ebd3	0.11031308
105	0x3dc0c59f	0.09412693
106	0x3de35a58	0.11101216
107	0xbe2fe052	-0.17175415
108	0x3dd536a8	0.104108155
109	0xbdcd9924	-0.10038975
110	0x3b05fbaa	0.0020444193
111	0xbd611891	-0.05495507
112	0x3df03d2e	0.11730419
113	0xbc8d93d4	-0.017282404
114	0x3e0babb4	0.13639718
115	0x3cd84f44	0.026404984
116	0x3da88510	0.08228505
117	0xbccfd830	-0.02537164
118	0xbe7b717e	-0.24555013
119	0xbbd0b2aa	-0.0063689547
120	0x3e00dd0d	0.12584324
121	0xbdbb6164	-0.09149435
122	0xbe07338d	-0.13203259
123	0xbe530eeb	-0.2061116
124	0x3d80f558	0.062967956
125	0x3bce498d	0.006295389
126	0xbe286844	-0.16446024
127	0x3e02cc5d	0.12773271
128	0xbd5e391c	-0.054253682
129	0xbe2c5289	-0.1682836
130	0xbdd7a1b7	-0.105288915
131	0xbd5f1f41	-0.054473165
132	0x3db8aa19	0.090168186
133	0xbe3ea6c9	-0.18618311
134	0xbdd66072	-0.10467614
135	0x3d277c6b	0.04089014
136	0xbdcb0def	-0.09914767
137	0xbd3f0e7e	-0.04664468
138	0xb9bdae90	-0.00036178948
139	0x3d93b0ae	0.07211433
140	0xbdea11f3	-0.11429205
141	0x3ca05a64	0.019574352
142	0xbda84383	-0.08216002
143	0xbe4a53d9	-0.19758548
144	0x3d7fd79a	0.062461473
145	0xbd33adbf	-0.04386687
146	0xbddf809f	-0.109132044
147	0x3e0a2933	0.13492279
148	0x3d2683bf	0.040652987
149	0x3e114c79	0.14189328
150	0x3db99c22	0.09062983
151	0x3d908c0a	0.0705796
152	0xbe0f7480	-0.14009285
153	0x3b1a4b7a	0.0023543523
154	0x3da512ce	0.08060227
155	0xbe4c15a8	-0.19930136
156	0xbd2cd358	-0.04219374
157	0xbe309c4d	-0.17247124
158	0xbde72694	-0.11286655
159	0xbe10ac60	-0.14128256
160	0xbdee89d3	-0.11647382
161	0xbe034af1	-0.12821557
162	0xbe670ffb	-0.2256469
163	0xbd3e1592	-0.04640729
164	0x3b95ad4e	0.0045677787
165	0xbe307186	-0.17230806
166	0x3d950809	0.07276923
167	0xbd552a64	-0.05204238
168	0xbc2f2a33	-0.010691213
169	0xba4aec43	-0.0007740894
170	0xbc184498	-0.009293698
171	0x3dae5e38	0.085140646
172	0x3cc5c6ec	0.024142705
173	0xbd9edd1f	-0.07757019
174	0xbcbde1d4	-0.023178972
175	0xbe31cc13	-0.17363004
176	0xbde72432	-0.112862006
177	0xbde7e15b	-0.1132228
178	0xbc84240c	-0.01613047
179	0xbe2869b4	-0.16446573
180	0xbdcf7bed	-0.10131059
181	0xbe52ba7f	-0.20578955
182	0x3d96fefc	0.07372853
183	0x3d29fe65	0.041502375
184	0x3e10bd85	0.14134796
185	0xbe3cfbe1	-0.18455459
186	0x3d80570b	0.06266602
187	0xbb2aeb1b	-0.0026080075
188	0xbdb69efa	-0.08917041
189	0xbdd2e7a7	-0.102980904
190	0xbdb37d0f	-0.087640874
191	0xbe181e50	-0.14855313
192	0x3e086553	0.13319902
193	0xbcc90c91	-0.024542125
194	0x3e2056df	0.15658139
195	0xbdb99849	-0.09062249
196	0xbe01618c	-0.12634867
197	0xbdc082e6	-0.09399967
198	0xbdf95de5	-0.12176112
199	0xbe090bc8	-0.133834
200	0xbd9c276d	-0.07624707
201	0xbe448ae6	-0.1919361
202	0xbd02f2dd	-0.031969894
203	0x3e08a642	0.13344672
204	0xbdd55077	-0.10415738
205	0x3db407ca	0.08790548
206	0xbe050d35	-0.1299332
207	0xbde5df38	-0.11224216
208	0xbe2464e7	-0.16054116
209	0x3d82d441	0.063881405
210	0x3dbd73ba	0.09250589
211	0xbcb7553c	-0.02237951
212	0xbd561800	-0.052268982
213	0xbe2a7de5	-0.16649587
214	0x3d8973d3	0.06711545
215	0x3df9708a	0.12179668
216	0x3d798fed	0.060928274
217	0xbd85b472	-0.06528558
218	0xbdf89475	-0.12137691
219	0xbe55986f	-0.2085893
220	0xbe39eb55	-0.18156178
221	0xbca1f4eb	-0.019770106
222	0x3d4240c5	0.04742505
223	0x3a85c66f	0.0010206233
224	0x3dd0bde9	0.101924725
225	0xbb24d87c	-0.0025153449
226	0xbdabd279	-0.08389754
227	0xbe74f391	-0.23921038
228	0xbdc57fbe	-0.096435055
229	0x3d9eb12c	0.077486366
230	0x3dcd26e8	0.100171864
231	0x3e156932	0.1459091
232	0xbdc1d0da	-0.094636634
233	0x3dbfbd53	0.093622826
234	0x3d9d2d14	0.076746136
235	0x3c815246	0.015786301
236	0xbdc2caa0	-0.09511304
237	0x3e084efa	0.13311377
238	0xbc9316ca	-0.017955203
239	0x3da6d61a	0.081463054
240	0xbe367a45	-0.1782008
241	0xbdf94eb6	-0.12173216
242	0x3e0545ee	0.13014957
243	0x3c864cd5	0.016394058
244	0x3e348ff7	0.17633043
245	0x3e18538b	0.14875619
246	0x3c5bcb17	0.01341512
247	0xbcbe7eb0	-0.023253769
248	0xbdcd2667	-0.1001709
249	0xbccb5c13	-0.024824178
250	0x3d7de39a	0.061984636
251	0x3ddd9bda	0.10820742
252	0xbe03bb2b	-0.12864368
253	0xbdb92ea1	-0.09042097
254	0xbd90c486	-0.07068734
255	0x3d8f788a	0.07005413
