models/model_epoch_10.pth (torch, 581178 bytes, 18 tensors)

conv1.weight f4 [16, 8, 3]
00000000: 255b c73d 6bbc 13be 6096 2b3b 67f5 543e
00000010: cc65 3a3d ec42 4bbd 481e 283e b4e6 99bd
00000020: d4c8 463e a603 003d 83e4 313e fd4d 05be
00000030: 086d 30be 99aa be3d b2df 72bd a84c 18be
00000040: 172f 303e 33f4 35bd 2435 36be 7804 353e
00000050: 4fed d03d 80cf a53d d20e 92bd e423 143e
00000060: 46ca 4d3e 90dd 443e 9ecc 743d bf38 f23d
00000070: 4d55 fabd f0af a23d dfca d83d 1fd9 03be
00000080: 6f60 803d d357 37bd c54f 1f3e 3d43 05be
00000090: 4bea dc3d 82ec 913d deae 86bc e9f9 f2bd
000000a0: c2f0 f93b 6c87 1ebe 7ebe a73d 30e4 0bbe
000000b0: 0710 63bc b7ab 1dbd a3a8 033e 5a9c b0bd
000000c0: 69bc 4dbe 1c19 43bd 0eaf 67bd a869 9dbe
000000d0: b186 5fbe 4033 7e3e f224 25be 1d41 a23c
000000e0: 511a 74bc 307e 513e f665 19bd a097 813e
000000f0: 1507 333d ddbf 483e db86 e03d 30e4 05bc
00000100: 9604 a93d 9ec8 80be 12a9 9ebe 67c2 f5bd
00000110: f3a4 4bbd efe3 7dbd c9fd babd 6088 8a3d
00000120: e1b8 3b3e 1b9a c3b9 e41a 05be fe20 243e
00000130: 54f2 343e 0abf 913d 48f9 b83d 3c00 2a3e
00000140: c2ea 0f3e 905c e2bd dbf6 4b3c 32af c6bd
00000150: 4148 82bc 4a41 f83c 9c6c cd3d 4428 e33c
00000160: b9fb 1e3e b693 96bd 9d3d 4ebe 8a4f 383e
00000170: a5e3 1d3c 8978 d2bd 711c 95bc abcc b43d
00000180: fcb5 7cbd f572 3c3e 5a18 1abe 9ff2 a7bd
00000190: 6fe2 253e 1e5d 853d 8357 943c 8909 433e
000001a0: eb33 cbbd e97a 0f3e 225c 25bd e3c5 8d3c
000001b0: 0840 c03d 3150 0a3d 0744 6c3c b730 04be
000001c0: f190 96bd 8277 e2bd 99cc ba3d 204b 903d
000001d0: 2c34 153e d72d 24be c9f8 b8bd 9479 a53d
000001e0: 9c96 ef3d 6946 763c bc58 653d a54c c0bd
000001f0: 2c7d 5ab9 988d 09be dd36 053e 5628 313e
00000200: 6273 93bd d19d b33d b244 67bd c8c6 783c
00000210: 6c12 773e bde0 8dbd cb6b 1f3e 808e 2cbe
00000220: c2c1 f2bc f07e 06be 43d5 2d3e 2123 17be
00000230: ea38 e63c fa82 d0bd 1f68 9b3b f586 06be
00000240: 0679 c73d b70d 503e 0604 703c ed0f dabc
00000250: 6001 b83c 4c3a 66bc f939 28be b241 27bd
00000260: 5154 c4bc 0efc b6bd fe93 463e b84d e43d
00000270: 3057 763d 92aa 0c3e ee86 e83d baa7 d2bd
00000280: b452 343e 5aa2 f3bd 43ab ccbd 229c 473e
00000290: cb87 e43d 28ec 473e 34a1 413c 70d1 74bd
000002a0: 4416 233e a9f9 903c 9784 83bd 9cc6 743d
000002b0: 225c 893e c378 063d 0922 f6bb de90 24bd
000002c0: 9977 ffbd 4fe3 bb3d 6c6b 3b3d 215a 343d
000002d0: 8aa9 7cbd 7bdb 15be b54c 513e 292e 7e3e
000002e0: da2b ac3d 0843 063d ad7f e3bc 1027 0c3f
000002f0: 3d0b 9f3c bede 09bc 5ed8 3a3e 414f 033e
00000300: 5408 92bd 0832 d13b cc62 09bd 0a40 993d
00000310: ddf6 c73d 27c5 d7bd bfad 163e 45c2 673d
00000320: 0946 22be c128 29be 0312 7a39 c266 9cbd
00000330: 91cd a13d faf3 a6bb 0df4 4c3e 4094 37be
00000340: 7d40 56be bc53 f8bd 7bfc 14be 9fda 3c3d
00000350: 60ac 473e e8d7 b139 5415 d5bd 15d5 6c3d
00000360: 928a dcbd 517d 6a3d 3202 443e d2a8 33bd
00000370: 8523 d53d c5cb febd b72f 483d b8ff 913d
00000380: 15da 44be 0d6a a1bd 57fc 093e bafd 0d3e
00000390: e21c 49bd 390b d33d 59dc e5bd afa2 bcbd
000003a0: f620 8bbd ff96 133e 49f5 cc3d b1e8 acbd
000003b0: 59ab b2bd 74ed fd3d 4300 10be bf67 c93d
000003c0: 9906 3d3e fbfe 413e f5e1 90bc 7a05 05bb
000003d0: 516d f23c 6bd6 bc3e d965 86bd e004 d8bd
000003e0: 2720 233d 366f 6bbe 7491 84be f72b 40bd
000003f0: 696a e3bd 7c88 d4bc 5920 313d bf16 4a3e
0.09734181 -0.14427345 0.002618216 0.20796739 0.045507237 -0.04962437 0.16417801 -0.07514706
0.19412547 0.03125348 0.17372327 -0.13018031 -0.17229092 0.09309883 -0.059295364 -0.14872992
0.17205463 -0.04442234 -0.17793709 0.17677486 0.10201513 0.08096218 -0.07131733 0.14466816
0.20096692 0.19225144 0.05976545 0.1182723 -0.12223301 0.07943714 0.105855696 -0.12875794
0.06268393 -0.04476149 0.15557773 -0.1301393 0.10786875 0.071251884 -0.016440805 -0.11864073
0.0076275775 -0.15481347 0.081906304 -0.13661265 -0.013858802 -0.03849384 0.12857299 -0.08623572
-0.20091404 -0.047631368 -0.05656343 -0.30744672 -0.21828724 0.24824238 -0.16127375 0.019806439
-0.014898852 0.20458293 -0.037450753 0.25310993 0.043707926 0.1960444 0.10963222 -0.00817208
0.08252828 -0.2515306 -0.30988365 -0.1199997 -0.049717855 -0.061984953 -0.09130437 0.06764293
0.18332244 -0.00037308116 -0.12998539 0.1602821 0.17670566 0.07116516 0.090319216 0.16601652
0.14054397 -0.11052811 0.012448992 -0.097013846 -0.015903594 0.03030457 0.10030481 0.027729161
0.15525712 -0.073523924 -0.20140691 0.17999092 0.009636794 -0.102768965 -0.018202038 0.088281
-0.06169699 0.18403228 -0.15048352 -0.08200573 0.16199659 0.06511901 0.018108135 0.19046606
-0.09922012 0.1401173 -0.040371068 0.017306274 0.09387213 0.033767883 0.014420516 -0.12909208
-0.07351864 -0.110579506 0.09121055 0.07045579 0.14570683 -0.16033112 -0.09031827 0.0807983
0.11698648 0.0150314355 0.055992827 -0.09389619 -0.0002083673 -0.1343292 0.1300921 0.17300543
-0.07199742 0.087703355 -0.056461997 0.015184112 0.24128121 -0.06927631 0.15568464 -0.16851234
-0.029633407 -0.1313436 0.16975884 -0.14759494 0.02810331 -0.10181232 0.004742637 -0.1313742
0.0973988 0.20317732 0.014649397 -0.026618922 0.022461593 -0.014051985 -0.16428365 -0.040834136
-0.023965986 -0.08934794 0.19392392 0.11147636 0.060141742 0.13736942 0.11353861 -0.102858976
0.17609674 -0.118962005 -0.09993603 0.19493154 0.11158713 0.1952368 0.011818219 -0.059770048
0.15926462 0.017697172 -0.06421774 0.05975972 0.26828104 0.03283001 -0.0075113815 -0.04017722
-0.12473983 0.09174215 0.045756742 0.044031266 -0.061685123 -0.14634506 0.20439418 0.24822296
0.084068015 0.03277877 -0.027770841 0.54747105 0.019414539 -0.008414922 0.182466 0.12823202
-0.07130495 0.006384138 -0.033541486 0.074829176 0.09763882 -0.10535651 0.14714716 0.056581754
-0.15847029 -0.16519453 0.00023848568 -0.07636787 0.07900537 -0.0050950022 0.20014973 -0.17927647
-0.20923038 -0.12125346 -0.14549439 0.04610693 0.1949935 0.00033920933 -0.10404459 0.0578204
-0.10768618 0.057248417 0.19141462 -0.04386217 0.104071654 -0.1244121 0.04887363 0.071288526
-0.19223817 -0.07881556 0.13475166 0.1386632 -0.04909981 0.10304875 -0.112236686 -0.09210717
-0.06793396 0.14413069 0.10007722 -0.0844282 -0.08724088 0.12398806 -0.140626 0.09834241
0.18459548 0.18944924 -0.01768587 -0.0020297454 0.029593142 0.36882338 -0.06562395 -0.10547805
0.039825585 -0.22991642 -0.25892222 -0.04691693 -0.111042805 -0.025943987 0.04324374 0.1973524

conv1.bias f4 [16]
00000000: c8ca fd3c b32b 503e d583 c0bc 0ad8 1b3e
00000010: d6ba 50be e6b2 a6bd 7d14 dbbd 422a 42bd
00000020: 7e06 0dbe cd2c 213e 7e2e d5bd 7e22 57be
00000030: d478 84bd ff51 033d 0b1c 0f3e 91a0 0c3e
0.030980483 0.2032917 -0.023500362 0.15219131 -0.20383772 -0.08139591 -0.10697267 -0.04740358
-0.13772008 0.15739746 -0.10409258 -0.21009251 -0.06468359 0.03206062 0.13975541 0.13733126

conv2.weight f4 [32, 16, 3]
00000000: 9c49 ca3d af22 9f3d ceae 7dbd 133d 18bd
00000010: e878 023e 4739 dabb 56f2 c3bd 2cfa d1bb
00000020: 2dc1 94bd dbb6 b0bd 30fa babd 7401 fcbd
00000030: d918 1dbd 2477 12be 6d16 7b3b 4b08 5b3d
00000040: 67f3 cebd 4ff6 46bc f325 aebd a70e e9bc
00000050: 5f87 19bd 5f4d dd3d 8365 8cbd 1d33 ccbd
00000060: 00e6 febd 0b0f 42bd 2eb5 573c 8d91 823c
00000070: b8d1 903d 0126 6cbd 23bc f0bd 0af9 22be
00000080: 18cf 50be 8399 583d c5c1 00bd d3cc 4fbe
00000090: 40cf 983d faeb 33bd 92e6 ee3d 57b7 29bb
000000a0: 6f65 653d 59b3 ae3d df45 8fbd f0c8 123e
000000b0: 2bf8 9fbd 8ee1 a5bc 3826 f83d e61e 8dbc
000000c0: f03f 0dbe daf3 8f3d 8321 283e 0ed0 d83d
000000d0: 19d0 483d a891 8e3d ec25 21be 3c30 c5bd
000000e0: 38bf 52bd be52 8c3d d395 0fbe 02e7 123c
000000f0: 0337 cbbd 7109 dc3d 0ab3 3cbd 201c c3bd
00000100: 56c0 df3d 626a 833d 0b01 acbd aa15 8f3c
00000110: c749 9cbd 1069 2fbd 68b6 9b3d b993 b23d
00000120: 6ad2 32bc 77ee 51bd eaeb e9bd 8272 dabd
00000130: 8918 a1bd d94d 123e 736e 3f3b 1f46 09be
00000140: 4b63 603e b008 c6bd e2b0 34bd 05c8 eebc
00000150: fb6e b4bc 2c83 92bd 8fd9 f63d 88c4 c5bc
00000160: 78b9 293d 68f3 c83d eabb 39bd 5874 89bb
00000170: 158a 4fbd a501 4cbd 25cc d2bd ac13 e23d
00000180: 21ee 99bd 5e65 a0bc dce6 a73c 2dd5 213d
00000190: 8d51 303d 899a 1fbd af23 eabd 7ebb bdbc
000001a0: 3347 febd 5ceb 30bd 1cd6 b6bd 466f d53d
000001b0: 6f5c 6a3d 33e5 723c d442 0b3e 0598 f53d
000001c0: d6d4 52bd 942c f9bc 11ab 573c 18eb e73b
000001d0: 8931 0b3d e85d de3c 407a b7bc 988d 2dbc
000001e0: a24f 92bc 6c26 593d 3c7a e0bc ecb0 633c
000001f0: bbf4 d4bd e524 f9bc 69ee e7bd 8032 06be
00000200: c56f 15bd 6f08 b2bd a7d0 b2bd b777 963d
00000210: c5e4 403a 1656 6fbd 0c1e 943d 8bf2 cd3c
00000220: d21a 6f3d f173 8dbd 0adc 61bd d8da 8c3c
00000230: f6c4 de3d 3001 123e 54a6 47bd e7af ca3d
00000240: f011 c1be 5d4b 9d3e 31b9 05bc 2c94 e2bd
00000250: 7a87 c53c 19d2 eb3d b078 ffbb 334d b5be
00000260: 1a75 cabc 8463 04be 7148 9cbd 5ad6 983d
00000270: e1e7 1a3b 436f b7bd 3814 c3bb 270c 1dbe
00000280: bcbc bdbd 2ea1 95bd d0ec 06be 4c9b 0bbd
00000290: 23f0 f7bd fe04 2fbe c31a 9dbd 81e9 ad3c
000002a0: e495 12bc e17b 7d3d 3250 0f3e 3adc eabd
000002b0: ece7 c8bd b14e 8ebc 0865 0d3d e9a8 9cbc
000002c0: 566c 03be d9c5 d9bd 4180 603e f64d 83bc
000002d0: 506c c63d 7e67 cebd 0a89 0d3e 94d7 b53d
000002e0: eaec 843d 598a 813c 3ae3 de3d 4377 33bd
000002f0: 181f f93d d9af d4bd cc71 b83d d525 453d
00000300: 80c2 11bd faef 62bc e6b6 2b3b f197 05be
00000310: e752 8b3d 630d a23d 7cf8 9ebc 1a6a 74bd
00000320: 6da6 49bc 8066 363c ae3b ea3d ed5e 213d
00000330: a1a4 aab9 036e 123e 68c2 a8bd e71a 073e
00000340: 5d03 493d 789c ffbd 8810 b53d 76a9 d8ba
00000350: 3555 dcbc de00 91be 7377 8fbd 6b81 1dbe
00000360: 9c0b 9c3c fd22 9cbd b2e8 20bd 51fe ddbc
00000370: 021d 863d b41b 033e ce28 fbbd 3dfa 3bbe
00000380: 22aa 85be 557c 3fbe 05e0 edbd 33cd 873a
00000390: 4630 743d c079 4e3d 72be 593d 70be 8dbd
000003a0: acfe 1f3c 9fef 043b 9569 4abd 07fa 633a
000003b0: b1be 9abd 0a09 fbbc 764f e8bd 1899 c4bd
000003c0: 79eb 28be cc72 993b 3031 b73d 3739 f33d
000003d0: b216 acbd 3620 53bc ac75 32be 9e4c dfbc
000003e0: a3d5 abbc 166b b83a 3260 273d 10e9 f4bc
000003f0: 8589 c23d 6689 ad3d a83c 78bc c066 0a3c
0.09877321 0.07770287 -0.061934285 -0.03716762 0.12741435 -0.00665966 -0.09567706 -0.0064079966
-0.07263408 -0.08628627 -0.09129751 -0.12304965 -0.038353775 -0.14303261 0.0038312927 0.053474706
-0.10105019 -0.0121436855 -0.08503332 -0.02844937 -0.037482616 0.10805773 -0.06855299 -0.099706866
-0.12446213 -0.047377627 0.013165755 0.015938545 0.07071251 -0.05765343 -0.11754634 -0.15915313
-0.203915 0.052880775 -0.031434793 -0.20292978 0.07461405 -0.043926217 0.116650715 -0.0025896633
0.056004938 0.085303016 -0.06995749 0.14334464 -0.07811006 -0.020249154 0.12116665 -0.017226648
-0.13793921 0.07028933 0.16419034 0.10586558 0.049026582 0.069613755 -0.15737122 -0.096283406
-0.05145189 0.06851719 -0.14021997 0.008966209 -0.09922602 0.10743988 -0.046069182 -0.09526849
0.10925357 0.06416775 -0.083986364 0.017466385 -0.076312594 -0.042824805 0.076031506 0.08719582
-0.010914424 -0.05125281 -0.1142195 -0.10666372 -0.07866008 0.14287509 0.002921012 -0.13405655
0.21912877 -0.09669626 -0.044114 -0.029148111 -0.022025576 -0.07153925 0.12053215 -0.024141565
0.041436642 0.09812051 -0.045345224 -0.0041947775 -0.050668795 -0.049806256 -0.10292844 0.11038908
-0.075161226 -0.019579586 0.020495825 0.03950994 0.043046523 -0.038965736 -0.11432587 -0.023160692
-0.12415924 -0.043193206 -0.08927557 0.10421614 0.057217058 0.014825153 0.13599712 0.11991886
-0.051472507 -0.030416764 0.013163344 0.007077586 0.033982787 0.027144387 -0.02239716 -0.010592841
-0.017860238 0.053015158 -0.027402036 0.013897162 -0.10398241 -0.0304131 -0.1132477 -0.13105202
-0.036483545 -0.08693015 -0.087312035 0.073470525 0.0007358308 -0.058431707 0.072322935 0.025140068
0.058375187 -0.0690688 -0.055141486 0.017194197 0.10877411 0.14258265 -0.048742607 0.09896832
-0.37708998 0.3072156 -0.008161829 -0.11063418 0.024112452 0.11514682 -0.0077963695 -0.3541046
-0.024714042 -0.12928587 -0.076310046 0.07462759 0.0023636746 -0.08956768 -0.005953338 -0.15336667
-0.09264514 -0.07306133 -0.13176274 -0.03408365 -0.12106349 -0.17091748 -0.0767112 0.021229507
-0.0089468695 0.06188572 0.13995436 -0.11467786 -0.098098606 -0.017371507 0.03452018 -0.019123511
-0.12834296 -0.106334396 0.21923925 -0.016028386 0.09688628 -0.10078333 0.13821808 0.08879009
0.064905 0.01581304 0.10883184 -0.04381491 0.12164134 -0.10385103 0.0900608 0.048131783
-0.03558588 -0.01385116 0.0026201545 -0.13046242 0.06802922 0.079127096 -0.019405596 -0.0596715
-0.012307745 0.011132836 0.11437164 0.03939717 -0.00032547585 0.14299779 -0.08240205 0.13193856
0.049075473 -0.12481016 0.08841044 -0.0016529995 -0.026896099 -0.28320974 -0.07005205 -0.153814
0.019048505 -0.07623861 -0.039284416 -0.027098807 0.065485016 0.12803537 -0.12263642 -0.18357177
-0.26106364 -0.18699773 -0.11614994 0.0010360837 0.05961635 0.05040908 0.05316014 -0.06921089
0.009765308 0.0020284427 -0.049417097 0.000869662 -0.07555903 -0.030643959 -0.11343281 -0.09599513
-0.16496076 0.0046828743 0.08944929 0.11876147 -0.08402766 -0.012886098 -0.17427701 -0.027258214
-0.020975893 0.001407 0.040863223 -0.02989629 0.09498886 0.08473472 -0.01515118 0.008447349

conv2.bias f4 [32]
00000000: 5b24 3cbe 0d28 19be 9371 31be 96fd cebc
00000010: 3b2e 1cbd 3364 a4be b7a3 4cbe 6e51 553e
00000020: f152 06bc 7dae 3bbd dd26 0ebe 408e 5c3b
00000030: 4b97 83be 9b11 be3d 6681 60be ec1e b63d
00000040: 49bb debd f914 ed3d 345e 9b3e ae70 59bd
00000050: e484 443e 9df6 e23d dec9 923a c8f1 8abd
00000060: 567e 3ebc 648e 24be 72af 813e 8da2 06bd
00000070: e5b8 363e a5ce 35be b938 ddbc ee6e 7abd
-0.18373244 -0.14956684 -0.17328481 -0.025267404 -0.038130026 -0.32107696 -0.19984327 0.20831844
-0.008198486 -0.045820702 -0.13882013 0.0033654124 -0.25701365 0.09280702 -0.21924362 0.08892617
-0.108755656 0.11576266 0.3034531 -0.053085975 0.19191319 0.11082194 0.0011199077 -0.06784397
-0.0116268005 -0.16069943 0.25329167 -0.032869864 0.17843969 -0.1775461 -0.027004587 -0.061140947

transformer.layers.0.self_attn.in_proj_weight f4 [96, 32]
00000000: f386 a53e 52c5 df3e 77c0 8e3d 1c11 eebe
00000010: 5942 7b3b a23c 3abd f048 bf3d d7f1 e13e
00000020: 221b 283e 2056 1c3e a129 643f b875 023f
00000030: 4268 923e 2525 853f 8e74 bb3e 7c6e 2e3f
00000040: 89c3 053f 0411 18bf 186d 213e e136 28bd
00000050: 1d19 d03e 6bcc e8bd 121b ee3e 6fca bf3e
00000060: e26c 7a3e 4060 f43e def1 5f3f b6e3 9a3e
00000070: 7f18 c53e 234f 9a3d 2d16 c73e 3ee3 cc3e
00000080: 4b76 5abd 4420 c5be 3125 b4bd 89b0 0cbe
00000090: 6ac5 94bc 5d64 8dbe 745c 2fbe d0ea cfbe
000000a0: 8567 823b 8681 8c3d a197 06bf f107 a7be
000000b0: 0c8f c2be 8a71 63bf e2ee 863d d335 c5be
000000c0: 642b c8be 4c1d 3b3f 980d 8abe 6494 853e
000000d0: 7d0d 7e3d 9c4e c23e c336 e7be 3a6d 16bf
000000e0: 9c04 8dbe b9e0 12bf 97e1 c0be 51e8 80be
000000f0: f266 87be 213d adba b661 58be 89d8 a9bd
00000100: fdfc f0bd 2ce0 b73e 784c f53d 424d 353e
00000110: 9b6f e4bb 064a 6e3e b46f fabd 0f5f e23e
00000120: 4b03 d7bd 9cdf 983c 2a14 8b3e 5a24 fb3d
00000130: b9c9 d03d 81db b13e ca73 b8bd 48c9 223f
00000140: 8ef4 943e d889 2bbf a6b9 d53e b92b 0fbe
00000150: ad86 a53e 6573 bcbe fc70 803e 1f90 c93e
00000160: f404 45bd 6b5c ec3e c4d9 3c3f 4e93 ae3e
00000170: 438a 1e3f 5327 ac3d 6ef6 ab3e 561d 373e
00000180: 0823 c2be 2e99 e4be 5c43 563e 11aa 653f
00000190: 3aa1 61be d4cb e23d d347 24bd 5d9d e4be
000001a0: 0ee6 ec3c 38cd 2dbe 5018 02bf 68d1 92be
000001b0: bc51 2abe 3947 8cbf 6c6c 2bbe ba0a c8be
000001c0: c57b dabe 29e8 0f3f 1203 02be 3aba b03e
000001d0: 9a4d b0be 91bd 813d adb1 31bf 4431 19bf
000001e0: 6a91 043e 4228 1fbf 8ec7 30bf 3f8e dfbd
000001f0: 8b7a a3be 67f8 c73d 61dd d8be 0e5c bdbd
00000200: eeb3 9ebc 2e39 93bc d48c e3bd bd5a e6bc
00000210: c800 debc d786 123e f6d9 0d3e 97ff 6b3e
00000220: 8502 f33d 4584 b5bd 36ff 8a3e 129d d4bd
00000230: 0cdc bc3c 6edd 9b3e 1958 813d b7e9 b03d
00000240: 1c92 853d 6bfd 23be 4bab a6be 1e96 bf3d
00000250: fdcc 8e3e b729 253f 4636 81bd e567 013d
00000260: 25ed 803e 5bfc b6bd 169b 853e b340 f63e
00000270: 81fd cabe 68db 2abd 23ea 2f3e bf6f 5e3e
00000280: 94b5 1fbe bb85 2cbe 3f0a 093d db99 1cbe
00000290: e824 37bd 33fb 90bd 60a0 ea3d 3a86 f53d
000002a0: 4cc9 fcbd af26 d13c ac00 9fbe 8c6e 5a3e
000002b0: a5b7 123d a195 a4be f38b 88be c630 58be
000002c0: 1c3e 403d 8ea7 ed3d c9e6 fd3d f097 a2bd
000002d0: b918 2a3e 4add fc3e b980 eb3c a533 7dbe
000002e0: 5b72 52be dbd9 063e e416 9f3e 5ef2 32be
000002f0: 9555 d4bd 6d10 bbbe a02f a03c 2714 0f3d
00000300: b502 81be 781f 56be c1ce 893c cd57 ccbd
00000310: 8ec3 aabe b16c 333e ca7b 4bbe 9d55 9a3c
00000320: 67ef dfbd 52e3 c4ba c1af 26be 0ae3 703e
00000330: 1820 36be 93b1 b4be deaa fdbd 80bd b2be
00000340: 2959 9bbe 7394 613e e93d cfba 1340 8ebe
00000350: 415e 733e 0f65 953e c4b6 173e 40fa a9bd
00000360: 4a7f 97be 2ebd 00be 5feb 4c3e 1dc7 4cbe
00000370: 3add 2a3e a81d 97bd c11c 60be 3216 bd3d
00000380: f879 c9bd 6d1e 04be 7f88 be3d 1632 a6bd
00000390: 6552 62be c14d 29be baaf 9d3c fd77 29be
000003a0: d87e 38bd db3d 9fbc f461 8abe 136b 083f
000003b0: b236 b23d 812c ecbe fd47 aebd ea46 82bc
000003c0: e0f5 00be dd9f 763d 40b0 a53d 4a81 c6be
000003d0: c07c 913e 6cf1 f63e c159 19bc 5539 bebd
000003e0: 6f3c 7fbe e001 e83e ea97 f2bd 5eca 8d3c
000003f0: 0e09 d13e bff3 1bbe 00f0 b23b 48e2 f83d
0.3232952 0.4370523 0.069703035 -0.46497428 0.0038339107 -0.04546798 0.093400836 0.44129822
0.164166 0.15267229 0.8912602 0.50960875 0.28595167 1.0401961 0.36612362 0.68137336
0.5225149 -0.59400964 0.15764272 -0.04106796 0.4064416 -0.11367115 0.46505028 0.37459132
0.24455598 0.47729683 0.87478435 0.30251855 0.38495252 0.075346254 0.38884106 0.40017122
-0.05333547 -0.3850118 -0.08796156 -0.13739218 -0.01816054 -0.27615634 -0.17125112 -0.40608835
0.0039796256 0.06860642 -0.5257512 -0.32623246 -0.3799976 -0.8884512 0.06588532 -0.38517627
-0.39095604 0.7309158 -0.26963496 0.26089776 0.062024582 0.379506 -0.45158967 -0.58760417
-0.2754258 -0.5737415 -0.3767211 -0.25177243 -0.2644573 -0.001321707 -0.21131024 -0.08293254
-0.11767004 0.35913217 0.11977476 0.17705253 -0.006971312 0.23270425 -0.12228337 0.4421315
-0.10498675 0.018661313 0.2716382 0.12262793 0.101947255 0.3473778 -0.0900646 0.6358838
0.2909283 -0.6700721 0.417432 -0.13981523 0.32329312 -0.3680679 0.250862 0.39367768
-0.048100427 0.4616426 0.73769784 0.3409676 0.6192972 0.08405938 0.33586448 0.17882285
-0.37917352 -0.44648117 0.20924133 0.89712626 -0.2203416 0.110740334 -0.04010756 -0.4465131
0.028918292 -0.16972816 -0.5081835 -0.2867539 -0.16632742 -1.0959235 -0.16740578 -0.39070684
-0.42672554 0.56213623 -0.12696484 0.3451708 -0.34434205 0.06334985 -0.69411737 -0.598408
0.12946096 -0.62170804 -0.69054496 -0.10915803 -0.3192943 0.09764176 -0.423564 -0.09246074
-0.019372907 -0.017971601 -0.11110845 -0.02811944 -0.027099982 0.1430925 0.13852677 0.23046719
0.11865715 -0.08863119 0.27147835 -0.10381521 0.023054145 0.30442375 0.063156314 0.086383276
0.06522009 -0.1601464 -0.3255256 0.093548045 0.2789077 0.64516777 -0.0630918 0.031593222
0.25180927 -0.08934852 0.26094884 0.48096237 -0.39646533 -0.04171315 0.1717916 0.21722315
-0.1559661 -0.16847889 0.033457037 -0.15293066 -0.04471293 -0.070791624 0.1145637 0.11988492
-0.12343082 0.025531141 -0.310552 0.21331233 0.03581967 -0.32145408 -0.26669273 -0.21112356
0.046934232 0.11604224 0.123975344 -0.07939136 0.16610993 0.4938758 0.028747903 -0.24726732
-0.20551436 0.13169043 0.31072152 -0.17475268 -0.10367886 -0.3653597 0.01955396 0.03493133
-0.25197378 -0.20910442 0.01682222 -0.09977684 -0.3335232 0.17521931 -0.1987144 0.018839652
-0.10934334 -0.001502136 -0.16277982 0.23524109 -0.1778568 -0.35291728 -0.12386106 -0.34910202
-0.3034146 0.22029285 -0.0015811297 -0.2778326 0.23766424 0.29178664 0.14815813 -0.082996845
-0.295893 -0.12572166 0.20011662 -0.1999783 0.16685954 -0.07378703 -0.21885969 0.09232749
-0.09837717 -0.12902232 0.09303378 -0.08115022 -0.22101744 -0.16533567 0.019248832 -0.16549678
-0.045042843 -0.019438675 -0.27027857 0.5328838 0.087018386 -0.46127704 -0.085098244 -0.015902955
-0.12593794 0.06021105 0.08090258 -0.38770515 0.2841549 0.48231065 -0.009359778 -0.09288279
-0.24925397 0.4531393 -0.118453816 0.01730841 0.4082722 -0.152297 0.005460739 0.12152535

transformer.layers.0.self_attn.in_proj_bias f4 [96]
00000000: e082 033f 2247 18bf 8426 183f 9c17 b3be
00000010: de9d 1d3c 2415 30be e040 97be 49b5 77be
00000020: 561c 8d3d f566 19bf 08b2 373e b755 b8be
00000030: 62d3 0abd 5229 af3d abc2 513e e18a ec3e
00000040: 8c67 40be a789 0a3d 386a f23d 6cef 3fbe
00000050: d182 a7bb fe02 c73e dc9c 433d 4250 8dbe
00000060: 4cc1 0f3c 4ded 143c 86fb b1bd 013f bf3e
00000070: 72d4 103e 2c73 b7bb c50f 16be a84a 673e
00000080: 1281 f93e d50d b0be 6489 bc3e 284a 5bbf
00000090: a84d 81bd c162 b43e 9248 df3d e8c6 b83e
000000a0: 188a c7be 31aa d03e 2e42 263e c5ed 61bd
000000b0: b85a e1bb 12b5 ebbe 3ac7 b0be 6a7f 193d
000000c0: 3511 033e 8e9f c2bc e1a3 82bd 42b0 f7bd
000000d0: 5461 563f e742 be3e 6089 a5be 7c75 f23d
000000e0: 2217 063f 1452 fe3e 7db1 1ebf 01dc 4fbe
000000f0: 3127 2c3c 2df7 b4bd 3aa4 c43e 7bb8 77bd
00000100: 3b5a 3a3f 613d 23bf 46e0 8f3d d058 75bd
00000110: 7498 aebf df04 213f ea02 d63e 37e9 87be
00000120: cea4 05c0 e9eb abbf 49c2 c7bf 00b7 cd3f
00000130: 9578 0b3f 28da 0840 b841 92bf 45d0 18bf
00000140: cb22 57c0 afb2 31c0 869a 4440 1202 a5bf
00000150: 8361 a0bf 01b1 4440 02bd 6040 df43 59c0
00000160: f076 1d40 341c fcbf 5b7b 453e 014d 2dbf
00000170: 3329 0bbe 5ddd debf a2f6 f43f e856 e43f
0.51371574 -0.5948354 0.5943377 -0.3497895 0.009620158 -0.17195565 -0.29541683 -0.24190249
0.0689017 -0.59922725 0.17939007 -0.36002895 -0.033892997 0.08552803 0.20484416 0.46199706
-0.187895 0.03382268 0.11836666 -0.18743676 -0.00511203 0.3886947 0.047757015 -0.27600294
0.008774113 0.00908978 -0.086905524 0.37352756 0.14143541 -0.0055984464 -0.14654453 0.22587073
0.48731285 -0.34385553 0.3682357 -0.8566003 -0.0631364 0.35231593 0.109025136 0.36089253
-0.38972545 0.40754846 0.16236183 -0.055158395 -0.0068772696 -0.46036583 -0.34526998 0.037475027
0.12799533 -0.023757722 -0.06378914 -0.120941654 0.8374226 0.37160417 -0.3233137 0.118388146
0.5237905 0.49671996 -0.61989576 -0.20298769 0.010507391 -0.088362075 0.38406545 -0.06047867
0.7279393 -0.6376553 0.07025199 -0.05989915 -1.3640275 0.6289806 0.41799098 -0.26545116
-2.0881839 -1.3431369 -1.5606166 1.6071472 0.5448087 2.1383152 -1.1426306 -0.59692794
-3.3614986 -2.776531 3.0719314 -1.2891257 -1.2529758 3.0733035 3.5115361 -3.3947675
2.4603844 -1.9696107 0.19285338 -0.67695624 -0.13589935 -1.7411305 1.9137766 1.7839022

transformer.layers.0.self_attn.out_proj.weight f4 [32, 32]
00000000: 1165 c7bb 14ea 3cbf 6296 243f 66a9 17be
00000010: a131 6b3b ec1b 39be e544 dbbd 2b16 a0bd
00000020: 5465 14bf 19db 0dbd 338a 83be 5f58 a4bd
00000030: 4c12 afbe 129e 28be a7da 9a3d c052 24be
00000040: 28e6 bd3d 5e23 c6bd a09c 4a3e 57c8 28be
00000050: 99a2 cdbd a9f5 0f3f 5a6b af3e 5ff4 263f
00000060: 7efe d83e 85c0 9c3d 8ea9 87be 3224 34be
00000070: 95f4 3e3e ba42 80be e056 863e 2111 103f
00000080: 0237 2d3f 4d6a f0be 560b ca3e c64c 213e
00000090: 1738 973e dbcc 95bc 5d2f 1d3f 397c 20bf
000000a0: 21a8 cebe 2242 f63b 8f75 ecbe d243 033f
000000b0: 7ee1 89be 4aad 06bd ff3b 9e3d 13af 523e
000000c0: b800 32bf 6f71 14be b1b0 443f a638 9dbd
000000d0: a557 3fbe 2270 163f 9e7f 8c3f d001 47be
000000e0: 4957 4f3f a633 f4be 7a52 9cbe d1a7 503e
000000f0: eacb afbe aa04 213e 94dc cf3e 69de c53e
00000100: 899b 1fbe 17a7 a53e 97f0 063d a286 91be
00000110: e39e 113e 8e00 693d 3e10 c5bc a8b5 f43d
00000120: 5731 913e 10e2 ee3d 1cb5 953e 4a4d 073e
00000130: 507a fabd 12d4 963e e392 0dbe 1c1d 39bd
00000140: 9721 1abe 9012 b9be 0781 59be 729d f0bd
00000150: 20f0 78be f406 b4be 4fc7 7fbe 7847 19be
00000160: 5e75 f83d c9f0 5cbd af04 af3e b1a8 3dbf
00000170: 4c52 6ebd dbc6 e13e 7f09 2abf 6f30 1bbd
00000180: 1ebc fb3e ab97 293c 9127 c5be 5aa4 dd3d
00000190: eb01 6a3f da28 ae3e dab3 4e3f 0810 d3be
000001a0: 94b1 13be e4b7 b9be ca28 e5be 96d8 043f
000001b0: c5d7 c5be 4af2 aa3e 04dc 353e 192b 3d3e
000001c0: fa90 cabe b58d b6bd 0f9d e23b c725 7a3d
000001d0: cb2c 383f dc11 4d3e b716 de3e 86cc 11bf
000001e0: 18e0 613f 523f babe 8cf0 ccbe 152e 183f
000001f0: 84c0 e3be a227 4a3e f7a3 af3e 4d5e 09be
00000200: 97ce 9abe 0a9b 1a3e 138c 0dbf 5725 c33e
00000210: 5449 e0bd 2a72 afbe d94d 23be 5440 dbbe
00000220: e216 153f 0d4c 91be 3338 a6be 0e51 aabd
00000230: 5482 863e e13e 85be 40cd 833e 77fa 8f3e
00000240: b2ca 05bd 795a a63e 09fc e4bd ce04 9cbc
00000250: 4301 b43d 2cfc 343e 2359 81bd 20c8 99be
00000260: fad0 783d 5379 893d ca7e abbc 75da 223f
00000270: 944f a1be 5632 dcbd 7e9b b8bd fd38 a43d
00000280: c06d 80be e16f 873a 106b 6d3e 8f5e d13e
00000290: ee94 d8bc cd18 a23c affb 7c3d a028 863d
000002a0: 61f1 aabd 19ff 30bd 078a d23e 248c 1dbd
000002b0: a570 97be c48a 52be 4c50 5b3e ff0d 80bd
000002c0: 90b0 8f3e 3a67 afbe ddc3 acbe ed41 a6be
000002d0: 0578 bdbe 80e1 34be acd8 473d ef62 d93e
000002e0: 961d 86bd 93c1 1fbb 1ab2 3a3f a51b de3e
000002f0: e423 873e 3736 94bd 3be9 66bd 1a17 ef3c
00000300: 87fd 42bd 2cdc c73d 5fab 78bc ada6 90be
00000310: f354 a6bd 922f 89be b55c 68bd c7c8 72be
00000320: cfbf a83e e3e1 913d 5a38 1e3d 510a 02bd
00000330: 5ce9 a2bd bfb3 43be 8937 b43c 155b e53d
00000340: 42ad 4e3e c84c bc3c ad2d 59be a167 a0bd
00000350: af06 f13c 4fa9 44be fa46 33be 99fd c3bc
00000360: 7b69 433d 17e1 113e 8dcb ecbe c810 4dbf
00000370: e244 9bbe aff2 a43d b996 4dbe 6bfc dd3d
00000380: 6568 dabe 0320 233f 0a62 7ebf 640c 403f
00000390: 04e3 083f 3a6d a63e 690d 63be d6ee 2d3f
000003a0: b942 c9be 6ed5 b6be e490 063f 67a4 b43e
000003b0: 830a 643e a70a 183e 4db6 e63e f77d 3abe
000003c0: 2a42 21be e666 8c3e fed4 e5be a2b6 46bd
000003d0: e548 2f3f b0f6 5ebc 6ebe 8bbe 9b40 9cbe
000003e0: 75e5 84bf ddc2 4dbc 5e7d edbd e4bf 693f
000003f0: 0988 493e 7733 103f 82de 253d b3a4 b23d
-0.006085046 -0.73794675 0.64291966 -0.14810714 0.0035887735 -0.18077058 -0.107065 -0.07816728
-0.57967114 -0.034632776 -0.25691375 -0.08024668 -0.34193647 -0.16466549 0.07561236 -0.16047192
0.092724144 -0.096747145 0.1978631 -0.16482674 -0.10040779 0.5623422 0.3426159 0.6521663
0.42381662 0.07653908 -0.26496547 -0.17591932 0.18647988 -0.25050908 0.26238155 0.56276137
0.6766206 -0.469561 0.39461774 0.15751943 0.2953498 -0.01828616 0.61400396 -0.6268955
-0.40362647 0.007515208 -0.4618344 0.5127536 -0.2692985 -0.032880105 0.07726287 0.20574598
-0.69532347 -0.14496396 0.7683211 -0.076768205 -0.18685777 0.5876485 1.0976446 -0.19434285
0.8099256 -0.47695655 -0.30531675 0.20376517 -0.34335262 0.15724435 0.40597975 0.38646248
-0.15586676 0.32354042 0.032944288 -0.2842303 0.14220767 0.056885295 -0.024055596 0.11948711
0.28357956 0.11664212 0.29239738 0.13213077 -0.122303605 0.29458672 -0.13825564 -0.045193776
-0.15051876 -0.36146975 -0.21240626 -0.1174878 -0.2431035 -0.35161555 -0.24978374 -0.1496867
0.12131761 -0.053940568 0.3418326 -0.7408553 -0.058183953 0.44097027 -0.6642074 -0.037887987
0.4916696 0.010351102 -0.3850675 0.10822363 0.91409177 0.34015542 0.8074318 -0.41223168
-0.1442321 -0.3627311 -0.44757682 0.51892984 -0.38641182 0.33387977 0.1775971 0.18473472
-0.39563733 -0.08913747 0.0069156955 0.061071184 0.7194335 0.20026344 0.43376705 -0.56952703
0.88232565 -0.36376435 -0.40027273 0.59445316 -0.44482815 0.19741681 0.34304783 -0.13414879
-0.3023574 0.15098205 -0.5529186 0.38114426 -0.10951486 -0.34266788 -0.15947665 -0.42822516
0.5823804 -0.28378335 -0.32464752 -0.08316241 0.26271307 -0.26024535 0.2574253 0.28120777
-0.03266401 0.324909 -0.111808844 -0.01904526 0.08789303 0.17674321 -0.063158296 -0.30035496
0.06074617 0.06712594 -0.020934481 0.6361459 -0.31506026 -0.10751788 -0.09014033 0.08018682
-0.25083733 0.0010333025 0.23185372 0.40892455 -0.026438203 0.019787217 0.06176346 0.06550717
-0.083468206 -0.04321203 0.41120932 -0.038463727 -0.29578128 -0.20560747 0.2141735 -0.062526695
0.28064394 -0.34258443 -0.33743182 -0.32472172 -0.3700563 -0.17664146 0.04879062 0.42458293
-0.06548612 -0.0024376854 0.7292801 0.43380466 0.2639457 -0.07236903 -0.05637477 0.02918582
-0.047605064 0.09758791 -0.015177577 -0.28252164 -0.081216715 -0.26794106 -0.056729037 -0.23709403
0.32958838 0.071231626 0.03862796 -0.03174812 -0.07954666 -0.19111536 0.021999137 0.11199013
0.2018328 0.02298583 -0.2120883 -0.07832266 0.029422132 -0.19205211 -0.17507544 -0.023924636
0.047708016 0.14246021 -0.46249047 -0.8010373 -0.3032599 0.08054101 -0.20077027 0.108391605
-0.42657772 0.6372072 -0.99368346 0.75018907 0.534714 0.32505208 -0.22173084 0.6794256
-0.39308718 -0.3570971 0.52564836 0.3528168 0.22269635 0.14847814 0.4506096 -0.18212114
-0.15747896 0.27422255 -0.44889063 -0.048514016 0.68470603 -0.01360862 -0.27293724 -0.3051804
-1.0382525 -0.012558666 -0.115961775 0.91308427 0.196808 0.5632853 0.040495403 0.0872282

transformer.layers.0.self_attn.out_proj.bias f4 [32]
00000000: f9cc d53f 14b9 2f40 6346 41bf 1c1f 1440
00000010: 2b12 e43e 1780 c4bf e164 2abf 6071 56bf
00000020: 3d59 d53f b612 ecbe 4973 0b40 7db7 0d3f
00000030: 03e0 4b3f 3251 ed3f 1587 0240 8db2 df3f
00000040: a80a ef3f be0e 2340 ca41 9f3f fedc babf
00000050: 7533 31bf d572 2c3e 8efe 573f 3de2 43c0
00000060: ae0b 973f 853f 41bf c877 c53f 6cbf b63f
00000070: 769a ecbe 6025 fc3f 1d48 023f 8d98 91bf
1.6703178 2.7456713 -0.75498027 2.3143988 0.4454511 -1.535159 -0.6656018 -0.83766747
1.6667858 -0.46108025 2.1789114 0.55358106 0.7963869 1.8540404 2.0394948 1.7476364
1.8675127 2.5477748 1.2441952 -1.4598691 -0.6921914 0.1684068 0.84372795 -3.0606835
1.1800439 -0.7548755 1.5427179 1.4277167 -0.46211594 1.9698906 0.50891286 -1.137468

transformer.layers.0.linear1.weight f4 [2048, 32]
00000000: 1ee4 6c3e f570 6bbb 5cee cc3d 3cf7 60bd
00000010: 66ec fc3d c3ab cb3e 1932 df3d 24c6 b7be
00000020: c209 b8be 5de4 8e3d d920 8cbe e4ab 5c3e
00000030: 458c a4be 4fcb c13d 7fea d6bd 1baf e5bd
00000040: 26e7 2dbe ea71 53be 2b9a 193e 8119 be3e
00000050: 4dc2 f53d 1a00 5a3e 5f5b 9ebc 6c9f 923e
00000060: 2aa8 5bbe c5a1 b33d 1004 12be 71b4 b0be
00000070: 5f40 133e aa1b b8bd 6738 553e 8ed7 7cbe
00000080: 3352 01be 25ac 06be 4bbf b33c 1d03 0d3e
00000090: 43f1 233f 9bb8 233e 2293 f6bd 227c a43e
000000a0: b4bb 20be 86ac adbe f408 87be 486f 5b3e
000000b0: a5f7 82be 2650 f93e 7675 2fbd e742 1e3d
000000c0: 207d 90bd 79d1 89be 7701 c7bd a61f 48be
000000d0: 9848 723e 8126 5a3e 61aa 273f 674f 133e
000000e0: 2cad 833d 5723 7e3e 0dd3 9fbc 0250 a1be
000000f0: dbc7 a33e d4a2 833d c5e0 0b3e 5335 a3bb
00000100: 8e35 743d 4941 3ebe 1327 cf3d a92a 673d
00000110: 94f3 953c 9865 c0bc 9a8f 173e 428e 2abe
00000120: 2467 0abd c1da 16bd df60 963c 17be 273e
00000130: c8b2 81be 0033 4fbc 0ed4 89be 4f0b eebd
00000140: e63a 033d a189 0cbe d2ca 68bd 9a90 2f3d
00000150: 21fc 14bb 7652 823c 6c4d a8bc 005b ffbb
00000160: d729 43be 01c0 f03d 98cb 67be 6883 483c
00000170: 34f3 543d bd68 99bd ac4b 03be 2d95 113e
00000180: a657 303e d3c8 4d3d 2faf 153e fc22 16bd
00000190: ed09 703d bf7c 00be c1ed dcbd ac48 bdbd
000001a0: 9f5c c5bd 0360 873d 90ca 55ba 0b2c 0c3c
000001b0: f82f d7bd 9cb5 ed3c 38d4 71be 81c6 48be
000001c0: 8edc 31be 698f 20be be57 65bd a92e 7c39
000001d0: b024 eb3c 93d2 e03d 6d96 253e cd72 ab3d
000001e0: 0a1b 3dbe c476 bf3d 753c 63bc ace5 6cb9
000001f0: 3f86 2b3d 1ac0 6b3c b32c 5bbe 7e62 22be
00000200: ee7d e93e 52cd 90bf a00b 5b3e a8cf 61bf
00000210: 1acd 1b3d 7cff 9f3d 9a74 bcbd ba89 263d
00000220: d5ee 91be c523 1f3e 0bbc 04bf 6202 703e
00000230: a3cd b1bc c928 6c3e 9b4c f8bd 23bf eabc
00000240: 5a20 afbb 50ef 5fbe 2f77 013e d941 e23c
00000250: af14 983c 4dee 0ebe 8868 b43e 91d5 1dbf
00000260: 0501 673e 719c c3bd a4b4 1dbf d804 2dbe
00000270: c167 d43d 63e6 c0bc 2330 7d3c dce7 a23e
00000280: 3e11 373e 9bf2 3aba 042e de3d 1271 b73b
00000290: edba ce3d 903f 6a3c 64bb e93d 1e52 db3d
000002a0: dc25 7bbb 1158 c73c 1c19 1a3d c78b f43c
000002b0: f548 5f3d 535e dbbd 2c59 88bd 76c8 d7bd
000002c0: 5a13 cbbd e0a1 3b3b e982 84bd fee1 583e
000002d0: 809e 2dbc 6073 e33c e281 1b3e 38b6 3a3c
000002e0: c0e7 22be 0713 ab3d 7ec3 a6bd e05a 6fbd
000002f0: 147d c0bc 0527 9bbd 9210 4cbe aadc 3dbe
00000300: 1ae4 3dbc eeac 923d 81f5 8f3e b964 f63c
00000310: c0c2 8b3c 6e55 453e b087 5ebc 1ec4 88be
00000320: 42af 4bbe 190b c13c 3013 67be b9f2 453d
00000330: 2558 ac3c d56f ecbc bf42 8abe 6834 7fbe
00000340: 55af 0abe 97aa 44be 615b 563e 4774 0f3e
00000350: 703f 763b b338 66bd 7e68 833e 2b63 d03d
00000360: e9c1 3bbe 6033 13b8 007b df3c 950b 8cbe
00000370: fa20 2f3c a227 1dbe ed5b e9bd 68ad fbbd
00000380: 423f 34bd a8b3 393d ebc7 41bd c0fd 73be
00000390: 4461 313d 533e c03d a36a 423e 28f6 83be
000003a0: 101a 99bd 93fd 313e b291 c8bc 3a0f 823e
000003b0: 2c26 71bd a236 fc3d 2415 b23c 8aa9 d3bc
000003c0: c0a2 8f3c af0d 53be 27d9 44bd 2757 d33d
000003d0: ea8a 48bd 23a8 e8bc fd8d 20bd e0a5 e73b
000003e0: cd39 71be 8668 2dbc cf78 afbb d01d 0dbe
000003f0: 1d04 4d3d e04e 57be fe01 5ebe f73e 063d
0.23133895 -0.0035925482 0.10006401 -0.05492328 0.12349777 0.3977948 0.10898227 -0.35893357
-0.35944945 0.069771506 -0.2736881 0.21549946 -0.32138267 0.09462606 -0.10493945 -0.11215039
-0.16982707 -0.20648924 0.15000217 0.37128833 0.119999506 0.21289101 -0.019330679 0.28637254
-0.21450868 0.087710895 -0.14259362 -0.34512666 0.14380024 -0.089896515 0.20822297 -0.24691603
-0.12629013 -0.13151605 0.021941802 0.13770719 0.6404001 0.1598839 -0.12039782 0.32125956
-0.15696603 -0.33920687 -0.26374018 0.21429169 -0.25579563 0.4869396 -0.04283663 0.03863802
-0.07055116 -0.26917627 -0.09717076 -0.19543323 0.23660505 0.2130375 0.6549435 0.14385758
0.06429514 0.24818169 -0.019509817 -0.31506354 0.31988415 0.064275414 0.13659962 -0.004980722
0.059621386 -0.18579592 0.10114875 0.05643717 0.018304624 -0.023485944 0.14800873 -0.1665583
-0.03378977 -0.036829714 0.018356739 0.16381107 -0.25331712 -0.012646437 -0.26919597 -0.11623251
0.03203859 -0.13724376 -0.05683405 0.042862512 -0.0022733288 0.015908461 -0.02054473 -0.0077928305
-0.1905893 0.11755372 -0.22636259 0.012238361 0.05198975 -0.0749068 -0.12821835 0.14217062
0.17220935 0.05024035 0.14617608 -0.036654457 0.058603216 -0.12547587 -0.107875355 -0.09242377
-0.09636807 0.0661011 -0.00081554893 0.008555423 -0.10507196 0.029017262 -0.23616111 -0.19606973
-0.17369291 -0.15679707 -0.05599188 0.00024049975 0.028704017 0.10977664 0.16170664 0.08371506
-0.18467346 0.093488246 -0.013869395 -0.00022592273 0.041876074 0.014389062 -0.2140377 -0.15857884
0.4560389 -1.1312659 0.21391153 -0.88207483 0.038037397 0.07812402 -0.092019275 0.04065869
-0.28502527 0.15540989 -0.5184943 0.23438409 -0.0217045 0.23062433 -0.12123986 -0.028655594
-0.005344433 -0.21868634 0.12643121 0.02761929 0.01856455 -0.13958092 0.35236 -0.61654
0.22558983 -0.09551323 -0.6160376 -0.16896379 0.10371352 -0.023547357 0.015453371 0.3181752
0.17877671 -0.0007131488 0.108486205 0.005598196 0.10094247 0.014297381 0.11412695 0.10709022
-0.0038322126 0.024333986 0.037621602 0.029851807 0.054512937 -0.1071135 -0.06657633 -0.10536282
-0.099158004 0.002863042 -0.06470282 0.21179959 -0.010596871 0.027764976 0.15186265 0.011395983
-0.15908718 0.083532386 -0.08142756 -0.058436275 -0.023497142 -0.07575802 -0.19928196 -0.18541208
-0.011590028 0.0716189 0.28116992 0.030077325 0.017060637 0.1927087 -0.013582155 -0.26712126
-0.19891074 0.023564862 -0.22565913 0.04832718 0.021038124 -0.02886192 -0.27004048 -0.24922335
-0.13543446 -0.192057 0.20933296 0.140092 0.0037574433 -0.056206416 0.2566566 0.10175165
-0.1833569 -3.5095378e-05 0.02728033 -0.27352586 0.010689015 -0.1534715 -0.113944866 -0.12288934
-0.04400564 0.04533735 -0.047309797 -0.23827267 0.04330565 0.093868874 0.18985991 -0.2577374
-0.07475674 0.17381887 -0.024483535 0.25402242 -0.058874294 0.12315108 0.021738596 -0.025837678
0.01753366 -0.20610689 -0.048058655 0.10319357 -0.048960604 -0.028400486 -0.03919791 0.0070693344
-0.23557205 -0.010584002 -0.0053549777 -0.13780904 0.05005275 -0.21026182 -0.21680447 0.03277489

transformer.layers.0.linear1.bias f4 [2048]
00000000: 6352 15be f371 dcbd f78f 953d f3cd 333d
00000010: e3c9 57be 163f 60be a5ad 3e3c b382 6ebe
00000020: 1168 5dbe 70cf 7ebe cf94 a8bd f1f6 8fbd
00000030: 9f16 81be aa19 1fbd a0e2 94be 6a4a bfbd
00000040: e016 43be 466e 84be d488 26bd 094e 06be
00000050: c27e 5e3c bce9 7fbe ec0a 94be 904d ccbc
00000060: 52e0 5fbe eb49 e7bc 2b29 89bd 2163 3cbd
00000070: 79f6 e3bc 49c0 ebbd 1793 6ebe 6929 473d
00000080: 8cc5 fbbd e9ce a5be d811 8bbe 9aaf 66be
00000090: 59d5 86be d127 f5bd 0146 03be f14c c63c
000000a0: 79e3 0dbe 2676 91be 4747 33bd 7722 d63d
000000b0: bb6e 90bd 4df4 20be 7920 27be fb77 adbd
000000c0: ec82 91be 3d46 1abe 64f1 15be 4afb 35be
000000d0: 4e7e 82be 5efd fabd eaa6 18be 4e7b 55be
000000e0: 1a9b 39bd bc9c 25be 1e37 7dbe 5d1f 57bd
000000f0: dbb8 4abe 8122 203d f6a6 5ebe d09b 39be
00000100: 82ea 413c 5511 9e3a 821e 8bbe 1415 0cbe
00000110: 7263 8d3d 8476 52be a525 91be 67cb 8a3c
00000120: 1aba 77be 90a3 7fbe 23dc 08bd d69c 7ebe
00000130: ae50 9bbd 95f9 6d3c ebd8 0e3d 5908 e83c
00000140: 4eef 023d c8a4 3cbe 4b82 02be 95b7 fc3b
00000150: 4f33 8bbc 93c7 54be 07d5 20bd d613 12be
00000160: 55b9 2cbe b96e 40be 8aa7 65be 0c2c b1be
00000170: 6989 4bbe 8b58 13be 85ee c2bd f59a fdbd
00000180: 8656 6fbd c124 0fbe efe6 39be 5902 34bc
00000190: 5465 1ebe 835c 43bc 59af 80be 7c4e 4bbe
000001a0: b6fb 983c 959b 503c 8b1f 6a3d bd82 79be
000001b0: 12df f73c d94b 6fbe 9698 73bd b341 f4bd
000001c0: 0d31 af3d a833 3abe afbd 083e d4b3 13bd
000001d0: 2749 ca3b a2d7 e0bd 2112 95be 3171 1fbd
000001e0: a9a1 303d 45ff 27be 0f08 52be 5542 88be
000001f0: 38fe 5dbc b785 c2bc 5032 67be 52a5 113d
00000200: f185 0fbe fe5c 6dbe 3ede 11be 85fa b2bd
00000210: 00e4 ac3b 9882 89be 3708 36be d210 1ebd
00000220: ec83 3bbe 6b69 1dbe 765f cebd 79a0 fc3c
00000230: d20e 63be 6c40 32bd 9cc3 49be 13d5 88be
00000240: d2ea abbb 10c9 edbd 803b 2fbe adf3 d43d
00000250: 8877 c5bc 28b2 083d 575e 3c3c 444f 33bc
00000260: 3846 90be a297 87bd 3137 55bb 7662 98be
00000270: 583d cebd 748c 71be 0600 3dbe e684 65be
00000280: a5b1 33be a2f3 19be 891d 67be fa98 01be
00000290: d8d5 64bd 20fd 5ebe 5ff3 acba de4b e9bd
000002a0: 1d48 f2bd 9a40 f2bc f527 b3bd 5cc9 293d
000002b0: 4753 edbd 3644 17be 9e53 b0bd 15ad 7dbe
000002c0: 574f 29be 86a9 44be 6ee9 77bd 4a4c 82be
000002d0: e35a 83be 76e4 89be 7df1 eb3c 40be 9abd
000002e0: 7525 6c3c 2d71 92be d237 0fbe ead3 adbd
000002f0: 285e 3bbe ca9e 4bbe 0390 1ebe 2283 a0be
00000300: cf48 873d f08f fdbd 6941 d83d d92b 21be
00000310: deab 57be 456d 09be d6fd 44be 42e7 61be
00000320: 600f 0dbe 93bd 87be 6879 b9bd 947c 803d
00000330: 55de 48be f86c d63b c63b 97be fc4c a5be
00000340: d4b5 7cbe a962 5c3e 92d3 82bd 742c c2bd
00000350: a5e6 7dbc e807 5ebe 2739 6fbc 029c a9ba
00000360: 0195 6bbd 08ae eabd 4596 46be d70f 89be
00000370: e995 79be 84eb 3cbe a224 2ebd ca7f c3bd
00000380: 7d26 1d3e f253 8abd 5408 4cbe 8ee4 8ebe
00000390: ad84 3abe 38f9 e23c e3e4 073d a6d5 a23d
000003a0: b0ef 54be 3e61 783c f27b 203c 52be 5abd
000003b0: a67d 33be f5e8 9d3d f635 09bd 584b 293c
000003c0: 2afa 54be d4a6 65be 99ec 5d3b f153 29bd
000003d0: 6bf5 2a3d 392a d83c b64a bfbd ff33 a7bd
000003e0: 744d 04be b0cd 16be b745 83bd a2d0 713c
000003f0: 99f5 51be 951d 40be 9b35 1cbe 7dd6 553c
-0.1458221 -0.107639216 0.0730285 0.04389758 -0.21073107 -0.21899065 0.01163808 -0.23292045
-0.2162173 -0.24883819 -0.08231508 -0.07029522 -0.2521257 -0.038842835 -0.2907915 -0.09340365
-0.19051695 -0.25865382 -0.040657833 -0.13115706 0.013580026 -0.24991506 -0.28914583 -0.024939328
-0.21862915 -0.028233489 -0.06697305 -0.045992974 -0.027827488 -0.11511285 -0.23298298 0.048623476
-0.122935385 -0.32384422 -0.2716205 -0.22527924 -0.26334646 -0.11970485 -0.12819673 0.02420661
-0.13856305 -0.28410453 -0.043769147 0.104557924 -0.0705237 -0.15718193 -0.16320981 -0.0847015
-0.28420198 -0.15065856 -0.14642864 -0.1777164 -0.25486988 -0.12255357 -0.14907423 -0.20847818
-0.045313932 -0.1617307 -0.24728057 -0.052520145 -0.1979708 0.039095405 -0.21743378 -0.18125844
0.011835696 0.0012059609 -0.27171713 -0.13679916 0.06903733 -0.20553023 -0.28349033 0.016942693
-0.24192086 -0.24964738 -0.033413064 -0.24864516 -0.07583748 0.014524837 0.034874838 0.028324293
0.0319665 -0.18422234 -0.12745015 0.0077123144 -0.01699224 -0.20779257 -0.03926566 -0.1426538
-0.16867574 -0.18792237 -0.22427192 -0.34603918 -0.19876637 -0.14389245 -0.0951815 -0.12383071
-0.058432125 -0.13978864 -0.181545 -0.010986888 -0.15468341 -0.011923912 -0.2513378 -0.19854158
0.018674713 0.012732406 0.057158988 -0.24366279 0.030257735 -0.23368777 -0.05947169 -0.11926594
0.085542776 -0.18183768 0.13353609 -0.03606017 0.006173271 -0.10978629 -0.29115394 -0.038926307
0.04312292 -0.16405971 -0.20510887 -0.26613107 -0.01354938 -0.0237454 -0.22577786 0.035558052
-0.14015938 -0.23180005 -0.14244935 -0.08739189 0.005276203 -0.26857448 -0.17776571 -0.03859026
-0.18312043 -0.15372245 -0.100768015 0.030838238 -0.22173622 -0.04351847 -0.19703525 -0.26725063
-0.0052464986 -0.11610615 -0.17112541 0.1039804 -0.024104849 0.033373028 0.011497102 -0.010944191
-0.28178573 -0.066207185 -0.0032534117 -0.2976262 -0.10070294 -0.23588735 -0.1845704 -0.22413978
-0.17548235 -0.15034345 -0.2256986 -0.12656012 -0.055868 -0.21776247 -0.0013195089 -0.11391424
-0.11830161 -0.02957182 -0.087478556 0.041451797 -0.115881495 -0.14772114 -0.08609699 -0.24773057
-0.16534172 -0.19205293 -0.06052535 -0.2544883 -0.2565528 -0.26932114 0.028801674 -0.075558186
0.014413227 -0.2860197 -0.13986138 -0.08487685 -0.18297637 -0.19884792 -0.15484624 -0.31350046
0.06605684 -0.123809695 0.10559351 -0.15739383 -0.21061656 -0.1342059 -0.19237456 -0.22060874
-0.13775396 -0.2651182 -0.090563595 0.062737614 -0.19616063 0.006543752 -0.2953779 -0.32285297
-0.24678737 0.21522011 -0.0638801 -0.09481135 -0.0154968845 -0.21682703 -0.0146010285 -0.0012940171
-0.057515148 -0.11458975 -0.19393261 -0.26769897 -0.24373592 -0.18449217 -0.042515405 -0.09545858
0.15346713 -0.067542925 -0.19925052 -0.27908748 -0.18214674 0.027706727 0.033177268 0.079509065
-0.20794559 0.015159903 0.009795176 -0.05340416 -0.175284 0.07710449 -0.033498727 0.010332905
-0.20798555 -0.22426921 0.0033862947 -0.04133982 0.041737955 0.02638732 -0.09340422 -0.08164214
-0.12920171 -0.14726901 -0.064097814 0.014759215 -0.20503844 -0.18761285 -0.15254824 0.013051626

transformer.layers.0.linear2.weight f4 [32, 2048]
00000000: 8de6 84bd 24f0 68be 505f 30bc fbaa 5f3b
00000010: 6587 6dbe 9446 793c b2dc b73d 88e0 843d
00000020: f650 bbbc b7e7 1fbe b1a7 c93c 5eb9 9ebd
00000030: 4f23 b23d 01db f13d f3d8 a73a 44aa 7e3c
00000040: 1fda 42bd 7ba2 e7bd 57dc 923e 4c70 0bbc
00000050: c177 f5be 2018 0ebd f9a4 87bd 8703 683b
00000060: a776 be3d 0d3f ebbc 344d 2fbd aeca b33c
00000070: 7002 0dbd c8e3 583d c076 b3bc 8fad 8c3c
00000080: 9ecb 693c dfad 35bc d29b ca3b 9cfd 983b
00000090: 28bd 02bd 8d3f 2e3d dd26 31bb 5d79 6ebc
000000a0: b198 b73d bcb9 ad3e 6e77 a1bd 5f72 eabb
000000b0: a405 333c 9d5f 0fbd f825 61bd 14dd a2bc
000000c0: bf39 06bd 2698 553d a9dc 8ebb f46c febb
000000d0: 1ef2 69bd a3fe 043e 1427 083d a9c0 1bbe
000000e0: e5f7 07bb 6502 01bd 8c98 943b 2efa ce3d
000000f0: 2f38 453c 74ed 7abe a66a ed3d f348 33bb
00000100: b08b 5a3d 838a 40ba 5572 033c d3b4 803e
00000110: 0bb1 0cbb 55e0 ccbc 6f2a bcbc 66f2 f33c
00000120: 4245 e03c 94ef a03c bc3e 9d3e 2206 1c3d
00000130: 6301 f7bb 7cd8 febb 7d73 dcbc 68b4 643d
00000140: 605a 2ebc db9b 17bd 6509 0bbd 3ded 8d3c
00000150: b91b 08bd 96bb ae3c 4366 68bd 245e c13d
00000160: 2dbd ce3b 90d3 de3c 646d ef3a c08b 8cbe
00000170: d082 6c3d 0ccc 853e f7b0 22bc dd86 1dbd
00000180: 6c59 ce3d f790 c0be d5ab b83d 9ebc 933b
00000190: eca3 5ebd 25cc 66bd f647 0bbd 068e 953c
000001a0: e037 e23a 164a 33bd c29c 593d 02e4 5b3c
000001b0: 5bfb 953c 8497 8fbe 8321 a1bc 6259 a0bc
000001c0: 6334 6f3c fb89 10bd 8f0e 6cbe c36e b03d
000001d0: d47e bcbc 5ffd 03bc 032b aabd 7f96 49bc
000001e0: 8cee e2bc 8ca6 3cbd 7f50 9abd 7c28 be3b
000001f0: cd2d d23c 1e40 b43c c17d 52ba 0300 1fbf
00000200: d8d4 4fbb 8896 05bd c340 49bd 8325 18bf
00000210: bafb 3f3d d31a 71be 0abf 0abd 5cd8 e3ba
00000220: b9f3 103d 6441 1d3d 04fd e1bd 4da6 723d
00000230: 588f 983c c045 56bb eaf2 4abb 910c dabd
00000240: 1296 cd3b 6633 7a3d f73c d53b 11a2 80bb
00000250: fb3f 20bc 58a8 423c 884a 593d 127a 013c
00000260: ebc2 6fbd 70a1 1abb 97e0 8e3b 91c8 0a3c
00000270: c39b cfbb 43ff 95bb 7327 4dbd cdcd 25bb
00000280: cc2f b53c 9b80 f43c e93b 0d3d 1ae2 63bb
00000290: d732 c13d 3564 bb3a 5742 a23d 9a53 3e3c
000002a0: a2d8 90bd f51d 8ebe 5d82 2c3d 4313 f33b
000002b0: b319 e2bd 8d72 143c a604 efbc 8647 efbb
000002c0: 5695 6cbd 9fd0 05bb ebff e2bc 6745 6c3b
000002d0: d633 743d e79a dfbc 64bc 16bd 76b4 403c
000002e0: dda7 903d 4a0e 743c ff8f b63e 6f3a 863d
000002f0: 1e92 da3d 2443 1a3a 0394 b73c 110d 94be
00000300: 3055 80bc 92fd 4fbd 1b08 30bd d819 85bd
00000310: f9c1 3dbd 80da 0d3c 9196 7b3a 4cc7 683d
00000320: 4511 a9bc 4417 fabc fcd1 b8bc 4d66 533d
00000330: 1686 7abd c993 d33d 4b3a 4abd a80c f33d
00000340: 361c ac3d 584f c0bd d25a cf3d c0f2 c6ba
00000350: ee01 ea3c a55b 13bd 138f f0bc e4df 513d
00000360: a613 7e3d a7aa 5a3c 836b 90bb 24a3 8abd
00000370: 8496 443d 7b33 c8be b0e2 5bbb 3a91 75bd
00000380: 3df6 b73e ce9b a73d 106c bd3d e524 f5bb
00000390: 9573 0ebd 366e ccbb 158e 793c 8ddc abbd
000003a0: 145e d93c f371 66be ff09 8dbc 9380 943d
000003b0: 7fef 8cbd d596 253b 3b24 f9bd 3154 0abd
000003c0: cc0e ebbc fec7 44bd ab7c c23d 4573 353c
000003d0: e8a4 193d cc40 543c b86a ab3d 762e e53c
000003e0: d4b3 edbb 50d5 e2bc 295f 173d 8dbe 72bd
000003f0: 9845 02bd b093 0abc a575 153b f269 57bd
-0.064892866 -0.22747856 -0.010764912 0.0034129012 -0.2319618 0.015214581 0.08977641 0.064881384
-0.022865754 -0.15615736 0.024616094 -0.077502 0.08698141 0.1180935 0.0012805745 0.015543524
-0.047571298 -0.113102876 0.2868373 -0.00851066 -0.47942927 -0.034690976 -0.06623263 0.0035402493
0.09299975 -0.028716588 -0.042798236 0.021947231 -0.034426153 0.052951604 -0.02190721 0.017172603
0.0142697375 -0.011088817 0.006183126 0.0046689045 -0.031918675 0.042541075 -0.002703122 -0.014555302
0.089646704 0.33930767 -0.078841075 -0.0071547474 0.010926638 -0.035003293 -0.05496785 -0.019880809
-0.032769915 0.052147053 -0.004359801 -0.007764453 -0.057115667 0.12987761 0.033240393 -0.15210213
-0.0020747122 -0.031496424 0.0045347866 0.10106312 0.012037321 -0.24504644 0.11592607 -0.0027356714
0.053355873 -0.00073448586 0.008022864 0.25137958 -0.002146783 -0.025009314 -0.022969453 0.02977867
0.027376775 0.01964549 0.30711925 0.038091786 -0.007538007 -0.007777272 -0.026910538 0.05583611
-0.010641664 -0.03701387 -0.033944506 0.017325038 -0.033229563 0.021329682 -0.05673815 0.09441784
0.0063091726 0.02720049 0.0018266854 -0.2745037 0.05774194 0.26132238 -0.009929887 -0.038458694
0.100756496 -0.376106 0.09017149 0.004508569 -0.054355547 -0.05634703 -0.034004174 0.018256199
0.0017259084 -0.043771826 0.05312801 0.0134210605 0.018308332 -0.28045285 -0.0196693 -0.019573871
0.014599892 -0.03528784 -0.23052429 0.08614876 -0.023009695 -0.008056014 -0.08308985 -0.0123039475
-0.027701639 -0.04605727 -0.07534885 0.005803166 0.025656605 0.02200323 -0.0008029603 -0.6210939
-0.0031712558 -0.03261426 -0.049134027 -0.5943224 0.046870925 -0.23545389 -0.033873595 -0.0017383206
0.035388682 0.03839244 -0.11034587 0.059240628 0.01862304 -0.0032695383 -0.0030967542 -0.10646928
0.0062739933 0.061084174 0.0065075117 -0.00392557 -0.009780879 0.011880957 0.053049594 0.007902639
-0.058535498 -0.002359476 0.0043602693 0.00847067 -0.006335707 -0.0045775487 -0.05008645 -0.0025299669
0.022117518 0.02984648 0.034480963 -0.0034772218 0.09433525 0.0014296832 0.079228096 0.011616612
-0.070725694 -0.2775723 0.04211651 0.0074180677 -0.11040058 0.009060514 -0.029177021 -0.0073022274
-0.057759605 -0.0020418537 -0.027709922 0.003605211 0.059619747 -0.027295543 -0.036800757 0.011761775
0.070632674 0.014895985 0.35656735 0.06554114 0.10672401 0.00058846385 0.022409445 -0.2891622
-0.01566562 -0.050778933 -0.04297648 -0.0649907 -0.046327565 0.0086580515 0.0009597326 0.05683069
-0.020638118 -0.030528672 -0.022561066 0.051611234 -0.06116303 0.10330922 -0.049372 0.11867648
0.08403818 -0.093901336 0.101247445 -0.0015178546 0.028565373 -0.03597607 -0.029365098 0.05123891
0.062030457 0.013346351 -0.0044073476 -0.06769398 0.047995105 -0.39101776 -0.0033551864 -0.059952952
0.35930052 0.08184014 0.09249127 -0.007481205 -0.034778196 -0.006238724 0.015231629 -0.08391676
0.026534118 -0.22504406 -0.01721668 0.07251086 -0.06881618 0.0025266905 -0.121651135 -0.033771697
-0.02869358 -0.04804229 0.09496435 0.011074846 0.037510782 0.012954902 0.08369964 0.027976256
-0.007254103 -0.027689606 0.036955986 -0.059263755 -0.03180465 -0.008458063 0.0022805717 -0.05259127

transformer.layers.0.linear2.bias f4 [32]
00000000: ad17 333e 13db 66be 55e1 46be e3c5 44be
00000010: fe1c d43d 2c5c 1e3c 22d6 efbc 2e2a 0fbc
00000020: 9ec0 48be 0688 373e a2e3 4ebe d707 fdbe
00000030: 1bb8 1abe 60c0 8a3e 967e 5a3f d922 1a3d
00000040: 989a f1bb ce38 273f ad61 0c3d 8db5 b53d
00000050: cd3c a1be bc59 84be b86b 333e 3d07 693c
00000060: 66c1 29be f90f 36be a6dc 53bb d6a1 f9bd
00000070: 1c29 553d ce15 183e c1fb 38be e2d4 04be
0.174895 -0.22544508 -0.19421895 -0.19216113 0.10357092 0.00966553 -0.029276911 -0.008738084
-0.19604728 0.17922983 -0.20204023 -0.49420044 -0.15109293 0.27099895 0.85349405 0.03763089
-0.0073731653 0.6532105 0.03427284 0.08872519 -0.314917 -0.25849712 0.1752156 0.014222917
-0.16577682 -0.1777953 -0.0032327562 -0.12189071 0.052041158 0.14852068 -0.18064786 -0.12971833

transformer.layers.0.norm1.weight f4 [32]
00000000: a28c 813f 05f2 3ebf a742 9c3f 17a0 cdbe
00000010: ef16 ea3e db29 5a3f 483c 8f3f bb11 c8be
00000020: 22d8 33bf 2bbe 8b3f ecab c0be 9e57 6d3f
00000030: f46f 7abf ff8f 0f3f e09d ce3e 0270 10be
00000040: 2c42 573f d4ec 693f c45f 8f3f 358b 643f
00000050: 4b29 ae3f 0f25 b83f 759f 3c3f ae76 cb3f
00000060: c97d 07bf 4acf 7e3f 5351 453f ab36 4c3e
00000070: 44c5 8f3f b88d 723e a117 17bf 1ece 20bf
1.0121043 -0.7458804 1.2207841 -0.401612 0.45720622 0.85220116 1.1190271 -0.39076027
-0.7025167 1.091741 -0.37631166 0.9271182 -0.97827077 0.56079096 0.40354824 -0.14105228
0.84085345 0.91376996 1.12011 0.89274913 1.3606352 1.4386309 0.7368081 1.5895593
-0.5292631 0.9953505 0.77077216 0.19942729 1.1232076 0.23686874 -0.5902043 -0.6281451

transformer.layers.0.norm1.bias f4 [32]
00000000: efe7 39bf daed 013f ed8d 51bf c514 ee3e
00000010: 5022 5cbf e561 65bf 9d12 41bf 9bfc f73e
00000020: f9c9 dd3e d1cb e2be 615e 133f 3645 85bf
00000030: 0893 c53e a52a 6bbf 97b9 963f bcf5 153f
00000040: cd69 273f 6de0 8b3f 84e2 33bf 2423 35bf
00000050: 1e33 90bf 61a8 83bf d69c 6dbf a27d 3abf
00000060: af86 4b3e fa2e 5bbf 9459 443f c84a 963e
00000070: d0e2 82bf 7b02 433f af3f d13e 6ab9 bd3e
-0.7261953 0.5075356 -0.81857187 0.4650022 -0.85989857 -0.896025 -0.75419027 0.4843491
0.43318155 -0.44296125 0.57565886 -1.0411747 0.38588738 -0.91861945 1.1775388 0.58578086
0.65395814 1.0927864 -0.7026751 -0.70756745 -1.12656 -1.028576 -0.9281744 -0.7284795
0.19875596 -0.85618556 0.76699185 0.2935393 -1.0225468 0.7617566 0.408689 0.37055522
